trained_network/SD2/15x10+mix.pth (torch, 136969 bytes, 50 tensors)

feature_exact.op_attention_blocks.0.attention_0.W f4 [10, 32]
00000000: 904a 18bf 4b6c f3be 46b1 0e3f 4609 113f
00000010: cd9a f0be da62 8e3e 2de0 c33e 6b6c 273e
00000020: b065 133f 81e1 d7be c400 b43e d530 f33e
00000030: 50cd df3e c878 893e b785 cebe 74ae 5f3d
00000040: 733e 833d d53f 3ebe 3db0 dfbd 134d 123f
00000050: b36b 7abe fb60 a2bd a36c 15be 24cf a43e
00000060: 9193 92be 662b e63e 18c0 1b3e 0a5c 28be
00000070: f853 b1bb f5c5 4ebe c873 cdbe 49fc 743e
00000080: 6168 8c3e d8c0 0c3f c4a8 6b3e f817 1e3f
00000090: e48f f53e 3b06 913d d8a6 ba3e da99 cebe
000000a0: 4462 bf3e 5444 153e 3a3f dc3e a6e1 213e
000000b0: 6710 15bf b020 003f 3003 0fbf 08ac e53e
000000c0: ea6f 9fbe 9c3b 393e 0ebd 09bf 70ac 14bf
000000d0: 7acc a3be 4c9c f0be ce95 e8be 62e2 8bbd
000000e0: 6e27 aebe c172 bebe 5f2a 49bc 1906 b43e
000000f0: 147b e53d 030d 19be 4cc1 fb3e 5777 c7be
00000100: d9fd e5be 1681 c73e a852 5e3e da8d 263e
00000110: a14f 063e 1fc3 bfbe a0ca cc3e 59ca 08be
00000120: 3f80 f33e 884c c5bd 28b6 3bbe 896a 093e
00000130: 511b 7cbd 2e36 033f a3b8 023e ea2d 01bf
00000140: 4150 063f 094a 303e 7bb5 7fbe 8786 ef3e
00000150: e0dd 2bbe 6c45 6e3c 75fb da3e 71d4 07bf
00000160: 8916 90be d3c0 6f3d df47 cbbe 6ae7 893e
00000170: a8d4 12bf aed9 ff3d 2ce6 18bc 93ac 003e
00000180: 9763 dabe 4965 a8bc 8451 223e 49c6 8d3d
00000190: 9469 58bd 4e81 7d3d 0b6f 1abe 4f9c 1f3d
000001a0: 7386 f73e 1c88 be3e 23c5 b0be 4aeb 643c
000001b0: e183 c63e bb43 993e 5c78 4fbe e5ba cf3e
000001c0: d91e c9be 4603 60bd d104 0bbe f72b a13e
000001d0: a9e4 b5be 721f dfbe 01dc 9d3e af0b a1be
000001e0: c2d6 0f3f 9279 d0be e8b4 45be d903 d639
000001f0: 458e 9f3d 812a 1e3e a0cf 9d3e fa6f f63b
00000200: 6cbe bbbe 7392 66be 0460 ba3d 8509 d5be
00000210: 5e05 de3e 7d6f ec3e cbc0 88be 78ee bebd
00000220: 3248 fb3e 8035 3cbe f223 b73e 747e da3e
00000230: c21d d1be db7a 2ebe 318e 773e a226 86bd
00000240: 5829 75be 53ef a43e 5c91 0fbe 8387 e0bd
00000250: 81b8 fe3d 4023 6fbd fa2b 123d ba0e ad3e
00000260: f711 f4bc 848e a83e d627 d6be a6d1 3c3e
00000270: a65e f53e fb8e c1be d705 a5be 9950 c4be
00000280: 4fc2 86bd 3f80 303d 896b cfbe 9c54 513e
00000290: d28e 863e a6ef f7bd c949 633e fbba 90be
000002a0: 86d9 2ebe ea0e 743d b791 30be 7a6d dd3e
000002b0: ab4b c0be 631f 9d3d 323a 98be 621c c3be
000002c0: ec4f d0be 85fd cd3e 318e ffbe 81d3 9ebe
000002d0: 88ec 0f3f 1199 143e 0b7e acbc 7ed1 613e
000002e0: 21a9 02bf bae5 b83d 3ed5 f5be 739b 99be
000002f0: dca4 94be c8c0 b8be ddbb 3ebe 8e03 303e
00000300: 0e9f a13d f6ce cbbe 0553 a53d 32d8 ea3e
00000310: 2d42 9fbe fb4c 9fbc 7e36 b63d 4481 5bbe
00000320: 959f 90be 0f95 28bd cee4 8d3e d295 e53e
00000330: 828c 17be dbaf 743e 6bf0 083d cf02 eabe
00000340: a4c7 09bf 978a 083f acaf 023f 68fe 9dbe
00000350: 4588 3ebe 7b32 943e dc39 c1be 7adc 3cbe
00000360: 0e17 203c 6257 51be 8d46 c8be 24a6 673e
00000370: f569 a1bc f37f b03e b2db 383e f2dd 0bbf
00000380: f844 da3e 8743 fdbe 6640 f33e 6769 ddbe
00000390: db31 d5be 1f95 06bf e832 a43e 26c1 483e
000003a0: bb8f 0f3e 6458 573e 6aa9 063c aec5 0abf
000003b0: 1fc9 fc3e 5c24 cfbe 6d74 a2bd 9264 db3e
000003c0: 1e72 6f3e 5ff0 04bf c7c4 95be 9130 5dbe
000003d0: 9ba3 a5be 4819 8d3e 895c 47bd 6d40 e9bd
000003e0: 3387 d03e 2c13 f9be dc48 f33c 2a44 debe
000003f0: a8e1 8abd 864b 10bf 096f ca3e d2b0 4c3e
-0.59488773 -0.47543558 0.5573925 0.56654775 -0.46993104 0.27809793 0.3825697 0.16349952
0.5757704 -0.42164233 0.35156834 0.47498193 0.43711329 0.2684996 -0.4033639 0.05460973
0.064083956 -0.18579037 -0.10922287 0.57148856 -0.24455146 -0.07928654 -0.14592223 0.32189286
-0.2862821 0.44954985 0.15209997 -0.1644136 -0.005411621 -0.20192702 -0.40127397 0.23924364
0.27423385 0.54981756 0.23013598 0.61755323 0.47961342 0.070812665 0.36455417 -0.40351754
0.37379658 0.14576846 0.43016988 0.15808734 -0.58228153 0.5004988 -0.5586424 0.44857812
-0.3114007 0.18089145 -0.538041 -0.5807562 -0.3199194 -0.46994245 -0.45426792 -0.068302885
-0.34014457 -0.37196925 -0.012278168 0.35160902 0.11205116 -0.1494637 0.4917091 -0.38958237
-0.44920233 0.38965672 0.21711218 0.1626505 0.13116314 -0.37453553 0.3999834 -0.1335844
0.47558782 -0.09633738 -0.18331206 0.13419546 -0.06154949 0.51254547 0.12765746 -0.50460684
0.5246621 0.17215742 -0.24971573 0.46782324 -0.16783857 0.014542919 0.4276997 -0.53058535
-0.28142193 0.0585335 -0.3970327 0.26934367 -0.5735574 0.12492691 -0.009332221 0.12565832
-0.42654106 -0.020556109 0.15851408 0.069225855 -0.052835062 0.061890893 -0.15081422 0.038967427
0.48344764 0.37213218 -0.34525403 0.013972113 0.3877249 0.29934487 -0.20260757 0.40572277
-0.39281347 -0.05469062 -0.13576056 0.31478855 -0.35526016 -0.43578678 0.30831912 -0.31454226
0.5618707 -0.4071775 -0.19307292 0.00040820127 0.07790808 0.15445901 0.30822468 0.007520673
-0.36668718 -0.22516803 0.09100345 -0.41608825 0.4336347 0.4617881 -0.2670959 -0.09322828
0.49078518 -0.18379784 0.35769612 0.426746 -0.40843016 -0.17039053 0.24175335 -0.065503374
-0.23941553 0.3221384 -0.14020294 -0.10963347 0.12437535 -0.058383226 0.03568647 0.33800298
-0.029793723 0.3292123 -0.41827267 0.1843935 0.47923774 -0.37804398 -0.32231018 -0.3834274
-0.0658003 0.043091055 -0.4051173 0.20442432 0.26280838 -0.12106256 0.22196116 -0.28267655
-0.17075166 0.059584536 -0.17243086 0.43247586 -0.3755773 0.07672002 -0.297319 -0.38107592
-0.40685976 0.40232483 -0.4991317 -0.3102074 0.56220293 0.14511515 -0.021056196 0.22052571
-0.5103932 0.09028192 -0.48014253 -0.3000141 -0.29032028 -0.3608458 -0.18626352 0.17188856
0.078916654 -0.39806336 0.08072475 0.4586807 -0.31105176 -0.019445887 0.08897112 -0.2143603
-0.2824675 -0.04115778 0.27713627 0.44840866 -0.14799693 0.23895209 0.033432405 -0.45705268
-0.5382025 0.5333647 0.51049304 -0.3085816 -0.1860667 0.28944764 -0.37739456 -0.1844348
0.009771122 -0.2044349 -0.39116326 0.22621971 -0.019703845 0.34472618 0.18052557 -0.54635537
0.42630744 -0.49465582 0.4751007 -0.43244478 -0.416396 -0.5257129 0.32070088 0.1960493
0.14019673 0.21029812 0.008219102 -0.54207885 0.49372193 -0.40457428 -0.07932363 0.42850167
0.23383376 -0.5192928 -0.29251692 -0.21600558 -0.32351384 0.2755835 -0.048672233 -0.11389241
0.4072815 -0.4864744 0.029697828 -0.4341138 -0.06781322 -0.5636524 0.39537838 0.19989327

feature_exact.op_attention_blocks.0.attention_0.a f4 [64, 1]
00000000: da32 313e 465a b83e 1e3f a33e 4fcf ccbe
00000010: 7462 60be 3eaf edbe 1024 7bbe 4947 ca3e
00000020: 477b 873e bf9d c83e c584 07be 7522 48bd
00000030: 1962 4b3d 3ead 14bd c59c 913d 6ff6 b43e
00000040: 52fb d33d f2d0 b3be 3d2a 693e 363a 93be
00000050: 5460 673e 29a4 353e 19da de3e c2bb e1be
00000060: 7083 4fbe d7dd 2f3e b14e 9bbe 69b3 dbbe
00000070: 6456 673e 3341 2dbe 5820 bc3e 8dae cb3e
00000080: e622 af3e bf5e 25bd 95cf 243e 6d4f e03e
00000090: 1b57 8abe c14a f83d ec78 033e 8d07 b8bd
000000a0: 5b7b ac3e 2ce9 883e c848 353e 832d efbd
000000b0: b350 e13e 7623 583e b6f3 21be 9419 0ebe
000000c0: fe88 bf3e b99e ad3c f6ba c43e ff43 c83e
000000d0: 8689 2f3d e1e7 dd3e 5e71 9c3d 6b5c f03c
000000e0: af53 d2be 528b 76bd 81ca 9b3e 4eff e5bd
000000f0: 4e1b 013f 4be9 99be 21c5 d0bd d9ce 88be
0.17304555 0.36006373 0.31884092 -0.40001914 -0.21912557 -0.46422762 -0.24525476 0.3950751
0.2646124 0.3918285 -0.13234241 -0.048860986 0.0496541 -0.03629803 0.071099795 0.35344264
0.1035067 -0.3512035 0.22770019 -0.2875535 0.2259534 0.17738403 0.4352577 -0.4408856
-0.20264983 0.17174469 -0.30333474 -0.42910317 0.22591549 -0.16919403 0.36743426 0.3978161
0.34206313 -0.04037356 0.16094811 0.43810597 -0.2701958 0.12123633 0.12839097 -0.08985815
0.33687863 0.26740396 0.17703545 -0.116786025 0.4400688 0.21107277 -0.15815625 -0.13876945
0.37409204 0.021193849 0.3842389 0.39114377 0.042855762 0.43340972 0.076388106 0.029340943
-0.4107947 -0.06019146 0.30427936 -0.11230336 0.5043229 -0.300608 -0.10193849 -0.26720312

feature_exact.op_attention_blocks.0.attention_1.W f4 [10, 32]
00000000: ae61 a0be e9d6 003f 001f b2be 6894 343d
00000010: 8c75 8fbd 2934 b53e cf6e d0bc 488c 0d3f
00000020: 20a1 f83e a1ba 6e3e f8e7 a33e c9e3 96be
00000030: ad52 bdbd a453 f43e eb66 0b3f 7e09 af3e
00000040: 87e1 84be 18c7 68bd 2b5a dd3e 6e3e 04bf
00000050: 6567 773e a20e 9c3d 4fd6 243e 2b81 073e
00000060: 6eb3 213f 9ddb 25bf 3d8a 863e affe 1fbe
00000070: 2759 3a3e eab3 b0be e952 543e caaf 08bf
00000080: b394 ba3d e410 0f3f f6fd 56be 7299 ac3d
00000090: 7147 c8be f4ad 073f c5b5 acbd d377 cc3e
000000a0: 2014 69be f9ea a1bd e7c2 ecbe af3e 97be
000000b0: 927d 3bbf 2407 6f3e 3943 cb3d f3d2 a3be
000000c0: 0fe7 883e 4405 053f 3178 883e e9b8 673f
000000d0: 216f 033d 1802 28be 4235 a6be 69e8 053f
000000e0: 5d91 7fbd 00e9 b93d 3aa7 dbbe f1b5 bdbe
000000f0: c40a c33d 550f 173e eb76 0abd 14df b2bd
00000100: 0754 29be abfb 7f3e 831a 02be a2e8 143f
00000110: aef1 983e e0ee e3bd 67cf 11be bc48 9a3e
00000120: 1531 d83e 430f 44bc 17cd ba3e 64ec 483e
00000130: 2aa2 d2be 52df 893d 1e35 0bbe a169 f5be
00000140: dd23 56be df6b 9a3e 1365 3bbe 623a ae3e
00000150: c90d 3fbd 18d2 f03e 9e86 063f cf91 883e
00000160: e39a eabe 6db3 02bf d702 8d3e 15ad c73d
00000170: b83f 263e e66b 3a3e 77fd b63e c0d1 f53d
00000180: 4c61 993d d020 a0bd fa74 7d3d 4abd 86bc
00000190: 4aa6 173e a66b 9d3e ef7f cbbe 73b2 afbd
000001a0: 093e 38bd 88c2 c83e 73a1 fdbe 6896 af3e
000001b0: 1ef3 aebd 2db8 d43e adbd 333e 9ebd 73be
000001c0: 3ef4 d63e 3fa0 b73c ebe1 eebe d43c 9cbe
000001d0: 9225 6c3d 973f cebe eeba cbbe 0770 283e
000001e0: 60c5 9abe a8d7 35be 0caf f9be a03c 8c3e
000001f0: de22 b8be 83e8 1e3e 3389 34bd 99cb a3bd
00000200: 1cfb 9ebe 2b94 eebd 2e81 693e 1dd4 ee3e
00000210: a12c d63e 486e cd3e f89b 003f 365d 65be
00000220: 2d6c c8be 63ba 923e d487 99bd 27f2 aabe
00000230: ae19 6c3e 56ca 9e3d 46d4 5abc 2879 f23e
00000240: 895b 22be 74f7 b6bd 75ea c6be 2274 fabd
00000250: d157 a3be 7b9c 9bbe 60e1 303e 442a b6bc
00000260: 47c1 103f 1623 323e d60a 203e 3f74 1cbe
00000270: 0573 dcbe 9ff2 a63e 916a a03e 0a5c fc3e
00000280: b173 343e b148 ec3e 5c20 003e 1537 ccbc
00000290: 9b41 183e 738f 75be b8a7 a83d c0c9 71be
000002a0: 6f9c d5be 9c50 93be bb98 8c3e be33 823e
000002b0: ff5f 1e3e 02be 543e 3342 103f d693 4dbe
000002c0: 3f21 e83b 1883 7d3d d689 bf3e 51af d3bd
000002d0: 7f9b 9cbd 36f1 39be 698b 933e 89a0 5cbe
000002e0: 9e24 efbd f427 85be 77a4 863e 00c4 023f
000002f0: 832e b3be 50be 083f b1c4 cb3e 69c5 a0be
00000300: 3077 f3be f546 c93e 0495 8ebe 3eff debe
00000310: e900 fbbe e6e6 933e 47ac c7be f3bc ccbc
00000320: b8e6 013f bc74 e5bd 6330 663e 95d1 dbbe
00000330: e305 b13e 5e18 983e 9474 f8be 8294 aabe
00000340: bde5 99be ada7 083f 23dd 22be b8e3 f7be
00000350: a548 fa3e ed88 81be 784a 303e 147c 063f
00000360: 9c27 043f 27cd 03bf 5cca 65bd 0493 dcbc
00000370: d0e0 283e 6bdd 123f ef79 94be 259f 5abe
00000380: 9e1f 93bc 16e5 6a3e e308 cf3e a457 afbe
00000390: 3dc8 8f3d 5319 5fbe e1d4 863e a530 60be
000003a0: e8c5 81be ead8 783c 8728 09be b583 bbbe
000003b0: 3a02 ec3e 33fb 613e 0d59 41bc 794d f83e
000003c0: 9523 793e 3ffc 563d 7c9f 413e 25ef 893e
000003d0: e5be 8bbe e757 ddbe ad20 e33e a507 cfbe
000003e0: aa4c 903e 7285 b83e 5560 e33e 587b a33e
000003f0: 5682 e5be 6223 adbb 04a1 bdbe dc1a c03d
-0.31324524 0.50327927 -0.34789276 0.044086844 -0.07004842 0.35391358 -0.025443463 0.5529218
0.4856043 0.23313381 0.32012916 -0.2947066 -0.09244285 0.47720063 0.54453915 0.3418693
-0.25953314 -0.056830496 0.43232855 -0.5165776 0.24160536 0.076199785 0.16097377 0.13232867
0.6316441 -0.6478823 0.26277342 -0.15624498 0.18198071 -0.34512264 0.20734753 -0.5339323
0.091103934 0.5588515 -0.20995316 0.08427705 -0.39117005 0.52999806 -0.08433107 0.3993517
-0.22761583 -0.079061456 -0.4624245 -0.2954001 -0.7323848 0.23342568 0.09924931 -0.3199688
0.26738784 0.5196116 0.266542 0.90516526 0.032088403 -0.16407049 -0.32462507 0.52307755
-0.06239449 0.09077644 -0.4290102 -0.37052873 0.09523538 0.14751942 -0.033804815 -0.08733955
-0.1653596 0.24998347 -0.12705426 0.5816747 0.29871887 -0.11129546 -0.14239274 0.30133617
0.42224947 -0.011966529 0.36484596 0.19621426 -0.41139346 0.06732048 -0.13594481 -0.4793215
-0.20912118 0.30160424 -0.18300276 0.34028918 -0.046644006 0.4703529 0.5254916 0.26673743
-0.45821294 -0.5105503 0.2754123 0.0974981 0.16235244 0.18205222 0.35740253 0.12002897
0.07489261 -0.078187585 0.061879136 -0.016447682 0.14809528 0.30746192 -0.39746043 -0.08578958
-0.044981036 0.39210916 -0.49537238 0.34294438 -0.08542465 0.41546765 0.17552824 -0.23802802
0.41983217 0.022415278 -0.46656737 -0.30515158 0.057653017 -0.4028289 -0.39791054 0.16448985
-0.3022871 -0.17758048 -0.48766363 0.27390003 -0.35964102 0.15518384 -0.044076156 -0.079978175
-0.31050956 -0.116493545 0.22803184 0.46646205 0.41830924 0.401232 0.5023799 -0.22398838
-0.39145032 0.28657827 -0.0749661 -0.33387873 0.23056671 0.07753436 -0.013356274 0.4735806
-0.1585523 -0.08933917 -0.38850752 -0.12229182 -0.31902936 -0.30392823 0.17273474 -0.02223695
0.5654492 0.17396197 0.15629134 -0.1527872 -0.43056503 0.3260698 0.31331304 0.4928897
0.17622258 0.4614921 0.12512344 -0.024928609 0.14868777 -0.23980503 0.08235115 -0.23612118
-0.41720912 -0.28772438 0.27460274 0.254301 0.15466307 0.20775607 0.5635101 -0.20075926
0.0070840414 0.0618926 0.37409848 -0.10336173 -0.07646846 -0.18158421 0.288173 -0.21545614
-0.11676906 -0.26007044 0.26297352 0.5108032 -0.34996423 0.53415394 0.397985 -0.31400612
-0.4755187 0.39311948 -0.27848065 -0.4355411 -0.49024132 0.288871 -0.38998625 -0.024992442
0.50742674 -0.11203906 0.22479396 -0.42933336 0.34574804 0.2970609 -0.48526442 -0.33316427
-0.3005809 0.5338085 -0.1590467 -0.48415923 0.48883548 -0.2529978 0.17215908 0.5253308
0.5162294 -0.5148491 -0.056101188 -0.026925571 0.16492009 0.57369107 -0.28999278 -0.21349771
-0.017959412 0.22938952 0.40436468 -0.34246552 0.07020614 -0.21787004 0.2633429 -0.21893556
-0.25346303 0.015188435 -0.13394366 -0.36623922 0.4609545 0.22068481 -0.0118010165 0.48496607
0.2432998 0.052486654 0.18908495 0.26940265 -0.27294078 -0.43231127 0.44360867 -0.4043552
0.2818349 0.3603931 0.44409433 0.3193004 -0.44826 -0.005283759 -0.37036908 0.09380123

feature_exact.op_attention_blocks.0.attention_1.a f4 [64, 1]
00000000: 7b62 873e 27b6 c53e 9fe3 203d 884b a13e
00000010: bd50 bebe 6cd0 493d b510 793e 9303 14bd
00000020: fc9e 95be 988a 47be 0989 ea3d 6c4c 8cbe
00000030: be57 b63e 1df6 46be 89ab 98be b58a 533b
00000040: f7a5 2b3e 3e73 3f3e ab93 8c3d 4a26 473e
00000050: 419e bf3e f675 5b3e 13f1 b93d 96c8 fbbd
00000060: 368f dabd ed1e 493e d60c 0e3e f7e6 873c
00000070: 8cd3 95bd 7be9 803e f0f3 c9be 0f16 75bd
00000080: 9323 863d d2ab 9c3c e2a7 3fbe 6ab3 9abd
00000090: cf36 d93e 9bbe a4be be7c 76be 2e4a 7a3e
000000a0: bb8b d43d 04c1 873d c90e 953e c5c8 86be
000000b0: b82d e73e 07d0 3dbe 2edb d1bb eaae 5abe
000000c0: d13a 853e f783 d6be c100 993e 9b05 29be
000000d0: 2c86 7e3e 94a5 94be d721 b73e 8769 12bf
000000e0: 09e2 6c3c 3e49 71be af46 fe3d a055 f83e
000000f0: 3431 f0be d1c1 ee3e 5c44 323e ada7 5bbe
0.26442322 0.38615534 0.039279576 0.31502938 -0.37170973 0.049271032 0.2432278 -0.03613622
-0.29222858 -0.19486463 0.11451919 -0.27402055 0.35613817 -0.19429822 -0.2981837 0.003227872
0.1676253 0.18696305 0.06864103 0.194482 0.37425426 0.21431717 0.090791844 -0.12294118
-0.106718466 0.19640703 0.13872084 0.016589625 -0.0731574 0.2517813 -0.39443922 -0.05983549
0.06549754 0.019124899 -0.18716386 -0.07553752 0.42424628 -0.3217667 -0.24071023 0.2444236
0.10378214 0.06628612 0.29112843 -0.2632505 0.45152068 -0.18536387 -0.006404302 -0.21355787
0.26021436 -0.41897556 0.29883388 -0.16506045 0.2485587 -0.29032576 0.35768005 -0.5719227
0.014458188 -0.23563096 0.124158256 0.48502827 -0.4691254 0.46632245 0.1740889 -0.21450682

feature_exact.op_attention_blocks.0.attention_2.W f4 [10, 32]
00000000: ebff abbb 0e1c 53bf 9123 56be 8fb3 223f
00000010: 6963 2fbe 0e63 ff3e c512 3cbe d0ff af3e
00000020: 0e2d af3d f55a 79bd 40e9 003f f263 933e
00000030: 7097 a33e bbda 143f 1005 a4bd cb74 6cbe
00000040: 4ee4 41be 5169 9b3e 1190 ae3e 23ea 9f3e
00000050: 1068 88bd f3cc 053f a0a1 03be bd5a 0b3f
00000060: 9e8e 93be cd4c 5ebe 5da0 f3bd 9250 d1be
00000070: dd87 563e 3839 ecbe 0f55 bb3e 4b71 ce3e
00000080: defb b9be b293 213d 7bc2 24be aa1f b13e
00000090: 7d83 d8be 70a3 ca3d f089 253d d12e 0ebf
000000a0: 93db 0d3e c7ee b5be bb36 1d3d ccbc 1f3d
000000b0: 0729 37bf f988 e5be 85b9 113f 8242 1b3f
000000c0: a619 ad3e 800f 0dbf dbcb 0dbe b4d2 3d3d
000000d0: 9c42 e4be f719 3b3e ad43 26bf f849 923e
000000e0: 230b 3fbf 043d 94bd c460 3cbe 410d 023f
000000f0: b59f 673e 0881 74be 5526 18bf c0fb 1fbd
00000100: 1fab bb3e bc4a d93c de99 c33e d071 3ebe
00000110: 85a1 513c dcb7 0d3f a741 d3be a977 4d3e
00000120: f6f7 b13e ed7b 8fbb 021c d7be 5e23 a9be
00000130: e074 863e a8d5 11bf 6769 9d3e f8fb 9bbd
00000140: 863b 6fbe e6c9 e83e 1ca1 f8be f40d d83e
00000150: 8601 debd 78bd ecbe de0a 6e3e 5595 b43d
00000160: 70b5 fcbd d3fe 5dbe 2669 823d d914 0cbe
00000170: 0710 89be 8080 5f3e 61c5 473d fa40 003f
00000180: af13 fdbe 4727 013f 1014 dfbe cdbb 92be
00000190: fc69 e8ba 5920 1f3e 0d2e 6e3e f67a b2bd
000001a0: 136f e43e 657d 0f3f a090 86be 8890 2b3e
000001b0: f3a4 b53e e185 58be f9b7 b0be 4344 8e3e
000001c0: 0d08 34be 4eac 36be a078 c73e 3925 693e
000001d0: 9349 acbd 8156 1b3e 0e2a 42bd c273 babd
000001e0: 73f0 203e 3675 ef3a e81e 07bf 79cc da3e
000001f0: 8b08 f23e a380 003f d096 c2be 742b f03e
00000200: 3aa6 dbbe 8df8 a2bd e674 48be 3ec0 e6be
00000210: e80c 633e 7665 82be 493c 603e 59bc cc3e
00000220: c960 f63e 5dd7 853e f155 e2bd c46a 713e
00000230: 472a 163e e215 fa3e d04d 8ebe 8265 b8be
00000240: a6d1 82be c859 4b3e cc85 27bf 2176 fd3e
00000250: 0e9d 85be 5878 cabe a813 a93c aa41 f83e
00000260: 7d82 df3d b203 b83e a0ef c43e 6abe be3e
00000270: 957c fe3e bfc6 36be f282 d3be 751d 963e
00000280: 6f04 c9be 36b7 1dbe 1527 24be 3913 07bf
00000290: 4458 b13e a2d2 983e 2faf 8cbe 8690 003f
000002a0: 55ce 07bf fbd4 ffbe 8786 7ebe 561b d7be
000002b0: 4686 d8be f90a 013e 00a3 fd3c 672a 69bd
000002c0: 3ab0 aebe 7e54 193e a602 48be 00d2 c5be
000002d0: c93e 113f 0364 203e 1c47 cf3c 92b8 013d
000002e0: fbb7 af3e 44d5 583e c552 363c 556f 8dbe
000002f0: c100 a7bd 784d 8ebe 5e9e fbbc 3068 9dbe
00000300: d63d 16bf fe21 31be bb8b a33e 985f 9fbc
00000310: 04f5 223d db80 4b3f 4bac 24bc fe5c b2bd
00000320: 6c7f bcbe 9f74 8b3c c1dd 053e c929 66be
00000330: 1ed8 00bf f960 35be 8b8a 3fbe 317a ed3e
00000340: 214a 2f3f 1d6e 2e3e fff2 6e3e ce56 a6be
00000350: 4656 e8bd 5a7d de3d a1ab 23be c024 a0ba
00000360: 99e2 7d3d f84f d73e f9e0 28bd 2cc1 debe
00000370: aa51 89be f6f0 8cbe 276a e8be b412 423d
00000380: 18e7 343e 8535 8dbe 115f 9d3e c260 753e
00000390: 072d bb3e 87df e0bd 446d 29bd a538 a83e
000003a0: c753 e93e 52df d53e 53f9 e9be 28da 363a
000003b0: 3d81 45bd 6680 8a3e 532a 82bd b3f9 a2be
000003c0: 9439 113f 8ec8 00be 6be2 b7be 5429 903e
000003d0: 6495 20be c946 b73c 8f15 523c 2788 4b3e
000003e0: 24de adbe da2b 6f3d 437d c73e 7591 b03d
000003f0: feaf 863c a3ba ce3e f75b 1d3e b19e dc3b
-0.0052490137 -0.82464683 -0.20912005 0.63555235 -0.17127766 0.4988026 -0.18366535 0.34374857
0.085535154 -0.06087776 0.5035591 0.2878719 0.31951475 0.58146256 -0.08008778 -0.23091428
-0.18934748 0.30353788 0.3409429 0.3123332 -0.06660473 0.5226585 -0.12854624 0.5443533
-0.28819746 -0.21708985 -0.11895821 -0.40881783 0.20950265 -0.46137404 0.36588332 0.4032081
-0.36324972 0.039447494 -0.16089813 0.3459447 -0.42287818 0.098944545 0.04041475 -0.55540186
0.13853292 -0.35533735 0.038382273 0.03899841 -0.7154698 -0.44831064 0.56923705 0.6064836
0.3380863 -0.55101776 -0.13847296 0.04634352 -0.4458207 0.18271624 -0.64947015 0.2857206
-0.7462637 -0.072382 -0.18396288 0.50801474 0.22619517 -0.23877347 -0.5943349 -0.039058447
0.36653993 0.026524894 0.3820333 -0.18598104 0.012794857 0.5535867 -0.41261026 0.20065178
0.34759492 -0.004378787 -0.42013556 -0.33034796 0.26261044 -0.5696664 0.30744478 -0.076164186
-0.2336255 0.45466536 -0.48560417 0.42198145 -0.10840134 -0.46238303 0.23246333 0.08817545
-0.12339294 -0.21679239 0.06367712 -0.13679828 -0.2677004 0.21826363 0.04877222 0.50099146
-0.4942908 0.5045056 -0.43569994 -0.28658906 -0.0017731781 0.15539683 0.23259754 -0.08714859
0.44615993 0.5605071 -0.26282215 0.16754353 0.3547741 -0.21144821 -0.3451536 0.27786455
-0.17581196 -0.17839167 0.38959217 0.22768106 -0.08412471 0.15169717 -0.047403388 -0.0910411
0.15716724 0.0018269185 -0.52781534 0.42734125 0.47272143 0.50196284 -0.38005686 0.46908152
-0.42900258 -0.079575635 -0.19575843 -0.45068544 0.22172892 -0.25468034 0.21897997 0.39987448
0.48120716 0.26140872 -0.11051548 0.23575884 0.14664565 0.4884482 -0.2779374 -0.36014944
-0.25550574 0.19858468 -0.6543853 0.49504188 -0.26096386 -0.3954494 0.020639256 0.48487598
0.109135605 0.3594032 0.3846407 0.3725465 0.49704424 -0.17849253 -0.4131084 0.2931935
-0.39261195 -0.1540192 -0.16030534 -0.52763706 0.34637654 0.298482 -0.27477404 0.50220525
-0.5304921 -0.4996718 -0.24856006 -0.42013043 -0.42289943 0.12601842 0.030961514 -0.056925204
-0.34118825 0.14973637 -0.1953226 -0.3863678 0.5673643 0.15663151 0.025302462 0.03167016
0.34320053 0.21175104 0.011128132 -0.27624002 -0.08154441 -0.2779348 -0.030715164 -0.3074355
-0.58688104 -0.17298123 0.31942543 -0.019454762 0.039784446 0.7949349 -0.0100508435 -0.08709143
-0.36815965 0.017023383 0.13072874 -0.22476877 -0.5032977 -0.17712773 -0.18705194 0.46382287
0.68472487 0.17034192 0.23334883 -0.32488102 -0.1134458 0.10863753 -0.1598344 -0.0012217984
0.06198368 0.420532 -0.041230176 -0.43506753 -0.26820117 -0.2752759 -0.45393488 0.047381118
0.1766628 -0.27579895 0.30736592 0.23962691 0.3655779 -0.109801345 -0.04136397 0.32855716
0.4557173 0.41771942 -0.45698032 0.0006975257 -0.048218954 0.27051085 -0.06355729 -0.3183113
0.5672848 -0.12576506 -0.3591493 0.2815653 -0.15681988 0.02237262 0.012822523 0.19876157
-0.33958542 0.05839143 0.38962755 0.08621494 0.016441341 0.40376768 0.15367113 0.0067327847

feature_exact.op_attention_blocks.0.attention_2.a f4 [64, 1]
00000000: d2a6 693e 89cb 92be 3bcc a2be 15ab ad3e
00000010: 6bab a93e 9a4a 843d 5852 dcbd dbe0 a43e
00000020: df80 453d 0b09 b2be 1828 28bd 22ae 4a3d
00000030: a96f adbd 2d8d 7c3d a1b5 2abe b112 983c
00000040: e956 13bd 12d8 a13e 4802 223e 9723 80be
00000050: efed a5be bbc8 4c3e 8615 303e 69b5 3f3d
00000060: 748e 093e 09aa 3a3d 38a0 423e bb2c 36bd
00000070: 3a58 ec3d 0cd0 81bd a0eb fe3e 43ff 73be
00000080: e599 ce3e 89f4 d23e 0036 b9be 5440 cdbe
00000090: 8071 9c3e 63b2 d8be 12fa 1b3e a5a4 8bbe
000000a0: 99e2 8c3e 9133 d03e 3bdb 353d 398b 923e
000000b0: ce65 f3bd 2dc6 9abe b48a b13d 2247 3c3e
000000c0: dc1b cbbc 7daf cb3d 4eb3 143d 6cd5 09be
000000d0: 7116 8dbe 1944 cdbe d959 153e 72e8 53bd
000000e0: 9d2b 65be b4cd d4bd a945 863e d4c8 d83d
000000f0: 21e6 bdbe 0ecb 8a3e ab57 de3d d527 2c3e
0.22817543 -0.2867091 -0.3179644 0.33919588 0.33138594 0.064595416 -0.10757893 0.322028
0.048218604 -0.34772524 -0.04105386 0.049482472 -0.08468563 0.061658073 -0.16670848 0.0185636
-0.035971556 0.3161016 0.15821183 -0.25027153 -0.3240809 0.19998448 0.1719571 0.046803866
0.13433248 0.045572314 0.19006431 -0.044476252 0.115402654 -0.0633851 0.49789143 -0.23827843
0.40351787 0.4120219 -0.3617401 -0.4008814 0.30555344 -0.42323598 0.15232113 -0.2727405
0.2751663 0.40664342 0.044398528 0.28621843 -0.11884652 -0.3022932 0.08669034 0.1838651
-0.024793558 0.09945581 0.03630381 -0.1346032 -0.27556184 -0.40091017 0.14585055 -0.05173535
-0.22379918 -0.10390797 0.2622502 0.1058518 -0.37089637 0.27108043 0.10856565 0.1681207

feature_exact.op_attention_blocks.0.attention_3.W f4 [10, 32]
00000000: 636b 223e c668 133f 2c9b 973e 0723 2bbe
00000010: 06c0 25bf dc3f 26bf f776 05bf a083 043f
00000020: bd5a 03bf b387 c53e 347a 47bf 195d 713e
00000030: 7033 e73e 7240 2b3e 1867 d1be 5640 e2be
00000040: 37d0 a93e 30c2 4abf 7c9d fb3e ca52 d23d
00000050: d148 bc3b 96bc e8be b50a 0a3e 83a3 d13c
00000060: b8a3 05be 1746 523e 897c e13e fc7a 813d
00000070: 54ae 1fbf ccb0 d5be 0961 c43e 5caf 97be
00000080: 8799 7a3e 6390 acbe 6d7b 20bf 2f84 173e
00000090: e692 e53e 871c 8f3e 14d5 a7bd 419a 063f
000000a0: 6b8e 093f a450 183f 411e 263e a50c 0cbf
000000b0: db6d aebd aa57 ffbe 77d3 0a3f 0751 103e
000000c0: f14a f53e edd5 163f ff8c 71be a290 103f
000000d0: 153f 023e eb91 2b3e 1782 98be aed7 b83e
000000e0: 49fc 7ebe b71f 003f 6e60 e33e 64dc 06bf
000000f0: ce92 e8be 3ee6 f2be b886 10bf c80f 16bf
00000100: 69a4 bc3e c82c 47be a207 89bc 7063 5d3e
00000110: 7cb5 e6be ce13 813d d6ef ca3b 3e98 cabe
00000120: a08d 033f dea7 0b3f 512b 3bbe 94de 0abe
00000130: a69f f33d 1d93 95bd 31cd 4d3e f903 1b3e
00000140: 1a17 183e 1353 083f 1517 023e 0cc6 c0be
00000150: d235 77be b6cb e03e 3aff 453e 3c9d 35be
00000160: e280 ecbd 6478 25be 581d 6fbe 9801 c7be
00000170: 89c8 743e 172d bb3e e4ef aebe 3763 92bd
00000180: 908d 06bf 66a3 9dbd ed3c 803e ed3a 3e3e
00000190: 6dd2 a8be 27b9 90be 1a61 8f3e 8603 0abf
000001a0: 64ef c83e c68c 8fbe 0f82 f03e 4f43 afbe
000001b0: ec4b 503e 4a3c 473b 37c6 f4bd a89f 22be
000001c0: 6822 04bf 1547 ca3e 501a e0be 93d5 6d3c
000001d0: 4702 b43e 09c8 a7bd 2cd1 d2be 962a 0f3e
000001e0: 57b7 c93e 2157 f23e b338 f53d c17c 3a3e
000001f0: 5d09 273c 29e6 f43e 8bc9 fe3e 7927 363d
00000200: 23b0 ac3e b0de b83e 840c a3bd 7ba5 0e3e
00000210: 8544 6ebe 886e bfbe 45ec 98be dce1 5ebe
00000220: b11c f53e e877 f2bd 618d b7be 6e22 c63e
00000230: 5be7 c13e 891f 8d3d 092e a6be c5dd 033f
00000240: 0921 08be baa1 e8be 4e47 91bd af35 9f3e
00000250: 0d7a 03be 86b0 f63e 4ecd 19bd fcf3 923e
00000260: fcfe 17bf 4b6b 0dbf 3e87 a83e c159 f1be
00000270: 286f 743e bee2 09bf d5c3 c1be da7c eb3e
00000280: aa48 273e fa15 273e cdee 883e 4344 f8be
00000290: 3b51 0bbd ac1e fa3e d413 053f c11b dbbe
000002a0: d623 543e bce9 fbbe 26db f53e ccaa bbbd
000002b0: 62bf cfbd b02a c83e 09a0 8dbe 7ce0 3b3e
000002c0: 3a50 8dbd f93c d23e a5ea a33e fa92 dc3d
000002d0: 8e4b 973e c24b c23e f62f f13d 3c94 af3e
000002e0: f71d 59be 3afb cc3e 960a 09be 3c85 73be
000002f0: b7a6 dc3d e66e 4fbd f356 823e 3b93 013f
00000300: c15a b73e 89de 773d c437 f93e 73b8 193f
00000310: d6f5 1bbf dd15 0dbf c4b5 25bf 8070 d23e
00000320: dc05 e3bd 8b5c 233e 8787 f83c 8e8a e13d
00000330: d320 683c 81d3 dbbe aa05 44be 31ad 533d
00000340: 96bc 0d3f 6ac1 2ebe f545 03bf a7fb cdbe
00000350: ec1e b93e cc61 4cbd 093b d2be e7c1 a63d
00000360: b3f5 3ebf a168 71be 57c7 723e 3917 0abe
00000370: 7f48 2c3e 2f9f a4bd 66ae 0f3f 91ba 3e3e
00000380: 5239 363c ba9b 8cbe 851c 9c3e 1eb1 94be
00000390: 3350 adbe 540b 3c3e a296 5cbe 247e 64bd
000003a0: c4dd ddbd 6df9 a23e 39d4 dc3e 212a 02bf
000003b0: 8275 d63e 105e c53e d384 96be 1113 c7be
000003c0: c72f 033f b5d9 83bd 231b ecbe 3aa5 d3be
000003d0: aac5 ab3e 80d9 6c3e dd7c 23be 79ce 583e
000003e0: 8e72 7b3e 6f94 8c3e 352c bd3e 6f2a c83e
000003f0: 7d86 b93e f9c8 e23e 9f05 b63e 6ab1 eabe
0.15861277 0.57581747 0.29610574 -0.1671258 -0.6474613 -0.6494119 -0.5213465 0.51763344
-0.5131033 0.38580093 -0.7792084 0.2357067 0.4515643 0.16723803 -0.40898967 -0.4418971
0.33166668 -0.79202557 0.4914359 0.10269697 0.005745985 -0.4545638 0.13480647 0.025590664
-0.13050735 0.2053455 0.44040325 0.063222855 -0.6237538 -0.41736448 0.38355282 -0.29625976
0.24472629 -0.33703908 -0.6268833 0.14796518 0.44838637 0.27951452 -0.08194938 0.5257912
0.5373294 0.5949805 0.16222478 -0.54706794 -0.08517047 -0.4987157 0.5422892 0.1409341
0.47908738 0.58920175 -0.23588942 0.5647069 0.12719376 0.16754882 -0.2978675 0.3610205
-0.24900927 0.50048393 0.44409508 -0.5268004 -0.45424503 -0.47441286 -0.56455564 -0.5861783
0.36844185 -0.19450676 -0.016727272 0.21619964 -0.45060337 0.063026056 0.0061931415 -0.39569277
0.5138798 0.5455302 -0.18278243 -0.1356147 0.11895685 -0.0730345 0.20097806 0.15138234
0.14852563 0.5325176 0.12704118 -0.37651098 -0.24141625 0.4390542 0.19335642 -0.17735761
-0.1154802 -0.16159207 -0.23351038 -0.38868403 0.23904623 0.36557838 -0.34167397 -0.0714783
-0.5255976 -0.076971814 0.25046483 0.18577166 -0.32973042 -0.2826626 0.2800377 -0.53911626
0.3924514 -0.2803709 0.46974227 -0.3423104 0.20341462 0.0030400925 -0.11951869 -0.15881217
-0.51615 0.39507356 -0.43770075 0.014516252 0.35157987 -0.081924506 -0.4117521 0.13981089
0.3939769 0.473321 0.11973705 0.18211652 0.0101951035 0.47831848 0.4976314 0.044471238
0.33728132 0.36107397 -0.079613715 0.13930313 -0.23268326 -0.37389016 -0.2986776 -0.21765846
0.47873452 -0.118392766 -0.3585005 0.38698143 0.37871823 0.068907805 -0.32456997 0.5151027
-0.13293852 -0.45435888 -0.070936784 0.31095645 -0.12839527 0.48181552 -0.03754931 0.2870177
-0.5937345 -0.5524184 0.32915682 -0.4713879 0.23870528 -0.53861606 -0.3784472 0.45993692
0.16336313 0.16316977 0.2674469 -0.4848958 -0.034013014 0.48851526 0.5198338 -0.42794612
0.20716795 -0.49201763 0.4801876 -0.09163436 -0.10143925 0.39095068 -0.2766116 0.18347353
-0.069000676 0.41062143 0.32014957 0.10770221 0.2954983 0.37948424 0.11776726 0.3429278
-0.21202837 0.4003542 -0.13382944 -0.23781294 0.10773986 -0.05064287 0.25456962 0.5061528
0.35811427 0.06051496 0.48675358 0.6004707 -0.6092199 -0.55111486 -0.6473048 0.41101456
-0.11085102 0.15953271 0.030338062 0.11012755 0.014167982 -0.42934802 -0.19142786 0.05167884
0.55365884 -0.17065969 -0.5127862 -0.40231058 0.36156404 -0.049897954 -0.41060665 0.08142453
-0.7459366 -0.23575069 0.23708855 -0.13485421 0.1682453 -0.08038174 0.56125486 0.18625857
0.011122065 -0.2746256 0.3049051 -0.2904138 -0.3385025 0.18363696 -0.21541837 -0.05578436
-0.10833314 0.31830922 0.43130663 -0.50845534 0.41886526 0.38548326 -0.29398212 -0.38881734
0.5124478 -0.06438009 -0.46114454 -0.41336995 0.33549243 0.23129845 -0.159656 0.21172513
0.24555418 0.27456996 0.3694779 0.39094874 0.3623542 0.44293955 0.35551164 -0.4583848

feature_exact.op_attention_blocks.0.attention_3.a f4 [64, 1]
00000000: 05c2 ea3e 591f e53e 578e 45be 4e81 043e
00000010: 9e06 dabe 7705 363d 6a1d b53e a0d4 173e
00000020: 37e3 94be 24f9 98bd b0e6 80bd 742d c0be
00000030: b1af 53be 50b8 3ebe 6a81 863e cddc 9fbe
00000040: 7aa6 3b3d 08ad a93d fa80 c5bd 71e0 85be
00000050: 3a23 b6be cb9e 09be 0a78 963e 5a02 b13e
00000060: 3465 d73d 5f9f bbbe 457b e53e b363 183e
00000070: 6336 16be 6b7a c6be 0d4d 56bb 09c7 be3e
00000080: fdbc d33e 4a94 5e3e 6eef be3d 1598 d33d
00000090: 0fe3 f0be 2385 9d3c d3f9 ddbe 4017 17be
000000a0: cd26 c2bc 313b 89be 1631 fabe a1cd 98be
000000b0: bc58 c03e af9b ac3c 5f9e 8abe b7d9 273d
000000c0: c3e8 eb3e 3a32 e5bc 142f 693d 0e1d d0be
000000d0: 51f6 c33e 5e65 01bd 5bda 14be e435 3cbe
000000e0: 940e c5be a725 39be 8e9a 34bd 8582 b0be
000000f0: dd67 bcbe 0f10 cebc fcbc bc3e 9e86 113e
0.4585115 0.4475048 -0.1929258 0.12939951 -0.42583174 0.044438805 0.35374004 0.14827204
-0.290796 -0.07469395 -0.06294 -0.37534678 -0.2067249 -0.18624997 0.2627061 -0.31223145
0.04581306 0.08284956 -0.09643741 -0.26147798 -0.3557375 -0.13439481 0.29388458 0.34572107
0.1051735 -0.36645028 0.4482061 0.14881782 -0.14669184 -0.38765272 -0.0032699734 0.37261227
0.41355124 0.21736255 0.09323011 0.10331742 -0.47048232 0.019228524 -0.43354663 -0.14754963
-0.023700142 -0.26802972 -0.48865575 -0.29844382 0.375677 0.02107033 -0.27073953 0.040979113
0.4607602 -0.027978051 0.056929663 -0.40647167 0.38273862 -0.031590812 -0.14536421 -0.18379933
-0.38487685 -0.1808077 -0.044092707 -0.34474578 -0.3679799 -0.025154142 0.36862934 0.14211509

feature_exact.op_attention_blocks.1.attention_0.W f4 [128, 8]
00000000: 01dd b2bd 032d 98be a0ff a3bd 27db 783e
00000010: 4a47 b93d 41b1 683e 9502 b0bc b43c 7c3e
00000020: 379e dfbc 6e50 ccbe ccee 723e aa8a ab3d
00000030: 942d 00be 7c8a 0b3e 97fd 263e ea7f 2e3d
00000040: 285d 51be c5a6 8d3d cf67 a83e ea12 22be
00000050: 3510 ca3d bebb 9c3e b475 8e3d 8548 3abd
00000060: 014c 2d3c 4c27 35be 12b7 fe3d 76d0 e63d
00000070: 65ea 00bd c11f d5bb d390 063d 4878 153b
00000080: a30b ba3d f8f7 6dbe 83b1 a2bd 9eea e6bd
00000090: 40a9 313d 7aac b7bd 09cc 773e 29f1 5a3e
000000a0: 2082 a0bc aabd b2bd 7991 663e fd55 5ebe
000000b0: c356 5ebd 7c76 1ebd 5594 48be 98f2 eebc
000000c0: 17d7 a9be 3fa0 26be e353 aebc 5fcf 88be
000000d0: cd03 18be fb80 e63c d395 8dbe b06a 953e
000000e0: f9e9 673d b869 b7be b5b1 adbd f535 113e
000000f0: 0b8f 16be 0318 0a3e 3b7f 533d 5d1d e43c
00000100: 4a06 38be 924b b63e 7201 843e 5fa3 003e
00000110: 42b7 313e 43d0 8f3e f8cd 273e 1eba 1dbe
00000120: a516 8ebe 9f44 b5be 6766 5ebe 6f74 823d
00000130: 60ba adbe f04a 51be da94 cf3d 9b75 4c3d
00000140: 7e2b 363e 7612 aa3e 7e46 a23e 7f3a 303e
00000150: 2193 39be d949 923d e99f a4bd fc60 993e
00000160: d681 c33d 057c 2c3e f352 ebbb 7078 c23d
00000170: 731d ab3e 2cec 803e 8297 97be 08b2 323e
00000180: 33db 8c3e 2c16 74be c87e 103e fc98 36be
00000190: de9a 273e f645 d83d d437 88bd 21a3 b2bb
000001a0: dcc9 283d c749 f1bd 95cb cd3e 51d9 023c
000001b0: 7d43 483e 4df6 b33d 5945 d53d f877 ccbd
000001c0: 98a1 c43e 586a 8e3c 8d2f 80bd 44ec b63e
000001d0: 068e f4bc 82d0 273e 415d a63e 7f6e 7cbe
000001e0: 9d48 4ebc ec06 90be e23e cfbb da7c cc3d
000001f0: 16e9 cabd bec2 2b3e 9893 ab3d 0037 4f3e
00000200: 35f7 8c3e b58a a1be 355e f1bd 1c75 01be
00000210: 942c 4c3e 0c9b 58be 3a86 87be ebd1 9bbe
00000220: ff32 f03d 293d b33c 9241 8f3e 5547 39bd
00000230: 4f61 543b 81ae aa3e 171e b5be e7ab a83d
00000240: 77a4 dc3d b61d 353e 389d f9b9 d2cf 88bd
00000250: 0110 8cbe 92ab 163b 18ae 333e 8bf4 c1bd
00000260: 3bc2 893e b66e 903e 483d 4a3d eedf 4dbe
00000270: 46f2 78be 36be 963e 116f 2cbc dd24 fc3d
00000280: 2046 103e eeea 033d fef5 abbe f723 ca3d
00000290: a9d6 813d 8644 34be 233b 95ba 6c18 493e
000002a0: 937b babd 3383 7ebe ee20 5c3e 36ce b13e
000002b0: efba 803e e0a6 95bd 2c3d a43d 4a0e 733e
000002c0: d7e2 fdbd d8c1 ebbd dab1 d43c 366a 093e
000002d0: 7f25 b9be 696d e93d 3bb0 8dbc da28 723a
000002e0: a06d 23bd cf17 6b3d 3333 efbd 5bb7 9cbe
000002f0: 41fe 903e d25f a3bd 4645 80be a1df 32be
00000300: ee92 453e c473 683e c532 6e3e 2182 293e
00000310: 0ec0 7e3e a900 873e f062 95be cdab 123d
00000320: c2fe 29bc 8b68 8e3e e998 973e 724b 7bbe
00000330: 409e 3bbe 87c7 913e 5b78 233d 1838 673e
00000340: 9e72 5b3d 90a3 22be 4df1 cc3d 6902 0e3e
00000350: 60d4 623d 5711 f63b 9157 7dbe 857b 1d3e
00000360: 9bff 433e 6d68 28be 4016 3dbe 8ae3 8c3d
00000370: e191 943e f4e5 10be b054 87be 0f0c 47be
00000380: 0f01 dd3c 85a8 59be 9831 d4bc 5c48 123c
00000390: a006 19be 56e8 61be 36fd 773e 8e32 06be
000003a0: dc16 cf3d 00fd 8cbd c4c6 4b3d bceb 31be
000003b0: ec2b e9bd d9c0 333e 17ff 933e 399e a03d
000003c0: 1a5a e8be 130c 34be 5fab 6bbe d7f5 c2be
000003d0: 8a5a 3bbd 037e 1abe 4d0f 31bd 4542 2c3e
000003e0: 5400 c93d 9141 6c3e 2627 893d 4f1c 393e
000003f0: 3620 51bd 9eea 64be 9ade dfbe 350d 2f3d
-0.087335594 -0.2972184 -0.08007741 0.2430235 0.090468004 0.22723867 -0.021485606 0.24632531
-0.027297122 -0.39905113 0.23723906 0.083760574 -0.12517387 0.13627046 0.16307674 0.042602457
-0.20445693 0.069165744 0.328917 -0.15827528 0.098663725 0.30611986 0.06956044 -0.045479316
0.010577203 -0.17690772 0.12437262 0.112702295 -0.031473536 -0.0065040295 0.03285296 0.002280729
0.09084251 -0.23239124 -0.07944014 -0.112752184 0.0433743 -0.08968444 0.24198927 0.21381058
-0.019593298 -0.08727582 0.22516431 -0.2171249 -0.05428196 -0.038687214 -0.19587834 -0.029168412
-0.33171913 -0.16272067 -0.021280235 -0.26720712 -0.148452 0.028137675 -0.2765337 0.2918296
0.056619618 -0.35822845 -0.084811606 0.14180739 -0.14703004 0.13485722 0.05163501 0.027846033
-0.17971149 0.3560453 0.25782353 0.12562321 0.17355064 0.2808858 0.16387165 -0.1540303
-0.2775165 -0.35403916 -0.21718751 0.06369864 -0.33931255 -0.20438743 0.10135813 0.049916845
0.17790028 0.3321721 0.31694406 0.17209814 -0.18122531 0.071429916 -0.08038313 0.29956806
0.095462486 0.16844185 -0.007181519 0.09495628 0.33420905 0.25180185 -0.2960778 0.17450726
0.27510986 -0.23836583 0.14110863 -0.17831796 0.16367671 0.10560219 -0.06651273 -0.0054515754
0.041208133 -0.1178165 0.40194383 0.007986383 0.19556995 0.087872125 0.10413618 -0.0998382
0.38404536 0.017384693 -0.062590696 0.3572713 -0.029852878 0.16388133 0.32493022 -0.24651526
-0.012590555 -0.2813028 -0.006324635 0.09984751 -0.09907739 0.16773507 0.08377761 0.20235825
0.27532354 -0.31551138 -0.11785547 -0.1264233 0.1993888 -0.21152896 -0.26469594 -0.30433592
0.11728477 0.02187975 0.27979714 -0.045234043 0.0032406633 0.3333626 -0.3537452 0.08235913
0.10773557 0.17687115 -0.00047610118 -0.066802636 -0.2735596 0.0022990447 0.1754688 -0.09470471
0.26906 0.28209466 0.04937485 -0.20104954 -0.2431117 0.29441994 -0.010524527 0.123117186
0.1408925 0.03220647 -0.33586115 0.09870141 0.06339771 -0.17604265 -0.0011385422 0.19638222
-0.09105601 -0.24854736 0.21496937 0.3472764 0.2514262 -0.073072195 0.0801948 0.2373592
-0.12396782 -0.11511582 0.025963712 0.13419423 -0.3616142 0.113978215 -0.017295947 0.0009237655
-0.03989947 0.057395753 -0.11679687 -0.3060864 0.2831898 -0.07977261 -0.2505285 -0.1746812
0.1929433 0.22700411 0.23261555 0.16553546 0.2487795 0.2636769 -0.29177046 0.035808373
-0.01037568 0.27814135 0.2960885 -0.24540499 -0.18322086 0.2847254 0.0399097 0.22579992
0.053576104 -0.15882707 0.10006962 0.13868107 0.055378318 0.0075093913 -0.24740435 0.1537915
0.19140474 -0.16446085 -0.18465519 0.06879337 0.29017547 -0.1415022 -0.264318 -0.19438194
0.026978044 -0.21255691 -0.025902554 0.008928385 -0.14943933 -0.22061285 0.24217686 -0.13105223
0.10111782 -0.068841934 0.049750105 -0.17375082 -0.113853306 0.17554034 0.28905556 0.078426786
-0.45381242 -0.17582731 -0.23014592 -0.38078186 -0.04574064 -0.15087132 -0.043227483 0.16822155
0.09814516 0.23071887 0.0669692 0.18077205 -0.05105611 -0.22355124 -0.4372452 0.042737205

feature_exact.op_attention_blocks.1.attention_0.a f4 [16, 1]
00000000: c69c 253f 4343 b0be f442 04be 71a3 2abf
00000010: cb9b 1d3e 4fff 13be a5b7 64bf d225 603f
00000020: 2a57 4d3f 6200 e83e 515b febe 5a0f d43e
00000030: 7685 6e3e 00cd a5be 2291 003f a54e 27be
0.6469234 -0.34426317 -0.12916166 -0.6665564 0.15391462 -0.14452861 -0.8934272 0.8755771
0.80211127 0.45312792 -0.49679044 0.41417962 0.23293099 -0.32382965 0.50221455 -0.16338594

feature_exact.op_attention_blocks.1.attention_1.W f4 [128, 8]
00000000: e4c8 64be a52c 82be 0e56 95be 9764 273e
00000010: 75bb 69be 7a25 60bd 634c d5bb e1ca 413e
00000020: c4fb 373e b099 6bbe 5d86 98be be67 9cbd
00000030: 442f e53c b663 04be cceb e23c d927 f6bc
00000040: c7fe f93d 674c 963c 2613 3dbe d088 9bbc
00000050: e236 753e 29f5 3a3e e05b a2bd 5915 983e
00000060: 8578 c73d f565 943a 5511 ba3e c4a9 8d3d
00000070: 23d5 7fbe 87dd 533e 92ab 89be 3f32 f23c
00000080: 5cbd 39be b4a5 0f3e 547c 6abd 18cc 803e
00000090: 2cb5 79bd 8f62 7dbe 4335 27be 33e7 20be
000000a0: 9e19 983e f43e eabc 7258 3cbe ea65 503e
000000b0: 897e 4cbe 11b1 e33c fafd 853d e478 a33d
000000c0: 044e 9fbe f5a6 77be 2b57 053c 600b 8fbe
000000d0: 41dc 27be af91 cc3d 09ae 8ebe cd20 f1bc
000000e0: 25bf 133d 903c a6be 5cf6 303e a0c1 993c
000000f0: db19 833e f851 4e3e 9111 c63e 29bb a03c
00000100: 671e ae3c 3fba 113e f739 a63e 41d9 803d
00000110: 3b31 70be 3920 81be 8e69 803e 21dc 923e
00000120: dcf4 56bc 0775 88be 5591 a8be e39c cfbd
00000130: c61a 36be d7c6 803d a15b 8f3e 6ef9 9d3e
00000140: 73ac 43bd bc13 2f3e 03b3 ec3d 770e b5be
00000150: a812 d63d dc52 3a3e bd2b e5bd a9c6 fbbd
00000160: f1d2 6fbe 06cc 1d3e 9e7f 983c 46e9 bf3d
00000170: 9587 81bd 917a 0b3e 07e4 7fbd 2944 7b3d
00000180: 8bfc 9fbc 701f 93be 5263 c13e 7278 053d
00000190: 33f9 4fbe 72bc abbc e140 efbd 15bb 87be
000001a0: 0fda f3bd 980e dfbd f01a 953e ce3a de3d
000001b0: b0aa b83d 2ca5 9f3d dbd1 20be b82c 0dbd
000001c0: 16e8 0e3e 46ac 9ebe c362 07bd 38c0 383e
000001d0: b23c a7be 8304 ac3d 5a97 493e 49fb f1bd
000001e0: c55c 363e 8d15 2abc d89a 5f3e aa9e 52bb
000001f0: 9dd8 11bd 1025 49be 7a5a 47bd 7f84 a13e
00000200: eb28 52be bc17 e43d 2f5a cfbd 5822 04be
00000210: e8dd 5a3e f76b 643e 001a 96be 87a5 483e
00000220: d24c 193e ebcf 433c 919d ab3e 7052 57be
00000230: 8028 473e 479b ad3e 87ab 6c3e 750c d7bd
00000240: 6b14 b73e 8a33 123d c524 143e f5c9 653e
00000250: 7b27 3a3e 1367 0f3d fd60 a2bc 4694 58bd
00000260: 9a41 66be 2d47 73be 0bc5 643e 38ce 2dbe
00000270: 2af1 bf3d f687 12bd 57be c9be 1776 47be
00000280: 6e02 483e 0fa0 463e 56ca ab3a 4f3e 0d3e
00000290: 1800 413d 5450 8d3e 074e 71bd c558 4ebe
000002a0: aad1 793e e996 223e ea60 5fbe 7bec a83e
000002b0: 56c0 01bd 0b6f 6d3e bd7f 923e 341a 263e
000002c0: bfca 073e 9dbe 3e3e 339d f53d 7150 083e
000002d0: 00ad 24be 8e75 5dbe d224 1a3c 4c94 2f3d
000002e0: ec09 71be a322 d73b 8c8a af3e 947e 90bd
000002f0: 9d3d 71be 4720 093e 0c22 963d 2226 833e
00000300: 4af5 80be 2ac0 113e 8499 653e 19c1 38be
00000310: bd1c 09be e1f2 d8bd 3f74 f6bd 3bf7 b7bd
00000320: 509e 55bd ab00 483e 111b 143e f317 5bbe
00000330: de2a 943e 1628 713e 24b3 48bd 6376 1c3e
00000340: 8b57 f83d f103 893d 79ce b5bd 24d9 9e3d
00000350: c63e 033e fa20 febc b007 a53d 9ac2 073d
00000360: bd46 55be 6f43 193e 0bc9 2abe 6057 62be
00000370: a0ff a5ba fb2f 123e 17ff 15be a532 9d3e
00000380: 9b38 75be 0ffb 11bd c322 f9bd 2cc2 343d
00000390: 3b8d 5e3e a5ac 9dbe 7e11 a83d 3fd1 523e
000003a0: 299d 0fbe ed82 1c3e d150 bb3d ed30 673e
000003b0: 9c97 19be f101 463e f6f2 fdbd a7f6 75be
000003c0: f401 68be 9288 adbe 3cf8 1f3d 7835 afbe
000003d0: 7c12 0c3e 1387 903e 6fe8 42be 0ca4 253e
000003e0: 58e3 64be ff35 9cbd be8f 26be 96bd 80be
000003f0: 4b4f 5a3e 1b09 de3d 707e f4be 0a12 85be
-0.22342259 -0.25424686 -0.29167217 0.16346966 -0.22825415 -0.05472324 -0.00650935 0.18925048
0.17967135 -0.23007846 -0.2979001 -0.07636975 0.02797664 -0.12928662 0.027700327 -0.030048298
0.12206798 0.018346978 -0.18464336 -0.018986136 0.23946717 0.18257584 -0.0792768 0.29703787
0.09739784 0.001132189 0.36341348 0.06917146 -0.24983649 0.20689975 -0.2688871 0.029564975
-0.18138641 0.14028054 -0.057247475 0.2515571 -0.060963795 -0.24744628 -0.16328911 -0.15713196
0.29707044 -0.028594472 -0.18393114 0.20351377 -0.19970144 0.027794393 0.06542583 0.079820424
-0.3111421 -0.24184783 0.008138458 -0.27938366 -0.16392614 0.099887244 -0.27867153 -0.029434586
0.03607096 -0.3246808 0.17281479 0.018769085 0.25605664 0.20148456 0.38685277 0.019620495
0.021254731 0.14231203 0.324661 0.06291438 -0.2345628 -0.25219896 0.25080532 0.2868357
-0.013119902 -0.26651785 -0.3292338 -0.10137346 -0.17783651 0.06287926 0.27999595 0.30854362
-0.047771882 0.17097372 0.11557581 -0.35362598 0.10452777 0.18195671 -0.11189983 -0.12293751
-0.23420312 0.1540986 0.01861554 0.09370665 -0.06324688 0.13620974 -0.062473323 0.0613443
-0.019529602 -0.28734922 0.37771088 0.03258557 -0.20309906 -0.020963881 -0.116822965 -0.2650992
-0.11906826 -0.108914554 0.29122114 0.1085106 0.09016931 0.07795176 -0.15705054 -0.034466475
0.13955721 -0.3099081 -0.03305317 0.18042076 -0.32663494 0.08399298 0.19686642 -0.11815507
0.17808826 -0.010381115 0.21836412 -0.0032138028 -0.03560697 -0.19643044 -0.04867027 0.315464
-0.20523421 0.111373395 -0.10124623 -0.12903726 0.21373713 0.2230681 -0.2931671 0.19594394
0.14970711 0.011951427 0.3351865 -0.21027541 0.19449043 0.3390753 0.23112307 -0.10500423
0.35757765 0.035693683 0.14467151 0.22440322 0.18179123 0.03501041 -0.019821638 -0.05287578
-0.22485963 -0.2375762 0.22340791 -0.16973197 0.0937217 -0.035774194 -0.3940303 -0.19478641
0.19532177 0.19396995 0.0013106565 0.137933 0.04711923 0.27600348 -0.058912303 -0.2015105
0.24396387 0.1587788 -0.21814314 0.3299292 -0.031677566 0.23186891 0.28613082 0.16220933
0.13260935 0.186274 0.11992874 0.13311936 -0.1608162 -0.21626875 0.009408193 0.042866036
-0.23538941 0.0065654083 0.3428539 -0.07055393 -0.2355866 0.13391219 0.07330713 0.2561503
-0.2518714 0.14233461 0.22421843 -0.18042411 -0.13389869 -0.105932005 -0.12033891 -0.08982702
-0.05215293 0.19531505 0.1446345 -0.21395855 0.28938955 0.23550448 -0.048998967 0.15279536
0.121260725 0.06690205 -0.08877272 0.0775626 0.12816915 -0.031021584 0.08058107 0.03314457
-0.20827766 0.1496713 -0.16678254 -0.22103643 -0.0012664683 0.14276116 -0.1464809 0.307027
-0.23947375 -0.03563982 -0.121648334 0.04413049 0.21733563 -0.3079578 0.08206461 0.20587634
-0.14024796 0.15284319 0.09146274 0.22577257 -0.1499924 0.19336678 -0.12399857 -0.24019872
-0.22656995 -0.33893257 0.039055094 -0.3422048 0.13678926 0.28228053 -0.19033979 0.1617586
-0.2235235 -0.076274864 -0.16265771 -0.25144643 0.2131931 0.108415805 -0.47752714 -0.25990325

feature_exact.op_attention_blocks.1.attention_1.a f4 [16, 1]
00000000: 9de6 123f 5e7c 0dbf dcc5 4bbf f84c b83e
00000010: cce1 85be 1ddf 873e ed64 ce3e a7bb 37bf
00000020: 3570 353f 719e 9fbe 7ee4 46bf aa51 143f
00000030: 835e cd3e 83e9 2c3f d1fa 2f3f a741 31bf
0.5738314 -0.55267894 -0.79598784 0.35996222 -0.26148832 0.2653741 0.40311375 -0.7177071
0.7087434 -0.3117557 -0.776924 0.5793711 0.4011117 0.6754381 0.6874209 -0.692408

feature_exact.op_attention_blocks.1.attention_2.W f4 [128, 8]
00000000: 3a9e 7ebd 016c 6cbe 0ce7 1bbd c794 04be
00000010: d193 e13d bb1e bb3d b2c2 c6bd fa02 7fbe
00000020: 598d c13e 9637 d1be a248 86bd 9c09 d43e
00000030: e410 abbd 0eeb 88be fe47 74bd 9cb1 cd3e
00000040: 78dc 813e 3502 47be c127 783e 8598 a83d
00000050: 02db be3d 0349 523e 8307 7ebd 8dd6 803c
00000060: 3313 9e3e 0d7a 27be 1754 b13e 9ba7 8b3e
00000070: d838 7e3e d134 9bbe c6f4 dcbc a2a3 9d3d
00000080: 08bd 573e 4d2f 90be 7ce7 9abe fb5c 443e
00000090: 7a2b 293e 95c1 31bc 2b69 883e f34a 0cbe
000000a0: de37 3a3d 729c 62bd c59a 993e 7dd1 b63d
000000b0: b1d9 683e 1721 863e 8350 9e3e 2aea 253e
000000c0: 3e3c 893e fcfe 46be 42d7 1f3e 944b 643e
000000d0: 392e 6c3d 07fd 753e c8e0 7ebe 25d1 00be
000000e0: 7d9e 9d3a 76b3 a1be ec26 90be c5a1 943d
000000f0: c0c2 95bd 2266 d63c ec72 0c3d ddcc 1a3d
00000100: 56e8 49be 3a82 253d d3d6 963e 77ac e5bd
00000110: 4ae0 9cbd 5fde 293c 4e90 b23d 0d3b f2bb
00000120: c29c 2abe 65b8 d33d 9d61 3dbd d28b 22be
00000130: 72f9 383e 8fb0 b23d ac46 4b3e dab1 9cbd
00000140: 5e40 df3d b7a4 023e 615c 993e 48a8 52be
00000150: 09dd 0ebe b1cc 88be efbb d8bd 8bc3 a5bd
00000160: 278c e2bd ec9e aa3e 0213 bd3d fba8 5f3d
00000170: 901a 1fbe 6417 1e3e afa8 0dbe 3c7f 9f3d
00000180: 77ab 883e f413 23be 43cc 72be d344 853e
00000190: 0540 babc df19 533d 8b6e 273e 4451 c03c
000001a0: bf16 cabc eee0 9dbe a632 dd3d f395 be3e
000001b0: 5574 2b3e 7144 a6be bb8f 853e 691d 733e
000001c0: e096 d43d 05ce 92bd 74c1 803e 75dc 5cbe
000001d0: b36d 96be ffca 703e e243 e03d 5779 f8be
000001e0: 8ce3 92bd 79a1 35be 3a8c 13be d316 82be
000001f0: aaaf 8f3d 8926 c93d e4c5 823d 6380 8e3e
00000200: e312 9b3e 4416 a5be 6c06 003e 488a 60bc
00000210: ad0c 44be 1d99 4c3d 6602 7fbe 2923 073e
00000220: f98e 8fbc 9f4c 50be 45dc 673e 8e5b 04be
00000230: 8265 37bd 716c 503d 48b5 aabd 3061 84be
00000240: 7eba 8b3e 7d8e d53d 337a aa3e 79b6 d03d
00000250: d713 55be 225f aebd 4373 a8bd a938 37be
00000260: b27a 923e 1c16 8dbd a903 4c3e 22cb 7ebe
00000270: 8242 46bd 79f7 d4bd 2ee8 303e 5af3 d03d
00000280: 5a85 053e 4170 7d3e 38df 0fbe 7cb0 c9bc
00000290: 1507 6e3e d735 553e e35b 89bd 33a5 a8be
000002a0: fda3 073e fb44 80be 2587 203d d416 5fbd
000002b0: aad0 f53d 01b8 8fbe 7df7 833e 08c2 933e
000002c0: aa59 11be 5a39 dcbd 5e24 f4bd 5a4c 4cbe
000002d0: eb58 9bbe d18f 0e3e 8546 69bd bd21 fc3d
000002e0: 2da9 30bc f8cc 153e 0127 663e 0784 27bd
000002f0: 74d2 4e3d b8f9 7e3c 361b 80be 7261 26be
00000300: 2557 3dbe 49f9 133d da5d 713e 07eb 93be
00000310: 6e45 0bbe aec3 203e 5ea0 80be dc5c 16be
00000320: 7386 873e 845a 97be 2fe6 9dbd 9c32 573e
00000330: ccf2 723e e4bb d13d 3639 0dbe a95c 00be
00000340: 5dd9 323d 0282 5cbe b7e4 d5bd f48c 63be
00000350: 93ad a4bd 4090 803e c3e2 1b3e 7ff6 183e
00000360: 0cf5 84be 386f 9c3e c648 113e 24bf 81bd
00000370: d560 a0be 360a 9dbd 84d2 66bd 4b1d 8a3d
00000380: f244 25be b4eb c43d cb5b a4bd c645 ccbd
00000390: 66c9 4abe dd23 793d 04ab 2fbd 6cea 91be
000003a0: 6585 843e a935 92bd 29cb 403d f95d 0f3e
000003b0: e20f 733e 031d 54be 1f3d f1bc 1e0f 043d
000003c0: c71b 4abe 255c b4be cd52 34be 4387 5f3e
000003d0: 3b31 05be b186 923e 6a01 56bd 21a6 a83e
000003e0: e6a1 003e 3ac2 d5bc ac92 0cbe a3cd 183e
000003f0: f4e2 1f3e 8a39 0dbd d4ce 38be 1598 123d
-0.062162615 -0.23088075 -0.03806214 -0.12947379 0.11014522 0.09136721 -0.09705104 -0.24903479
0.37803152 -0.4086272 -0.06556822 0.4141358 -0.08352831 -0.26741832 -0.05963897 0.40174568
0.25363517 -0.19434436 0.24233915 0.08232216 0.09319116 0.20535664 -0.062018882 0.015727306
0.30874023 -0.16355152 0.34634468 0.2727631 0.24826372 -0.30313733 -0.026972186 0.07697226
0.21068203 -0.28161088 -0.30254734 0.19176094 0.16520491 -0.010849376 0.26642737 -0.13700466
0.045463435 -0.05532498 0.30000892 0.089266755 0.22739293 0.2619712 0.309208 0.16202608
0.26803774 -0.19433206 0.15609458 0.22294456 0.05766127 0.24022304 -0.24890435 -0.12579782
0.0012025383 -0.3158223 -0.28154695 0.072574176 -0.07312536 0.026171748 0.034289286 0.03779303
-0.19717535 0.040407397 0.29460773 -0.11214536 -0.07659967 0.010367959 0.0871893 -0.0073922933
-0.16661361 0.10337905 -0.04623567 -0.1587365 0.18063906 0.08725082 0.19851178 -0.0765111
0.10900949 0.12758146 0.29953292 -0.20572007 -0.13951506 -0.26718667 -0.105827205 -0.080939375
-0.11061888 0.33324373 0.09232141 0.05460451 -0.15537477 0.1543861 -0.13833879 0.0778794
0.26693317 -0.1592558 -0.23710732 0.2602907 -0.022735605 0.051538344 0.16350763 0.02347625
-0.02466905 -0.3083567 0.10800676 0.37223777 0.16743596 -0.32474092 0.2608622 0.23741688
0.103803396 -0.07168201 0.25147593 -0.21568473 -0.2938057 0.23514937 0.109504476 -0.48530075
-0.07172307 -0.17737378 -0.14408961 -0.25408038 0.07015927 0.09821803 0.06385401 0.27832326
0.30287847 -0.3224355 0.1250245 -0.013704844 -0.1914546 0.049950708 -0.24903259 0.13197006
-0.01752423 -0.20341729 0.2264262 -0.1292555 -0.04477454 0.050884668 -0.08335358 -0.25855398
0.2729072 0.10427568 0.33296356 0.10191054 -0.2080835 -0.08514239 -0.082251094 -0.17892708
0.28609234 -0.06888983 0.19923271 -0.24882177 -0.04840327 -0.10398764 0.1727607 0.102026656
0.13039151 0.24749853 -0.14049995 -0.024620287 0.23244889 0.2082132 -0.06706979 -0.32938537
0.1324615 -0.25052628 0.039191384 -0.05446513 0.1200269 -0.2807007 0.25774756 0.28858972
-0.1419436 -0.107531264 -0.11920999 -0.19951001 -0.30341277 0.13922049 -0.05695202 0.123111226
-0.010782522 0.1462897 0.22475816 -0.040897395 0.050493672 0.015562467 -0.2502076 -0.1624811
-0.18490274 0.03612641 0.23570958 -0.2889025 -0.13600704 0.15699646 -0.2512235 -0.1468386
0.26469764 -0.29561245 -0.0770992 0.210154 0.23725432 0.102409154 -0.13791355 -0.12535347
0.043664325 -0.21533969 -0.104440145 -0.22221738 -0.08040919 0.25110054 0.15223221 0.14937781
-0.25968206 0.30553603 0.14187917 -0.06335285 -0.31323877 -0.07667963 -0.056353107 0.067438684
-0.16139582 0.09615269 -0.080253206 -0.09974246 -0.1980339 0.060825218 -0.042887703 -0.28499162
0.25883022 -0.07139141 0.04706875 0.14000691 0.23736528 -0.20714192 -0.02944809 0.03224098
-0.19737159 -0.3522655 -0.17609711 0.21828942 -0.13007061 0.28618386 -0.052247442 0.32939246
0.1256176 -0.026093591 -0.13727826 0.14922194 0.1561392 -0.0344787 -0.18047649 0.035789568
