trained_network/SD2/20x10+mix.pth (torch, 136969 bytes, 50 tensors)

feature_exact.op_attention_blocks.0.attention_0.W f4 [10, 32]
-0.45861137 -0.60558474 0.59735656 0.47061288 -0.51983935 0.3351248 0.34033686 0.1728474
0.5826513 -0.39747617 0.33517823 0.47381032 0.40773106 0.24512456 -0.31975552 0.1919238
0.050806794 -0.13826548 -0.087049864 0.5559938 -0.20361464 -0.12595175 -0.35026446 0.2967657
-0.3908199 0.44372165 0.17997807 -0.19317946 -0.046684198 -0.21400143 -0.3639214 0.22341043
0.29094777 0.45389745 0.308374 0.56441593 0.4450698 0.03891562 0.31784448 -0.39727366
0.550587 0.15899612 0.48996356 0.10819245 -0.5379423 0.418729 -0.3033185 0.46042395
-0.37292928 0.14368685 -0.4293029 -0.50927335 -0.34566677 -0.34636724 -0.4168714 -0.10339962
-0.40678453 -0.38220325 -0.04416321 0.3626454 0.23524457 -0.20988935 0.33528194 -0.44262573
-0.41222644 0.40232992 0.27328977 0.1328192 0.098570645 -0.34498814 0.40162924 -0.087031126
0.48999795 0.004670192 -0.1867106 0.1281715 -0.1388444 0.48867962 0.17261036 -0.45591488
0.5472998 0.15689833 -0.26654452 0.47468215 -0.1728109 0.116368294 0.53994006 -0.5917521
-0.3409387 0.06719173 -0.42874607 0.26662567 -0.5621246 0.13742083 -0.005011802 0.1294392
-0.37221438 -0.021593515 0.11041649 0.0855768 -0.012846472 0.014700905 -0.09639588 0.12320723
0.39003304 0.3683841 -0.3898262 0.0010493872 0.45995566 0.28951663 -0.25777498 0.40398565
-0.3791255 -0.07440072 -0.15032446 0.2732942 -0.32702154 -0.45829272 0.2395792 -0.31415164
0.55424166 -0.472111 -0.098581925 -0.034969013 0.066665165 0.1233252 0.35166365 -0.022709785
-0.2751046 -0.22335109 0.16096464 -0.45963037 0.41428354 0.4182777 -0.2221462 -0.03081226
0.45711392 -0.07480798 0.33515587 0.47336796 -0.46761444 -0.26015106 0.27206114 -0.004415295
-0.18494369 0.30525675 -0.18879984 -0.13872609 0.17640391 -0.01089374 0.09773233 0.28510293
-0.08436483 0.29232934 -0.39834774 0.17548981 0.48960134 -0.41894907 -0.2675359 -0.38195536
-0.056692023 -0.0024142913 -0.40327653 0.32293275 0.16613582 -0.029317651 0.2785493 -0.4407011
-0.1114706 0.014227623 0.0031640583 0.47992495 -0.31242898 0.090013325 -0.3714478 -0.54034346
-0.29423562 0.54380727 -0.52723974 -0.2297603 0.5770035 0.14785437 -0.05235361 0.31862602
-0.5132346 0.13228726 -0.44831872 -0.24305761 -0.239688 -0.3991343 -0.27787614 0.1314961
0.15567072 -0.4187727 0.1195309 0.39232534 -0.28532732 -0.0007289284 0.1067766 -0.20839503
-0.2894253 -0.0030161408 0.25388777 0.47247157 -0.20051807 0.22335665 0.04288224 -0.39851883
-0.4994156 0.5537443 0.51216364 -0.3451974 -0.12835814 0.30913892 -0.45468667 -0.18476436
0.03429547 -0.17412914 -0.30937594 0.22167063 0.008946629 0.31447443 0.26581767 -0.30173874
0.46789104 -0.5484102 0.43057495 -0.43479264 -0.47492856 -0.5463213 0.33958516 0.15785745
0.17875475 0.19217204 0.006390068 -0.46487302 0.45144808 -0.38819915 -0.09295488 0.4668527
0.26563323 -0.4982256 -0.3168986 -0.17961991 -0.29401934 0.27015167 -0.048520744 -0.12550831
0.41340148 -0.50257516 -0.03485869 -0.33462504 -0.107680574 -0.5877103 0.34839016 0.1827362
00000000: 1ccf eabe 9a07 1bbf 5cec 183f 2cf4 f03e
00000010: 3114 05bf 7a95 ab3e a240 ae3e e9fe 303e
00000020: a328 153f ff81 cbbe 7b9c ab3e 4497 f23e
00000030: 20c2 d03e ef01 7b3e ffb6 a3be ac87 443e
00000040: c91a 503d 7795 0dbe 3347 b2bd 9c55 0e3f
00000050: 5b80 50be 7ff9 00be dd55 b3be adf1 973e
00000060: 8c19 c8be 7c2f e33e 2c4c 383e d6d0 45be
00000070: ee37 3fbd 3123 5bbe e853 babe b4c5 643e
00000080: 1bf7 943e 3f65 e83e 32e3 9d3e 907d 103f
00000090: 30e0 e33e fc65 1f3d 83bc a23e 7467 cbbe
000000a0: 45f3 0c3f e1cf 223e 81dc fa3e 0194 dd3d
000000b0: 96b6 09bf a663 d63e 904c 9bbe b0bc eb3e
000000c0: 96f0 bebe a522 133e 97cd dbbe bd5f 02bf
000000d0: 3cfb b0be 0c57 b1be 2b70 d5be 2ec3 d3bd
000000e0: 1046 d0be 25b0 c3be 7be4 34bd a8ac b93e
000000f0: f4e3 703e 3ced 56be 13aa ab3e d79f e2be
00000100: 580f d3be 30fe cd3e a3ec 8b3e c201 083e
00000110: 68df c93d 49a2 b0be 59a2 cd3e 603d b2bd
00000120: 03e1 fa3e 6908 993b 1031 3fbe 643f 033e
00000130: 3a2d 0ebe 3734 fa3e c5c0 303e ad6d e9be
00000140: d71b 0c3f f5a9 203e 8678 88be 8a09 f33e
00000150: 57f5 30be 8052 ee3d 8339 0a3f 117d 17bf
00000160: 848f aebe d19b 893d 9b84 dbbe 2983 883e
00000170: 66e7 0fbf 0cb8 0c3e 0b3a a4bb b68b 043e
00000180: e292 bebe e2e4 b0bc 0a22 e23d e442 af3d
00000190: 027a 52bc 11dc 703c 346b c5bd 1254 fc3d
000001a0: 69b2 c73e d79c bc3e 4d97 c7be 978b 893a
000001b0: 4f7f eb3e 863b 943e 15fb 83be 35d7 ce3e
000001c0: bd1c c2be 685f 98bd a8ee 19be 38ed 8b3e
000001d0: 5e6f a7be 58a5 eabe 4054 753e 7cd8 a0be
000001e0: c8e2 0d3f 88b8 f1be 52e5 c9bd ab3b 0fbd
000001f0: bf87 883d ec91 fc3d 420d b43e df09 babc
00000200: 83da 8cbe 26b6 64be ead3 243e ac54 ebbe
00000210: f91c d43e 7f28 d63e 4b7a 63be fe69 fcbc
00000220: d60a ea3e ed34 99bd 8d99 ab3e 495d f23e
00000230: 296b efbe 8532 85be 994b 8b3e 2eae 90bb
00000240: e161 3dbe 9d4a 9c3e bf54 41be 360e 0ebe
00000250: 3aa3 343e a87b 32bc e327 c83d 03f9 913e
00000260: 78c7 acbd 31ac 953e 3cf4 cbbe 9ab3 333e
00000270: 07ad fa3e 7e80 d6be 77fa 88be a78f c3be
00000280: e535 68bd 1639 1ebb 437a cebe 7157 a53e
00000290: 821f 2a3e 922b f0bc 049e 8e3e 93a3 e1be
000002a0: b34a e4bd fa1a 693c 175c 4f3b b9b8 f53e
000002b0: b1f6 9fbe e858 b83d 682e bebe f353 0abf
000002c0: 0da6 96be f436 0b3f 2ff9 06bf 4946 6bbe
000002d0: 80b6 133f 2367 173e bd70 56bd f322 a33e
000002e0: 5863 03bf 5076 073e 088a e5be 18e4 78be
000002f0: c570 75be 555b ccbe c845 8ebe eaa6 063e
00000300: 2568 1f3e 6069 d6be 9ecc f43d dede c83e
00000310: 6c16 92be 8f15 3fba b1ad da3d 8265 55be
00000320: 8e2f 94be 72aa 45bb 94fd 813e cbe7 f13e
00000330: 9c54 4dbe 9bb7 643e 4aa5 2f3d a90a ccbe
00000340: 67b3 ffbe 30c2 0d3f 281d 033f b7bd b0be
00000350: 5170 03be 7547 9e3e b1cc e8be de32 3dbe
00000360: 6879 0c3d e94e 32be 8666 9ebe a0fd 623e
00000370: e294 123c cb02 a13e 4119 883e 807d 9abe
00000380: 6a8f ef3e 9c64 0cbf 5274 dc3e 249d debe
00000390: d629 f3be b6db 0bbf 1bde ad3e 62a5 213e
000003a0: 7c0b 373e bfc8 443e c763 d13b d603 eebe
000003b0: 3424 e73e 0ac2 c6be 215f bebd 5107 ef3e
000003c0: 1401 883e 6d17 ffbe 8940 a2be 48ee 37be
000003d0: b489 96be 5251 8a3e b0bd 46bd 4085 00be
000003e0: 5ca9 d33e c4a8 00bf fcc7 0ebd f953 abbe
000003f0: a287 dcbd 2f74 16bf 3260 b23e 331f 3b3e

feature_exact.op_attention_blocks.0.attention_0.a f4 [64, 1]
0.16357489 0.43242064 0.3998032 -0.3268728 -0.23490144 -0.49137002 -0.1429648 0.46547753
0.24780224 0.40799615 -0.06360247 -0.01780597 0.04902166 0.07900717 0.06679566 0.36385435
0.13383137 -0.362001 0.29136387 -0.23661664 0.11173247 0.20459059 0.39969778 -0.5634635
-0.20868604 0.16079606 -0.28077328 -0.40237382 0.25770652 -0.14785652 0.4153276 0.22602756
0.3084725 -0.009460169 0.11744058 0.4362415 -0.19405557 0.09284907 0.13457674 -0.1290789
0.32166305 0.2919601 0.14666 -0.08788656 0.39367554 0.23514791 -0.22318433 -0.16700287
0.34031224 0.06886166 0.27800882 0.36915016 0.09066573 0.44462734 0.11765673 0.027261127
-0.43483806 -0.048812952 0.25795907 -0.13981214 0.45642346 -0.36029628 -0.12603958 -0.30376846
00000000: 2d80 273e 3d66 dd3e 01b3 cc3e df5b a7be
00000010: 018a 70be da94 fbbe 5d65 12be 1253 ee3e
00000020: dfbf 7d3e dfe4 d03e 0342 82bd d3dd 91bc
00000030: f0ca 483d 83ce a13d 2acc 883d 1e4b ba3e
00000040: 170b 093e 3258 b9be a52d 953e a24b 72be
00000050: fed3 e43d 3280 513e 30a5 cc3e 253f 10bf
00000060: cbb1 55be b9a7 243e 84c1 8fbe f103 cebe
00000070: 1cf2 833e b367 17be d2a5 d43e c573 673e
00000080: 1cf0 9d3e d3fe 1abc b084 f03d 0c5b df3e
00000090: 81b6 46be a727 be3d 7cce 093e 422d 04be
000000a0: 05b1 a43e cb7b 953e 0a2e 163e defd b3bd
000000b0: d78f c93e 9dca 703e 6f8a 64be cd02 2bbe
000000c0: 683d ae3e 5807 8d3d 2c57 8e3e 4001 bd3e
000000d0: f4ae b93d 32a6 e33e 03f6 f03d ba52 df3c
000000e0: 18a3 debe 17f0 47bd 3613 843e ea2a 0fbe
000000f0: 56b0 e93e c178 b8be 8510 01be 8a87 9bbe

feature_exact.op_attention_blocks.0.attention_1.W f4 [10, 32]
-0.2459728 0.5380142 -0.6483832 -0.0066194874 0.0077682994 0.28535032 -0.46763355 0.6241043
0.6172359 0.25743875 0.4128929 -0.49696022 -0.11732897 0.43325388 0.52753896 0.36194232
-0.04537573 -0.10540322 0.40890858 -0.66400653 0.3485907 0.051767033 0.30890307 -0.07640084
0.5716986 -0.9438043 0.41926134 -0.2563201 0.15911882 -0.22422306 0.34831017 -0.63449776
0.1492215 0.61397564 -0.23841558 -0.07844963 -0.4102572 0.3351464 -0.19350927 0.4106034
-0.23375368 -0.025891965 -0.46558708 -0.17031023 -0.5823256 0.04185958 0.24840085 -0.5491623
0.36128765 0.54241043 0.20315705 0.67749494 0.06201442 -0.17195982 -0.1078713 0.4371945
-0.083859354 -0.14716674 -0.3852103 -0.22746213 -0.039648235 0.2992271 -0.13854535 -0.3950211
-0.11948341 0.37639275 -0.14798816 0.55526227 0.3208237 -0.06750669 -0.21246481 0.25586462
0.3877738 0.046484374 0.33028778 0.20569533 -0.4057854 0.018198656 -0.07602923 -0.40188962
-0.11583531 0.26229957 -0.20782928 0.2676854 -0.044266876 0.47542253 0.5458037 0.19512829
-0.3746842 -0.45685193 0.30390632 0.18242598 0.1163244 0.29406786 0.2587225 0.019479053
0.019033272 -0.2843065 0.11809501 0.0074223382 0.18214299 0.22688942 -0.3507608 -0.0009697351
-0.0028811027 0.3276508 -0.42586422 0.26833698 -0.038175207 0.42537275 0.06290433 -0.28310445
0.37997612 -0.032990016 -0.40314403 -0.16273214 0.08324416 -0.45902616 -0.39321324 0.16275306
-0.42577985 -0.16043748 -0.455957 0.24346195 -0.35877126 0.08108614 0.13455957 0.010711049
-0.33014265 -0.0767387 0.27745295 0.44236532 0.44668683 0.40649733 0.39250693 -0.24533193
-0.39191955 0.36508474 -0.08325466 -0.35294238 0.2717391 0.066644676 0.025774809 0.48156172
-0.052645165 -0.1626145 -0.37841728 -0.13794759 -0.36410016 -0.35500607 0.17535512 -0.060118277
0.5666774 0.25627694 0.24547216 -0.11247489 -0.47453308 0.39118636 0.26020953 0.39968938
0.12705466 0.43051973 0.22377916 0.0070642773 0.09448717 -0.1859565 0.23109038 -0.35649288
-0.4498933 -0.23471911 0.2808856 0.31567526 0.14106353 0.2314007 0.5240448 -0.06309122
-0.022729356 0.13376583 0.36769253 -0.258231 -0.18287131 -0.12921546 0.16002177 -0.058994215
-0.05543521 -0.20712382 0.298216 0.5079101 -0.20689107 0.51431394 0.34975624 -0.18096915
-0.44522655 0.45799178 -0.42576432 -0.3070807 -0.38720262 0.27384374 -0.57284135 -0.034818813
0.58709633 -0.13572162 0.26246145 -0.51453024 0.3550839 0.25368947 -0.5079007 -0.24750534
-0.22876684 0.49286622 -0.12832275 -0.5360576 0.54870856 -0.23616908 0.18545282 0.4158624
0.45382565 -0.5231495 0.09697965 -0.047238573 0.17662953 0.6123003 -0.1894312 -0.12016285
-0.050965313 0.25014737 0.4382289 -0.37356645 0.029352982 -0.27066535 0.27621844 -0.3946835
-0.3178511 0.03535337 -0.13754709 -0.3283835 0.45158544 0.25399974 0.014476293 0.47574225
0.17892136 0.10946582 0.20393316 0.22734426 -0.29706526 -0.41358608 0.4093149 -0.26286164
0.27257714 0.42904153 0.4200717 0.27194658 -0.42616248 -0.009384138 -0.37377134 0.1321741
00000000: 4be0 7bbe 4cbb 093f 71fc 25bf 49e8 d8bb
00000010: 388d fe3b 7019 923e aa6d efbe 4dc5 1f3f
00000020: 2c03 1e3f 03cf 833e b366 d33e 9271 febe
00000030: 2c4a f0bd 74d3 dd3e cb0c 073f 8150 b93e
00000040: e7db 39bd a5dd d7bd 775c d13e 55fc 29bf
00000050: 7b7a b23e ab09 543d 8b28 9e3e 0b78 9cbd
00000060: d75a 123f 299d 71bf 6ca9 d63e 633c 83be
00000070: 0bf0 223e bb9a 65be b655 b23e 726e 22bf
00000080: 85cd 183e 822d 1d3f 3723 74be 33aa a0bd
00000090: 3b0d d2be 4f98 ab3e 4b27 46be 9c3a d23e
000000a0: 205d 6fbe 631b d4bc 6e61 eebe ce65 2ebe
000000b0: 4a13 15bf f374 2b3d cb5c 7e3e e795 0cbf
000000c0: b2fa b83e 69db 0a3f 6708 503e 4f70 2d3f
000000d0: d502 7e3d 3c16 30be a1eb dcbd f5d7 df3e
000000e0: 74be abbd e1b2 16be 493a c5be d5eb 68be
000000f0: 3066 22bd 4b34 993e d5de 0dbe 3540 cabe
00000100: b8b3 f4bd 8db6 c03e 358a 17be ab25 0e3f
00000110: 0143 a43e f340 8abd 6090 59be b000 833e
00000120: 4a8a c63e 6666 3e3d 7b1b a93e cca1 523e
00000130: 1bc3 cfbe 5915 953c 37b5 9bbd 7ac4 cdbe
00000140: 103b edbd 214c 863e 33d1 54be 100e 893e
00000150: 2f51 35bd 956a f33e cbb9 0b3f b6cf 473e
00000160: 9cd6 bfbe 7fe8 e9be 9c99 9b3e e0cd 3a3e
00000170: 7d3b ee3d 1090 963e 4777 843e 8992 9f3c
00000180: aaeb 9b3c 9f90 91be ccdb f13d 1637 f33b
00000190: b183 3a3e b355 683e eb96 b3be d235 7eba
000001a0: e2d0 3cbb d8c1 a73e e00a dabe 7763 893e
000001b0: 9b5d 1cbd 75ca d93e fcd3 803d 11f3 90be
000001c0: 3b8c c23e 8a20 07bd e568 cebe 41a3 26be
000001d0: ea7b aa3d 7a05 ebbe 3f53 c9be bda8 263e
000001e0: d1ff d9be b949 24be 3273 e9be 174e 793e
000001f0: deb0 b7be 7d10 a63d fcc9 093e 657d 2f3c
00000200: 7508 a9be 2e29 9dbd 500e 8e3e b57d e23e
00000210: 23b4 e43e 6b20 d03e abf6 c83e 4b38 7bbe
00000220: aea9 c8be 63ec ba3e 6b81 aabd ddb4 b4be
00000230: 6321 8b3e 017d 883d b125 d33c 428f f63e
00000240: 75a2 57bd 6a84 26be e9bf c1be 2242 0dbe
00000250: 566b babe 5bc3 b5be 4b90 333e 953e 76bd
00000260: c511 113f bb36 833e 0e5d 7b3e 3c59 e6bd
00000270: 00f6 f2be 9449 c83e 2f3a 853e 16a4 cc3e
00000280: 9e1a 023e 156d dc3e 5d26 653e 747b e73b
00000290: 7d82 c13d 616b 3ebe f5a2 6c3e 3c86 b6be
000002a0: 6a58 e6be 355a 70be 3dd0 8f3e 30a0 a13e
000002b0: f572 103e 4ef4 6c3e cd27 063f f835 81bd
000002c0: ea32 babc e9f9 083e 3242 bc3e db36 84be
000002d0: 9e42 3bbe 0f51 04be bfdc 233e eba3 71bd
000002e0: 0810 63bd 4418 54be c4af 983e 6506 023f
000002f0: 41db 53be 14aa 033f 4013 b33e fa4f 39be
00000300: bcf4 e3be e67d ea3e c8fd d9be ae39 9dbe
00000310: 6c3f c6be 3f35 8c3e bba5 12bf 2c9e 0ebd
00000320: f24b 163f 9cfa 0abe 5961 863e 41b8 03bf
00000330: 8fcd b53e 96e3 813e c805 02bf 0a72 7dbe
00000340: db41 6abe f658 fc3e 0a67 03be 123b 09bf
00000350: 2a78 0c3f 4fd6 71be 58e7 3d3e ebeb d43e
00000360: d65b e83e 20ed 05bf 449d c63d 3c7d 41bd
00000370: 5fde 343e b6bf 1c3f 41fa 41be f117 f6bd
00000380: 01c1 50bd 5113 803e 8a5f e03e 1a44 bfbe
00000390: aa75 f03c a694 8abe 816c 8d3e f513 cabe
000003a0: 61bd a2be b2ce 103d 25d9 0cbe e221 a8be
000003b0: 3536 e73e 410c 823e f92d 6d3c 7d94 f33e
000003c0: 2937 373e 9e2f e03d dbd3 503e efcc 683e
000003d0: f018 98be 8ec1 d3be b991 d13e cd95 86be
000003e0: 3b8f 8b3e 55ab db3e a313 d73e 953c 8b3e
000003f0: f831 dabe edbf 19bc f55e bfbe a658 073e

feature_exact.op_attention_blocks.0.attention_1.a f4 [64, 1]
0.10176635 0.5047987 -0.077613175 0.291078 -0.41547814 0.15781853 0.19772746 0.05834623
-0.106832065 -0.10962926 0.14239106 -0.4651861 0.36052808 -0.19625436 -0.39769322 0.0580138
-0.029205734 0.21689683 0.047389258 0.12468652 0.45062014 0.3535732 0.09282985 -0.06235302
0.121431 0.14661449 0.19396956 -0.07375445 0.02078411 0.17888576 -0.47083646 -0.056941595
-0.04885317 0.12594514 -0.4474192 0.0040339883 0.41953102 -0.14910266 -0.26547885 0.4246414
0.2263316 0.22271033 0.2440563 -0.4367151 0.15505394 -0.11485691 -0.020645304 -0.13924946
0.2539497 -0.28649336 0.2751862 -0.14990482 0.2842841 -0.2514938 0.39138153 -0.36373356
0.23798794 -0.37205222 0.10545468 0.2683453 -0.36841527 0.43805492 0.18092188 -0.18711907
00000000: e06a d03d 7d3a 013f a8f3 9ebd 2d08 953e
00000010: 8db9 d4be 2e9b 213e 1179 4a3e 75fc 6e3d
00000020: c5ca dabd 4e85 e0bd f6ce 113e df2c eebe
00000030: 2397 b83e e7f6 48be 729e cbbe e19f 6d3d
00000040: dd40 efbc 341a 5e3e 3d1b 423d a55b ff3d
00000050: afb7 e63e 8c07 b53e 941d be3d e165 7fbd
00000060: d1b0 f83d 1c22 163e f59f 463e 930c 97bd
00000070: 7043 aa3c d42d 373e 7a11 f1be 973b 69bd
00000080: 431a 48bd c3f7 003e 2114 e5be 8c2f 843b
00000090: c5cc d63e 5eae 18be d8ec 87be 996a d93e
000000a0: 79c3 673e 2d0e 643e e5e9 793e 1f99 dfbe
000000b0: 76c6 1e3e 1a3a ebbd 5720 a9bc 6997 0ebe
000000c0: b205 823e 42af 92be 35e5 8c3e a680 19be
000000d0: b08d 913e ccc3 80be 2963 c83e 493b babe
000000e0: 1cb3 733e a17d bebe a0f8 d73d 8e64 893e
000000f0: eda0 bcbe bc48 e03e 9643 393e 249c 3fbe

feature_exact.op_attention_blocks.0.attention_2.W f4 [10, 32]
0.06529692 -0.712565 -0.26936117 0.5906781 -0.09854182 0.48562616 -0.17893937 0.17811798
0.07064369 0.008644031 0.6085054 0.32728952 0.42603955 0.46557584 -0.074481815 -0.22101359
-0.33306125 0.34408543 0.27509093 0.39321238 -0.24694708 0.43083882 -0.14812736 0.4030883
-0.3097006 -0.41609603 -0.07497894 -0.28977907 0.19628836 -0.37394 0.37829122 0.35011324
-0.4426974 -0.17364907 -0.23640911 0.38885468 -0.2997435 0.15099685 0.065017566 -0.3595417
0.23299712 -0.25571594 0.08070647 0.032045666 -0.7356819 -0.40776256 0.5168526 0.6317963
0.47436506 -0.22915046 0.005572548 -0.3172992 -0.59491456 0.18120788 -0.37686157 0.35123032
-0.7995019 -0.04584498 -0.05315117 0.4869411 0.23862061 -0.26693442 -0.49544713 0.032299742
0.3563557 0.03547737 0.3225397 -0.22488372 0.037744798 0.4810965 -0.35191607 0.2642558
0.31515497 0.0306698 -0.3510906 -0.25988612 0.21527512 -0.5282499 0.15940775 0.047503557
-0.4509424 0.49555203 -0.305725 0.23109595 -0.121940754 -0.46672013 0.34961382 0.07221647
-0.038233563 -0.2406118 0.024937201 -0.15088369 -0.33352768 0.32928348 0.06884669 0.6053361
-0.48104966 0.49460217 -0.38766283 -0.24380164 -0.01808465 0.22822782 0.17123075 -0.13598399
0.42404288 0.48093584 -0.32786357 0.08347013 0.37406147 -0.24224319 -0.23516974 0.14980334
-0.056114875 -0.30576122 0.28704852 0.41756904 -0.030306315 0.19931914 -0.19042847 -0.056341823
0.19027777 0.03098216 -0.5463111 0.44806 0.5202238 0.40947452 -0.48849407 0.3348035
-0.38359025 -0.13993593 -0.240883 -0.41212443 0.22483005 -0.25615352 0.2448747 0.53424364
0.49438643 0.18673451 -0.145688 0.31711856 0.09737471 0.5346603 -0.37979957 -0.24476974
-0.380281 0.20655684 -0.55364317 0.3893793 -0.22934984 -0.28872356 0.0902836 0.55110884
0.15386806 0.34774414 0.3561958 0.3647622 0.5230586 -0.1400674 -0.45321923 0.30344152
-0.40791762 -0.21027604 -0.072042584 -0.5490415 0.34751013 0.3999806 -0.3671635 0.58768773
-0.46204227 -0.5423344 -0.15051453 -0.568993 -0.45580038 0.2510904 0.18789557 -0.010677243
-0.27017897 0.17447786 -0.27149105 -0.3905968 0.47859308 0.16808362 -0.093834646 0.17238134
0.23334315 0.28812018 -0.053918373 -0.48474693 -0.04096059 -0.36844575 0.05013527 -0.3559259
-0.55391264 -0.033878215 0.32355553 -0.011621745 0.089680396 0.7427124 -0.024523634 -0.15157801
-0.55252475 0.0386181 0.24157296 -0.22692952 -0.4326642 -0.12086653 -0.25994435 0.39310268
0.28525838 0.09095372 0.27556467 -0.23674518 -0.15344302 0.074257754 -0.28991234 -0.14150411
0.10865887 0.29713535 -0.0059584333 -0.24661347 -0.2738071 -0.14320122 -0.43165272 -0.003321993
0.17457467 -0.31904948 0.17049399 0.13403684 0.3385925 -0.10597085 -0.059162434 0.42027393
0.5614935 0.3912323 -0.50207186 0.0041453666 -0.08369602 0.26721758 -0.039412215 -0.25518435
0.49802884 -0.12098737 -0.31262654 0.28559548 -0.18705313 0.06201361 0.099097624 0.16830947
-0.38010177 0.08708587 0.40673774 0.018287404 0.064602725 0.34287983 0.14722306 0.04125522
00000000: 64ba 853d a96a 36bf b5e9 89be ae36 173f
00000010: 4bd0 c9bd fea3 f83e e23b 37be 8f64 363e
00000020: a4ad 903d b29f 0d3c 03c7 1b3f 7e92 a73e
00000030: db21 da3e f55f ee3e ec89 98bd 6351 62be
00000040: 0187 aabe f72b b03e b8d8 8c3e 2253 c93e
00000050: b2df 7cbe e896 dc3e b3ae 17be 9761 ce3e
00000060: 1491 9ebe 8a0a d5be 8f8e 99bd ec5d 94be
00000070: d1ff 483e 1075 bfbe 63af c13e 0b42 b33e
00000080: 3ca9 e2be 10d1 31be 3b15 72be f617 c73e
00000090: fb77 99be eb9e 1a3e ee27 853d da15 b8be
000000a0: cc96 6e3e 33ed 82be 6f49 a53d 5142 033d
000000b0: a655 3cbf 41c6 d0be 7450 043f 67bd 213f
000000c0: fadf f23e 6ba6 6abe ec99 b63b 0a75 a2be
000000d0: 524c 18bf 8f8e 393e 00f4 c0be 76d4 b33e
000000e0: 28ac 4cbf f2c7 3bbd 0bb5 59bd 5850 f93e
000000f0: f658 743e a1ab 88be 3fab fdbe bc4c 043d
00000100: 4174 b63e b850 113d ec23 a53e eb47 66be
00000110: 4a9a 1a3d 4852 f63e 582e b4be 894c 873e
00000120: fe5b a13e 3b3f fb3c 26c2 b3be cb0f 85be
00000130: 1571 5c3e 633b 07bf c93b 233e 1793 423d
00000140: ece1 e6be ffb8 fd3e fd87 9cbe 6ba4 6c3e
00000150: 13bc f9bd f1f5 eebe 9500 b33e 3be6 933d
00000160: cc9a 1cbd f162 76be 1a49 cc3c 4181 1abe
00000170: 24c4 aabe d897 a83e 7eff 8c3d 4ff7 1a3f
00000180: 244c f6be 7f3c fd3e be7b c6be 23a7 79be
00000190: 4326 94bc 8eb4 693e 1d57 2f3e 633f 0bbe
000001a0: 261c d93e 393d f63e bcdd a7be 63f2 aa3d
000001b0: fc84 bf3e 990e 78be 56d0 70be 0c66 193e
000001c0: b6d8 65bd bc8c 9cbe 06f8 923e 9ccb d53e
000001d0: f344 f8bc 511a 4c3e aeff 42be afc6 66bd
000001e0: 2dd8 423e 4cce fd3c 0bdb 0bbf 1f68 e53e
000001f0: 632d 053f a5a6 d13e e51b fabe 5d6b ab3e
00000200: f165 c4be 5d4b 0fbe 08aa 76be f901 d3be
00000210: d939 663e 8e26 83be 6fc0 7a3e 31c4 083f
00000220: 3820 fd3e 5537 3f3e 3c2f 15be 5d5d a23e
00000230: 646c c73d 7fdf 083f 1775 c2be eba4 7abe
00000240: 31b4 c2be a383 533e 8fbb 0dbf b95c c73e
00000250: afda 6abe 93d3 93be 9ce6 b83d 7815 0d3f
00000260: 978f 1d3e 850b b23e 4c5f b63e 1cc2 ba3e
00000270: 2be7 053f d46d 0fbe 5a0c e8be b05c 9b3e
00000280: 94da d0be 9a52 57be 108b 93bd fc8d 0cbf
00000290: d9ec b13e 42ca cc3e dbfc bbbe b472 163f
000002a0: ce90 ecbe 6dd6 0abf 7b20 1abe 86a9 11bf
000002b0: ab5e e9be ec8e 803e b267 403e 9aef 2ebc
000002c0: e654 8abe 53aa 323e e000 8bbe 4efc c7be
000002d0: 270a f53e 1d1e 2c3e 612c c0bd bc84 303e
000002e0: 82f1 6e3e 7d84 933e 83d9 5cbd c030 f8be
000002f0: 4bc6 27bd eca4 bcbe a45a 4d3d eb3b b6be
00000300: 38cd 0dbf e2c3 0abd 12a9 a53e 2269 3ebc
00000310: 5baa b73d 6622 3e3f cae5 c8bc 4437 1bbe
00000320: 4372 0dbf 032e 1e3d e75e 773e 3660 68be
00000330: 2986 ddbe df88 f7bd 6d17 85be c144 c93e
00000340: 630d 923e f245 ba3d d016 8d3e 546d 72be
00000350: 2b20 1dbe 7314 983d 646f 94be 74e6 10be
00000360: 8b88 de3d 2022 983e f63e c3bb 3e88 7cbe
00000370: 7230 8cbe 57a3 12be 9601 ddbe cbb5 59bb
00000380: b4c3 323e 745a a3be fa95 2e3e f440 093e
00000390: ff5b ad3e 3f07 d9bd 4f54 72bd 252e d73e
000003a0: 0abe 0f3f 9a4f c83e c887 00bf dbd5 873b
000003b0: d268 abbd bed0 883e b46e 21bd 86a7 82be
000003c0: a3fd fe3e 3ac8 f7bd 9610 a0be 9239 923e
000003d0: db8a 3fbe fc01 7e3d b2f3 ca3d 5159 2c3e
000003e0: b39c c2be 145a b23d ee3f d03e 77cf 953c
000003f0: 6f4e 843d f28d af3e a4c1 163e 3cfb 283d

feature_exact.op_attention_blocks.0.attention_2.a f4 [64, 1]
0.07700212 -0.38807315 -0.4380626 0.30964243 0.39152077 0.11189768 -0.058142282 0.35474014
0.18995067 -0.3270319 -0.052728903 0.06658611 -0.14329489 0.085926786 -0.09586868 -0.04544483
0.005192355 0.24411936 0.115806855 -0.10021315 -0.3505578 0.31903976 0.17340142 0.21238524
0.14094639 0.10969462 0.1503115 0.002594614 0.33386478 -0.036730647 0.31250796 -0.19151698
0.49024227 0.32422525 -0.33830303 -0.33114895 0.30550042 -0.40135905 0.12655787 -0.18639103
0.3104467 0.36782342 0.08928431 0.3181207 -0.03745367 -0.23544471 0.15864135 0.08002799
-0.045040373 0.13712867 0.02632388 -0.15585472 -0.34723383 -0.4055586 0.18896006 0.04404865
-0.30341196 -0.14116676 0.29915246 0.069636345 -0.37565082 0.24483092 0.21079843 0.23597208
00000000: 4ab3 9d3d 86b1 c6be be49 e0be 7489 9e3e
00000010: 6975 c83e 9c2a e53d 9a26 6ebd 80a0 b53e
00000020: 6e82 423e ba70 a7be 43fa 57bd 4c5e 883d
00000030: e5bb 12be 62fa af3d cc56 c4bd 5c24 3abd
00000040: a124 aa3b 6dfa 793e 252c ed3d 8d3c cdbd
00000050: 507c b3be 2e59 a33e 2490 313e 847b 593e
00000060: 4054 103e 93a7 e03d 42eb 193e 660a 2a3b
00000070: 53f0 aa3e e072 16bd 0b01 a03e 071d 44be
00000080: 0901 fb3e da00 a63e 0e36 adbe 5b8c a9be
00000090: 8d6a 9c3e ef7e cdbe 6398 013e 4add 3ebe
000000a0: dff2 9e3e 5a53 bc3e b1da b63d b7e0 a23e
000000b0: 0569 19bd 6b18 71be e172 223e b7e5 a33d
000000c0: 417c 38bd 756b 0c3e 2da5 d73c 6198 1fbe
000000d0: a2c8 b1be 60a5 cfbe bf7e 413e 5b6c 343d
000000e0: d058 9bbe 058e 10be 832a 993e 809d 8e3d
000000f0: 4e55 c0be f5b4 7a3e 8bdb 573e aaa2 713e

feature_exact.op_attention_blocks.0.attention_3.W f4 [10, 32]
0.06165508 0.46911237 0.37628064 -0.29378164 -0.4724248 -0.6167437 -0.59611773 0.49643
-0.5929416 0.39199734 -0.6641228 0.24620703 0.41637143 0.20445634 -0.3769773 -0.5420273
0.27810878 -0.8162671 0.55918396 0.09729308 0.046537112 -0.40718085 0.07952478 0.04822259
0.0030850552 0.27304196 0.5061643 0.10106323 -0.5922205 -0.3812401 0.40353942 -0.6479691
0.02002287 -0.43953344 -0.6379066 -0.030603528 0.7435539 0.30062333 -0.14480422 0.7914478
0.6557514 0.7571463 0.3312099 -0.45942178 -0.02106548 -0.63384765 0.56775135 0.21203
0.24141842 0.5628172 -0.26214486 0.88775206 -0.012119801 0.22048527 -0.2466719 0.33029625
0.00235943 0.7173123 0.60361546 -0.30084592 -0.19137454 -0.4171333 -0.66864365 -0.7347231
0.4149483 -0.124133825 0.039516456 0.2381087 -0.41191888 0.016341172 0.024216307 -0.3822539
0.48446417 0.5569634 -0.17387255 0.05041715 0.19977829 -0.123118185 0.3364421 0.13166937
0.19437802 0.61084783 0.08028789 -0.37930268 -0.29658073 0.42863697 0.24208042 -0.13558824
-0.10005854 -0.20129518 -0.106761 -0.39621747 0.30081716 0.34197932 -0.35724908 -0.011795436
-0.58161694 -0.14413375 0.22420399 0.1702005 -0.30448434 -0.14347042 0.25471026 -0.56969273
0.47838694 -0.31242535 0.50707924 -0.44915244 0.13531274 0.05943101 -0.17058693 -0.13127193
-0.5741917 0.39970762 -0.40478772 0.008748283 0.37001383 -0.07559595 -0.42135423 0.096126385
0.41823518 0.52435344 -0.06397633 0.18675645 -0.000809761 0.4459304 0.477777 0.013090933
0.32468194 0.37120858 -0.021045905 0.06235707 -0.11641786 -0.28273112 -0.30897877 -0.13161308
0.53188366 -0.108584575 -0.30005452 0.5547545 0.4319277 -0.0820528 -0.23930863 0.53339607
-0.13019867 -0.33020997 -0.15269488 0.32372057 -0.20111702 0.50586975 0.018161701 0.26185003
-0.50141615 -0.46906057 0.41976133 -0.38761955 0.37435493 -0.60736054 -0.45995164 0.44319978
0.22213471 0.17119294 0.28598997 -0.5819769 -0.1306872 0.47654083 0.51440793 -0.53936887
0.2145513 -0.5817513 0.49912718 -0.1554529 -0.057485826 0.34081084 -0.2980588 0.19686504
0.009409988 0.3879593 0.3475758 -0.02259699 0.3571121 0.43711686 0.083576396 0.34698197
-0.3866181 0.40401447 -0.26271513 -0.3070651 0.030741634 -0.00856661 0.24022858 0.48115757
0.30970937 0.106881194 0.5426977 0.5097467 -0.49211684 -0.5273848 -0.67011845 0.37510085
-0.10518309 0.1687585 0.0055587767 0.14982793 0.013045801 -0.3361298 -0.11755343 0.025997726
0.52666587 -0.17018405 -0.3961146 -0.3944584 0.40193683 -0.043426502 -0.41951132 0.06522393
-0.6412355 -0.11811129 0.295984 -0.07755171 0.20998935 0.030391194 0.59462804 0.1514877
-0.06034274 -0.33514735 0.28317216 -0.27741212 -0.3386567 0.12124264 -0.2431841 0.0013022696
-0.086340606 0.45021594 0.38257015 -0.45852447 0.40956083 0.3041008 -0.32075953 -0.37299338
0.4292285 -0.14971067 -0.4550263 -0.3308322 0.33411208 0.32569134 -0.1875152 0.1743305
0.17036621 0.33923823 0.3845993 0.41935965 0.41354793 0.38478306 0.2675041 -0.49166116
00000000: 0a8a 7c3d 7f2f f03e dba7 c03e 8c6a 96be
00000010: aae1 f1be eae2 1dbf 2c9b 18bf 132c fe3e
00000020: 05cb 17bf e0b3 c83e f403 2abf b21d 7c3e
00000030: a32e d53e 015d 513e 2b03 c1be 4dc2 0abf
00000040: 4664 8e3e e1f6 50bf ae26 0f3f 9841 c73d
00000050: b39d 3e3d 027a d0be e3dd a23d 0d85 453d
00000060: a32e 4a3b 28cc 8b3e fc93 013f 3dfa ce3d
00000070: c39b 17bf e731 c3be b89c ce3e 4ee1 25bf
00000080: 0007 a43c 870a e1be d94d 23bf 40b4 fabc
00000090: 8c59 3e3f 4deb 993e 8f47 14be 539c 4a3f
000000a0: 53df 273f 57d4 413f 5894 a93e 5539 ebbe
000000b0: 8391 acbc d743 22bf 2758 113f 641e 593e
000000c0: 6436 773e ca14 103f da37 86be b843 633f
000000d0: 2192 46bc e4c6 613e 8f97 7cbe 971c a93e
000000e0: aba0 1a3b c7a1 373f 8b86 1a3f 7a08 9abe
000000f0: b0f7 43be 7f92 d5be 3b2c 2bbf d016 3cbf
00000100: 1b74 d43e e039 febd 02dc 213d c4d2 733e
00000110: 08e7 d2be ecdd 853c 4761 c63c c8b6 c3be
00000120: b00b f83e 2795 0e3f a50b 32be 3782 4e3d
00000130: ae92 4c3e 6325 fcbd 2442 ac3e 56d4 063e
00000140: 080b 473e 8660 1c3f fa6d a43d f633 c2be
00000150: 6ed9 97be 4e76 db3e eee3 773e a5d7 0abe
00000160: 7eeb ccbd 5320 4ebe 83a5 dabd 04dd cabe
00000170: b504 9a3e ea17 af3e 5ae9 b6be a541 41bc
00000180: d9e4 14bf cc97 13be bb95 653e 0a49 2e3e
00000190: 5fe5 9bbe e9e9 12be 6269 823e 62d7 11bf
000001a0: 22ef f43e 37f6 9fbe f2cf 013f 4ff7 e5be
000001b0: 6c8f 0a3e ee6d 733d 57ae 2ebe 266c 06be
000001c0: 3afe 12bf 7aa6 cc3e 5640 cfbe f554 0f3c
000001d0: 7472 bd3e 0dd2 9abd bebb d7be e9dd c43d
000001e0: ec22 d63e 073c 063f 0606 83bd 153d 3f3e
000001f0: 2446 54ba fd50 e43e 309f f43e 5a7b 563c
00000200: b63c a63e 0d0f be3e 7668 acbc 216a 7f3d
00000210: 7d6c eebd 22c2 90be 7732 9ebe 94c5 06be
00000220: 8729 083f 9761 debd bfa0 99be 6404 0e3f
00000230: a125 dd3e 4c0b a8bd 520d 75be a58c 083f
00000240: cd52 05be 4811 a9be 0c5c 1cbe b4be a53e
00000250: 9ff1 4dbe ae80 013f d9c7 943c 3511 863e
00000260: cf5c 00bf b528 f0be f5ea d63e 1276 c6be
00000270: 73ab bf3e fb7b 1bbf c87e ebbe 15eb e23e
00000280: 4877 633e 344d 2f3e 476d 923e 70fc 14bf
00000290: ded2 05be 29fd f33e 3db0 033f 1414 0abf
000002a0: 56b3 5b3e a7ed 14bf 998d ff3e 0c2f 1fbe
000002b0: 4276 6bbd c27e ae3e 2a9b 98be fd96 493e
000002c0: 5a2c 1a3c 9aa2 c63e 75f5 b13e 531d b9bc
000002d0: 66d7 b63e c8cd df3e 1a2a ab3d 9fa7 b13e
000002e0: cff2 c5be fcda ce3e 9982 86be a337 9dbe
000002f0: e1d5 fb3c f75a 0cbc 7bfe 753e 495a f63e
00000300: 3a92 9e3e 87e4 da3d 3dee 0a3f c27e 023f
00000310: bdf6 fbbe b102 07bf e28c 2bbf 380d c03e
00000320: 3b6a d7bd 07cf 2c3e 6626 b63b 7e6c 193e
00000330: 0ebe 553c 3519 acbe dabf f0bd 2ff9 d43c
00000340: 93d3 063f ba44 2ebe 88cf cabe 74f6 c9be
00000350: aaca cd3e fddf 31bd 30ca d6be 2094 853d
00000360: 0228 24bf 55e4 f1bd 378b 973e 6ed3 9ebd
00000370: 7307 573e f4f6 f83c 8b39 183f 971f 1b3e
00000380: f329 77bd 6f98 abbe f1fb 903e f608 8ebe
00000390: 6964 adbe 104e f83d 4105 79be ebb0 aa3a
000003a0: 58d3 b0bd b482 e63e 3ce0 c33e b8c3 eabe
000003b0: f5b1 d13e 1ab3 9b3e 983a a4be fdf8 bebe
000003c0: d7c3 db3e c14d 19be 35f9 e8be d762 a9be
000003d0: bd10 ab3e 04c1 a63e fc03 40be b283 323e
000003e0: 7b74 2e3e a2b0 ad3e 33ea c43e 4fb6 d63e
000003f0: 8ebc d33e 4902 c53e 4cf6 883e 03bb fbbe

feature_exact.op_attention_blocks.0.attention_3.a f4 [64, 1]
0.44958448 0.50841457 -0.23902985 0.17048845 -0.29485998 0.04657783 0.3145228 0.09034062
-0.28161892 -0.041343227 -0.23547874 -0.21704388 -0.23787896 -0.23871037 0.43978554 -0.2695069
-0.13530374 0.12856728 -0.06861517 -0.29186162 -0.49875933 -0.112191446 0.49780127 0.1196384
0.13356747 -0.50645834 0.31586888 0.20980331 -0.11025511 -0.36231044 -0.09443117 0.4942762
0.38662645 0.2625149 0.29168865 0.023407737 -0.5851236 0.008564301 -0.32939318 -0.3027671
-0.12964298 -0.36153576 -0.486442 -0.26458144 0.27007404 0.21135694 -0.38364223 -0.005336749
0.3672626 -0.097796604 0.15042524 -0.73222864 0.39789578 -0.066860445 -0.003881918 -0.28934714
-0.34594715 -0.20842461 -0.24119382 -0.28091887 -0.30184662 0.10167121 0.42816877 0.28346667
00000000: f02f e63e 7527 023f 3ec4 74be 8694 2e3e
00000010: e3f7 96be 65c8 3e3d 2209 a13e 8104 b93d
00000020: 5b30 90be 8457 29bd 5721 71be c040 5ebe
00000030: 8b96 73be 7e70 74be 922b e13e cffc 89be
00000040: 108d 0abe 24a7 033e 1c86 8cbd e36e 95be
00000050: 625d ffbe a1c4 e5bd cfdf fe3e fa04 f53d
00000060: e9c5 083e 41a7 01bf 91b9 a13e aed6 563e
00000070: 6ecd e1bd c180 b9be 2165 c1bd c511 fd3e
00000080: e7f3 c53e 5a68 863e 3758 953e 95c1 bf3c
00000090: a9ca 15bf 4851 0c3c 39a6 a8be 4a04 9bbe
000000a0: 21c1 04be 371b b9be ed0e f9be 3877 87be
000000b0: 2547 8a3e f46d 583e c16c c4be e5df aebb
000000c0: d809 bc3e 9649 c8bd 1309 1a3e 5673 3bbf
000000d0: ffb8 cb3e 21ee 88bd c767 7ebb 4f25 94be
000000e0: fc1f b1be 436d 55be 83fb 76be 99d4 8fbe
000000f0: a48b 9abe ff38 d03d f038 db3e 8b22 913e

feature_exact.op_attention_blocks.1.attention_0.W f4 [128, 8]
0.03644045 -0.1763345 -0.06567946 0.29460737 0.1273336 0.169112 0.0058353664 0.14061306
-0.005810471 -0.47980055 0.22151786 0.045521222 -0.19195522 0.11506402 0.18077894 0.13010271
-0.1651688 0.043155853 0.34683147 -0.12034732 0.11210348 0.28397787 0.15724738 -0.05037823
0.017183952 -0.16386852 0.20728664 0.09920506 -0.017823484 -0.0315375 0.080383584 -0.06511257
0.1115276 -0.32736358 -0.10282062 -0.14739655 -0.032858193 -0.08034319 0.2536654 0.21298696
-0.01590667 -0.10787325 0.24075821 -0.25034365 -0.046791732 -0.06458437 -0.18542951 -0.046151493
-0.30573374 -0.14438963 0.054488935 -0.23864353 -0.16857542 0.025591733 -0.20457898 0.22061431
-0.040748548 -0.37523007 -0.08690725 0.10386137 -0.059446182 0.19938521 -0.09845781 0.07640696
-0.1394349 0.32289618 0.22444218 0.2016202 0.19423582 0.27186593 0.27872142 -0.19594328
-0.21231422 -0.35041338 -0.3349176 0.13813618 -0.26087877 -0.22448638 0.12157183 0.07500471
0.23926622 0.3321671 0.32211658 0.20432502 -0.1936705 0.016437171 0.023147445 0.24818797
0.1037117 0.17430799 0.02058454 0.10390811 0.3458259 0.2666226 -0.29771215 0.17845482
0.17703718 -0.22397232 0.21980178 -0.22370546 0.2582985 0.13718718 -0.17054899 0.0078413235
0.050994452 -0.12376849 0.40370992 -0.042675365 0.2366266 0.085968815 0.150904 -0.07695333
0.3406961 0.013406644 -0.056548562 0.32511663 0.030633966 0.19935888 0.23314269 -0.010842593
0.15063418 -0.22410867 -0.12897418 0.24953035 -0.024434993 0.12768456 0.17936353 0.16187835
0.22675434 -0.27284887 -0.06509434 -0.1283017 0.19598222 -0.16767873 -0.26777372 -0.23823115
0.10385628 -0.0042877435 0.3108459 -0.10367141 -0.046109244 0.3254546 -0.37721244 0.1259842
0.022729611 0.1777718 0.022684654 -0.1478427 -0.23991907 0.0206452 0.10308095 -0.03187555
0.19824821 0.26501703 0.054044187 -0.16443114 -0.21338254 0.3204507 -0.0019956718 0.20175648
0.023291497 0.09876933 -0.20860896 0.035075184 -0.023611233 -0.06967257 -0.21395391 0.12130985
-0.19931526 -0.20833471 0.22771458 0.32625398 0.29675984 -0.013653222 -0.07794479 0.27865574
-0.1799502 -0.1451637 0.046715077 0.16269036 -0.31314522 0.18012823 -0.105572395 0.06253554
-0.07317028 0.12307759 -0.049573913 -0.37587023 0.24748577 -0.07672516 -0.25216416 -0.46009493
0.15742885 0.22369066 0.29193693 0.16061516 0.33452705 0.2603402 -0.58724844 -0.06565913
-0.028190877 0.30214873 0.3519286 -0.29145238 -0.18846516 0.335831 0.01884026 0.24062333
0.076963864 -0.11400693 0.11766982 0.13791066 0.06286147 0.021541629 -0.23386393 0.19649306
0.25085324 -0.26331106 -0.22404414 0.1361609 0.18988493 -0.17743412 -0.20970057 -0.23579134
0.12720226 -0.27801126 -0.16001067 0.07759614 -0.13526106 -0.23428537 0.25351948 -0.28723955
0.015702674 -0.099150665 0.094023176 -0.27020314 -0.108819924 0.17422765 0.14335535 0.12176781
-0.22084336 -0.12282507 -0.4072591 -0.23257649 0.03069862 -0.24747068 0.05812858 0.12889284
-0.0055254474 0.28932205 0.29208878 0.11341416 -0.08944019 -0.23402843 -0.5375898 -0.04717912
00000000: 9542 153d 0891 34be f482 86bd c7d6 963e
00000010: bd63 023e b22b 2d3e 9a36 bf3b dffc 0f3e
00000020: c365 bebb 6ba8 f5be 94d5 623e 7674 3a3d
00000030: e98f 44be afa6 eb3d 1d1e 393e a539 053e
00000040: 0322 29be 31c4 303d e593 b13e a878 f6bd
00000050: 8296 e53d 8c65 913e 7505 213e 6759 4ebd
00000060: 5cc5 8c3c 26cd 27be f342 543e 062c cb3d
00000070: 8e02 92bc 772d 01bd 26a0 a43d bd59 85bd
00000080: 9568 e43d 339c a7be 9e93 d2bd 1fef 16be
00000090: 5096 06bd f88a a4bd 6ee0 813e 4119 5a3e
000000a0: b44e 82bc a7ec dcbd 5289 763e 0b2d 80be
000000b0: b0a8 3fbd cf44 84bd 3ce1 3dbe 5909 3dbd
000000c0: 2289 9cbe e0da 13be ca2f 5f3d f85e 74be
000000d0: 099f 2cbe c1a5 d13c 277d 51be b8e8 613e
000000e0: f3e7 26bd 281e c0be 6efc b1bd 45b5 d43d
000000f0: d77d 73bd a32b 4c3e 40a4 c9bd 417b 9c3d
00000100: 06c8 0ebe a652 a53e 2cd4 653e 8775 4e3e
00000110: c1e5 463e 0332 8b3e 93b4 8e3e 5ba5 48be
00000120: e668 59be 6269 b3be 527a abbe 9273 0d3e
00000130: e791 85be c2df 65be a7fa f83d 129c 993d
00000140: 3402 753e ce11 aa3e 77ec a43e 943a 513e
00000150: 8f51 46be 3fa7 863c b69f bd3c fd24 7e3e
00000160: cd66 d43d cb7d 323e e9a0 a83c c6cd d43d
00000170: 1810 b13e c282 883e ba6d 98be dcbc 363e
00000180: 3c49 353e 0059 65be b813 613e 0b13 65be
00000190: b33f 843e cc7a 0c3e 65a4 2ebe e578 003c
000001a0: 8fdf 503d 567a fdbd 11b3 ce3e 5dcc 2ebd
000001b0: 3e4e 723e 6b10 b03d 9486 1a3e b599 9dbd
000001c0: b86f ae3e 8aa7 5b3c 779f 67bd b075 a63e
000001d0: 15f4 fa3c bc24 4c3e f5bc 6e3e 22a5 31bc
000001e0: d93f 1a3e be7c 65be cf11 04be e284 7f3e
000001f0: e52b c8bc bebf 023e 13ab 373e 70c3 253e
00000200: 4a32 683e d9b2 8bbe 2e50 85bd 8561 03be
00000210: 90af 483e f9b3 2bbe a319 89be def2 73be
00000220: 9ab2 d43d 3380 8cbb 3227 9f3e ad51 d4bd
00000230: 0cdd 3cbd fca1 a63e fd21 c1be 0102 013e
00000240: 7333 ba3c d009 363e 2bd5 b93c 1464 17be
00000250: 58ad 75be 1f20 a93c 1b1c d33d f08f 02bd
00000260: 9401 4b3e 50b0 873e 705d 5d3d a360 28be
00000270: f480 5abe 1d12 a43e d1c9 02bb 4099 4e3e
00000280: cfcd be3c 9347 ca3d 969d 55be ffaa 0f3d
00000290: 586c c1bc 7eb0 8ebd bc16 5bbe 4c71 f83d
000002a0: 4d19 4cbe b255 55be 032e 693e c30a a73e
000002b0: e8f0 973e c3b1 5fbc 85a1 9fbd f7ab 8e3e
000002c0: dd44 38be cba5 14be 4f58 3f3d 4d98 263e
000002d0: 9254 a0be 8973 383e 5736 d8bd a212 803d
000002e0: 4dda 95bd 1a10 fc3d 040e 4bbd 1072 c0be
000002f0: e96c 7d3e 1522 9dbd a91b 81be 9091 ebbe
00000300: 0735 213e 2a0f 653e c278 953e 4d78 243e
00000310: 2147 ab3e 504b 853e ea55 16bf 4b78 86bd
00000320: 8ef0 e6bc 3db3 9a3e fc2f b43e 3f39 95be
00000330: 03fd 40be 0af2 ab3e e456 9a3c f665 763e
00000340: 3b9f 9d3d 777c e9bd e0fc f03d 7438 0d3e
00000350: 84bd 803d 1278 b03c 077a 6fbe 7a35 493e
00000360: d66f 803e b5d0 86be d46b 65be c36d 0b3e
00000370: 3271 423e 4ab1 35be bfbb 56be 4973 71be
00000380: 4f41 023e 7e57 8ebe d6d9 23be baea 9e3d
00000390: e081 0abe 81e8 6fbe 4ecd 813e 1011 93be
000003a0: e5a2 803c 810f cbbd 398f c03d 1158 8abe
000003b0: fbdc debd bc68 323e bfcb 123e 6761 f93d
000003c0: c324 62be b68b fbbd 4484 d0be 8828 6ebe
000003d0: ac7b fb3c f468 7dbe 3c18 6e3d 7cfc 033e
000003e0: d00e b5bb 0522 943e a98c 953e af45 e83d
000003f0: 6b2c b7bd 26a5 6fbe 7c9f 09bf e53e 41bd

feature_exact.op_attention_blocks.1.attention_0.a f4 [16, 1]
0.42262372 -0.4507728 -0.16989672 -0.75254273 0.17175725 -0.22055496 -0.83701056 0.76708615
0.7363022 0.43873438 -0.4979165 0.4444561 0.26407292 -0.27837998 0.61677414 -0.10223903
00000000: 2362 d83e b1cb e6be 68f9 2dbe a4a6 40bf
00000010: 22e1 2f3e 29d9 61be 5346 56bf c25f 443f
00000020: 4d7e 3c3f cba1 e03e e9ee febe c08f e33e
00000030: 9134 873e d287 8ebe e9e4 1d3f b262 d1bd

feature_exact.op_attention_blocks.1.attention_1.W f4 [128, 8]
-0.26780397 -0.17367165 -0.18953782 0.15909591 -0.20955475 -0.06413098 -0.0459684 0.091511205
0.104669064 -0.24513438 -0.34301856 -0.106918946 -0.009911528 -0.14606102 0.10808952 -0.013572549
0.1952354 -0.08688676 -0.25512925 0.10759034 0.26016584 0.17056017 0.00042454278 0.26627985
0.12861691 -0.05374346 0.30366442 0.08226276 -0.21864918 0.2289348 -0.20604356 -0.03920265
-0.16711548 0.10386908 -0.1539953 0.2484235 -0.14830124 -0.23612289 -0.11693342 -0.1236479
0.35220543 -0.08602355 -0.2111265 0.2621006 -0.18302754 0.009132696 0.13900611 0.09418683
-0.21336679 -0.25515395 -0.08652222 -0.21624227 -0.16362208 0.14603025 -0.17931825 -0.12913014
-0.09865835 -0.35497838 0.18213363 0.059201937 0.31409365 0.20999385 0.2587971 0.063722596
0.104024954 0.030729065 0.24991941 0.17485021 -0.20727952 -0.27727577 0.3481858 0.24467634
-0.06461691 -0.2873158 -0.29768273 -0.028527206 -0.08957886 0.09369966 0.3139421 0.2575164
0.04668596 0.12872908 0.02739581 -0.24476227 0.082725465 0.1281186 -0.0030309958 -0.1727817
-0.17029844 0.10513952 -0.04203879 0.15533158 -0.06273368 0.176429 0.016852714 0.07397082
-0.10603273 -0.29327267 0.41731986 0.042425632 -0.10513313 -0.019658903 -0.2253938 -0.26549515
-0.13058758 -0.14684671 0.20517305 0.14274558 0.13527848 0.09904611 -0.06709489 -0.036227074
0.04395546 -0.29243267 -0.015712596 0.13996577 -0.32292226 0.08907471 0.015093539 0.15390949
0.15859005 0.0011805313 0.32746243 0.05885113 0.056196313 -0.17930746 -0.030461555 0.28392193
-0.25599256 0.14505988 -0.106034294 -0.12155305 0.18670823 0.22757982 -0.32628793 0.27247494
0.18489541 -0.012388971 0.31895044 -0.219758 0.13423032 0.34373897 0.2760937 -0.06121112
0.2830769 0.07600802 0.16393527 0.17847058 0.20503792 0.016023438 -0.14245711 -0.0007350339
-0.22613166 -0.3153266 0.11450344 -0.0775126 0.119508274 -0.0377426 -0.29155126 -0.13684584
0.10085973 0.257772 0.029644512 0.0071845283 -0.06880513 0.32110173 -0.27938476 -0.23409148
0.18504202 0.20986262 -0.20448343 0.31954733 0.004952122 0.2785718 0.206304 0.16450936
0.058695626 0.17564528 0.11001651 0.16651669 -0.13559797 -0.17934406 -0.09025791 0.019617354
-0.1688451 0.031019935 0.27822962 -0.14028084 -0.25522774 0.15653872 0.09102285 0.09268679
-0.3375936 0.15196486 0.24755016 -0.17171557 -0.08804996 -0.12234098 -0.27716473 -0.14854203
-0.00885185 0.19209033 0.12345143 -0.20148167 0.26505968 0.29168275 -0.011078239 0.2197012
0.044355918 0.11773871 -0.00027016562 0.07273199 0.12105058 -0.026286116 0.06848442 0.07880871
-0.14748982 0.09690975 -0.17410074 -0.16335168 -0.06933741 0.08712377 -0.100577325 0.24986966
-0.24488688 -0.10732429 -0.16041397 0.12018154 0.22063541 -0.33740148 0.13577843 0.1505327
-0.16420273 0.14508496 0.12735246 0.2366665 -0.14400986 0.16556983 -0.20842685 -0.16555528
-0.242572 -0.3144096 0.09897903 -0.2913838 0.20534803 0.25900897 -0.16187644 0.07066419
-0.21879491 -0.03639306 -0.16180296 -0.289705 0.17736153 0.090222925 -0.5322058 -0.29072955
00000000: 9a1d 89be fbd6 31be 3416 42be 0aea 223e
00000010: 8595 56be 1a57 83bd 5c49 3cbd 3a6a bb3d
00000020: bc5c d63d 8204 7bbe 21a0 afbe 52f8 dabd
00000030: f663 22bc 0591 15be 0a5e dd3d 665f 5ebc
00000040: caeb 473e b0f1 b1bd 4da0 82be 5358 dc3d
00000050: 7534 853e 53a7 2e3e 2b95 de39 d555 883e
00000060: 27b4 033e 1a22 5cbd e779 9b3e 6179 a83d
00000070: 92e5 5fbe e26d 6a3e 15fd 52be f592 20bd
00000080: 5220 2bbe 50b9 d43d f2b0 1dbe bb62 7e3e
00000090: 48dc 17be 33ca 71be ca7a efbd 1c3b fdbd
000000a0: 4554 b43e 1d2d b0bd 8c31 58be 0d32 863e
000000b0: 926b 3bbe 4ea1 153c 9e57 0e3e 06e5 c03d
000000c0: d37c 5abe 8aa3 82be 9032 b1bd 9d6e 5dbe
000000d0: 8c8c 27be f488 153e 349f 37be b13a 04be
000000e0: 640d cabd babf b5be 3d81 3a3e bb7d 723d
000000f0: e2d0 a03e a108 573e 0e81 843e fe80 823d
00000100: 090b d53d 85bb fb3c e0ea 7f3e ef0b 333e
00000110: 1541 54be 17f7 8dbe 6945 b23e 6f8c 7a3e
00000120: df55 84bd 0e1b 93be df69 98be e3b1 e9bc
00000130: 1f75 b7bd 9be5 bf3d 05bd a03e 31d9 833e
00000140: c739 3f3d 8ed1 033e 2d6d e03c f6a2 7abe
00000150: f86b a93d 8631 033e aca3 46bb b0ed 30be
00000160: b762 2ebe 6353 d73d de30 2cbd 3e0f 1f3e
00000170: 847a 80bd cea9 343e b40e 8a3c 037e 973d
00000180: b027 d9bd d627 96be f3aa d53e 80c6 2d3d
00000190: 0a50 d7bd b50b a1bc a2cd 66be fbee 87be
000001a0: c0b8 05be fc5e 16be e218 523e e62b 123e
000001b0: 7186 0a3e b0d8 ca3d 0c69 89bd d762 14bd
000001c0: a40a 343d bcb9 95be b4b7 80bc 3053 0f3e
000001d0: 1156 a5be cd6c b63d e44a 773c 739a 1d3e
000001e0: 6e65 223e 0fbc 9a3a 28a9 a73e e20d 713d
000001f0: 1b2e 663d 609c 37be 838a f9bc 375e 913e
00000200: 7511 83be 948a 143e 8228 d9bd cef0 f8bd
00000210: 7130 3f3e af0a 693e 360f a7be d681 8b3e
00000220: 3955 3d3e 1cfb 4abc 794d a33e 3e08 61be
00000230: ac73 093e 8efe af3e 275c 8d3e 83b8 7abd
00000240: 75ef 903e 18aa 9b3d a6de 273e fec0 363e
00000250: 76f5 513e 9643 833c 47e0 11be 4aaf 40ba
00000260: 0f8f 67be 7d72 a1be c880 ea3d edbe 9ebd
00000270: c1c0 f43d fc97 1abd 3546 95be 5121 0cbe
00000280: 8c8f ce3d b1fa 833e 0cd9 f23c 316c eb3b
00000290: b4e9 8cbd 7267 a43e 850b 8fbe adb5 6fbe
000002a0: a87b 3d3e 3ae6 563e 1b64 51be b59b a33e
000002b0: 6945 a23b f7a0 8e3e 5b41 533e 2475 283e
000002c0: d36a 703d 5bdc 333e 5650 e13d 5a83 2a3e
000002d0: 32da 0abe f8a5 37be 24d9 b8bd 93b4 a03c
000002e0: bbe5 2cbe 851d fe3c 1d74 8e3e c8a5 0fbe
000002f0: 36ad 82be b04b 203e 306a ba3d 92d2 bd3d
00000300: 11d9 acbe ad9c 1b3e ca7d 7d3e 35d6 2fbe
00000310: 8a53 b4bd e88d fabd 89e8 8dbe 671b 18be
00000320: 5a07 11bc 54b3 443e 1ad4 fc3d 3651 4ebe
00000330: e7b5 873e 7157 953e 8181 35bc 5af9 603e
00000340: 8dae 353d fe20 f13d 04a5 8db9 82f4 943d
00000350: 5ee9 f73d fb55 d7bc 8f41 8c3d 7666 a13d
00000360: 9207 17be 9e78 c63d 7747 32be aa45 27be
00000370: c600 8ebd f26d b23d 7cfb cdbd d5dd 7f3e
00000380: a0c3 7abe d6cc dbbd 8f43 24be bd21 f63d
00000390: 40ee 613e e3bf acbe 8009 0b3e 3e25 1a3e
000003a0: c324 28be 2791 143e af68 023e b458 723e
000003b0: 5277 13be 238b 293e d96d 55be 5387 29be
000003c0: cb64 78be 4cfa a0be 85b5 ca3d 4230 95be
000003d0: c146 523e d39c 843e f0c2 25be 63b8 903d
000003e0: c60b 60be e410 15bd adaf 25be 3754 94be
000003f0: 439e 353e ccc6 b83d a43e 08bf 81da 94be

feature_exact.op_attention_blocks.1.attention_1.a f4 [16, 1]
0.53815085 -0.5868702 -0.83970946 0.28923568 -0.3030857 0.31580582 0.43270877 -0.7597692
0.8912351 -0.25135806 -0.7663892 0.64810103 0.31783572 0.7400295 0.9038235 -0.34020072
00000000: 41c4 093f 203d 16bf 33f7 56bf b316 943e
00000010: 0d2e 9bbe 4db1 a13e 018c dd3e 3c80 42bf
00000020: fc27 643f 01b2 80be 1532 44bf f3e9 253f
00000030: 5dbb a23e 9372 3d3f fa60 673f ca2e aebe

feature_exact.op_attention_blocks.1.attention_2.W f4 [128, 8]
-0.043893572 -0.16570823 0.035932053 -0.14934054 0.11491547 0.0595849 -0.124595985 -0.36198318
0.24613087 -0.41528487 -0.066862695 0.38226235 -0.07388875 -0.24671707 -0.05008883 0.39482749
0.20736656 -0.21111102 0.27881452 0.06830483 0.13209152 0.20513512 -0.11949761 -0.055536874
0.21925122 -0.159343 0.40545458 0.19555207 0.27917996 -0.31929976 -0.0665 -0.032166608
0.15767784 -0.3440771 -0.36943856 0.2017791 0.12196967 0.018941844 0.26688626 -0.06535946
0.036117032 -0.081983425 0.32505488 0.099554434 0.2528019 0.25002304 0.2947723 0.1250651
0.19726086 -0.10027274 0.2421807 0.15185273 0.08502801 0.27695644 -0.2654794 -0.24709696
-0.025454028 -0.36962694 -0.316322 0.13895723 -0.023447381 0.086138815 -0.031094167 0.08548524
-0.2653662 0.03618922 0.31922272 -0.11793964 -0.028237183 0.01718063 0.08981346 -0.07477702
-0.18825133 0.09462339 -0.058303088 -0.08377904 0.24831897 0.11604013 0.23252818 -0.10791986
0.067233 0.16046628 0.33397976 -0.24512069 -0.14993116 -0.2593541 -0.11799228 -0.17877874
-0.14799525 0.35143664 0.15660697 0.022018297 -0.14418824 0.23935048 -0.20361058 0.060071032
0.2340498 -0.1519646 -0.2068953 0.2862155 0.054912478 0.07858956 0.08393086 0.035004515
-0.17596795 -0.2875698 0.16059418 0.32413203 0.21220118 -0.25949237 0.19705117 0.22274718
0.12768404 -0.08840455 0.24614118 -0.13318081 -0.28180772 0.20875968 0.08182955 -0.13077693
-0.055738293 -0.14925672 -0.14132431 -0.24313153 0.14248565 0.102274664 0.10100533 0.2150353
0.27689958 -0.29417843 0.13599125 0.07038011 -0.22735207 0.06781036 -0.23504378 0.2676126
-0.04925581 -0.1996669 0.27437457 -0.13163145 -0.094010934 0.086831816 -0.13408932 -0.21961902
0.24960752 0.1204457 0.34520096 0.103714146 -0.1808661 -0.069873855 -0.25435552 -0.16350073
0.28708252 -0.09109668 0.19727547 -0.20711127 -0.0021102445 -0.07269413 0.12511611 0.17435709
0.15437777 0.28169876 -0.14829881 -0.055029046 0.13168517 0.2361068 -0.2016515 -0.2772492
0.061285533 -0.20546256 0.08229086 -0.047599364 0.13629924 -0.21971212 0.15591486 0.322862
-0.22036856 -0.13645558 -0.13733658 -0.11651192 -0.32924905 0.18971813 -0.12572558 0.14268284
0.026573738 0.1853034 0.22203605 -0.14667003 0.043863066 0.038645256 -0.25031683 -0.35084087
-0.14284796 0.0074796183 0.19252571 -0.2541314 -0.10401282 0.13666293 -0.35381708 -0.27362013
0.26357365 -0.2724426 -0.023025695 0.21140353 0.23710704 0.16598304 -0.19826785 -0.08517755
0.060673423 -0.20735101 -0.14049044 -0.20388311 -0.0886549 0.27097392 0.19519053 0.17935224
-0.28115103 0.2729444 0.13984622 -0.02753017 -0.36064303 -0.10197079 -0.045085404 -0.00026230258
-0.20284382 0.03378396 -0.19806397 -0.035544153 -0.20959531 0.05915041 -0.03941146 -0.43100494
0.25269085 -0.09527669 0.06912548 0.12883618 0.24591163 -0.22931771 -0.08576714 0.06165939
-0.21297567 -0.31440422 -0.16616729 0.21209726 -0.067779206 0.26351842 -0.06790083 0.2138484
0.16528726 0.0081835445 -0.03342347 0.09942085 0.13370533 -0.068966635 -0.23574843 0.0041922233
00000000: bfc9 33bd 6baf 29be 7d2d 133d baec 18be
00000010: cd58 eb3d 4c0f 743d 2e2c ffbd dc55 b9be
00000020: bb09 7c3e 38a0 d4be 4fef 88bd e4b7 c33e
00000030: fc52 97bd 66a3 7cbe f229 4dbd d426 ca3e
00000040: e657 543e 7d2d 58be c7c0 8e3e 67e3 8b3d
00000050: 0043 073e f10e 523e 2abb f4bd a27a 63bd
00000060: 6483 603e d02a 23be be97 cf3e cd3e 483e
00000070: adf0 8e3e 427b a3be 2731 88bd 22c1 03bd
00000080: 4d76 213e e02a b0be 0d27 bdbe 2e9f 4e3e
00000090: 3ccb f93d ed2b 9b3c 51a5 883e 2edb 85bd
000000a0: 74ef 133d ede6 a7bd 986d a63e 32e3 cb3d
000000b0: 406f 813e 0503 803e 65ec 963e 1111 003e
000000c0: c0fe 493e cb5b cdbd 38fe 773e 487f 1b3e
000000d0: 2a23 ae3d 3ccd 8d3e eaec 87be fc06 7dbe
000000e0: f784 d0bc be3f bdbe f5f4 a1be ce4a 0e3e
000000f0: b914 c0bc 8c69 b03d 32b9 febc e312 af3d
00000100: 14de 87be 263b 143d 2971 a33e 578a f1bd
00000110: aa51 e7bc 64be 8c3c 1ff0 b73d b224 99bd
00000120: f5c4 40be e8c9 c13d 38cf 6ebd 5894 abbd
00000130: 5447 7e3e 73a6 ed3d de1b 6e3e 1605 ddbd
00000140: 75b1 893d 4651 243e 65ff aa3e eb00 7bbe
00000150: 8e87 19be 10ca 84be f0a5 f1bd c611 37be
00000160: 118c 17be 81ef b33e 945d 203e b75f b43c
00000170: 15a6 13be 4b18 753e 4b7f 50be 0b0d 763d
00000180: c0aa 6f3e 9c9c 1bbe 5ddc 53be d78a 923e
00000190: e8eb 603d 90f3 a03d f1e3 ab3d e560 0f3d
000001a0: f130 34be 593c 93be cd72 243e a2f4 a53e
000001b0: 444b 593e 2fdc 84be c8c7 493e d617 643e
000001c0: 9bbf 023e 720d b5bd 6f0c 7c3e 8d60 08be
000001d0: 1a49 90be 19c5 553e 4096 a73d 63ea 05be
000001e0: d64d 64bd c1d6 18be 52b7 10be 79f7 78be
000001f0: c2e7 113e 6175 d13d e2db ce3d 3732 5c3e
00000200: c8c5 8d3e 8e9e 96be 4a41 0b3e 7223 903d
00000210: fbce 68be 28e0 8a3d 51af 70be 8504 893e
00000220: 76c0 49bd 7b75 4cbe d37a 8c3e 65ca 06be
00000230: ce88 c0bd e1d4 b13d b64e 09be cfe3 60be
00000240: 1d99 7f3e 3cac f63d 2ebe b03e 1568 d43d
00000250: f734 39be 061a 8fbd e33a 82be bc6c 27be
00000260: 7bfc 923e e590 babd 9502 4a3e fa14 54be
00000270: 074c 0abb a9e0 94bd 701e 003e aa8a 323e
00000280: 3515 1e3e d23a 903e a5db 17be 2366 61bd
00000290: 7ad8 063e fbc5 713e bb7d 4ebe 9bf3 8dbe
000002a0: 8a06 7b3d c764 52be 1c88 a83d 8df7 42bd
000002b0: 0792 0b3e 37fc 60be 25a8 1f3e 2b4e a53e
000002c0: 4ca8 61be 03bb 0bbe f6a1 0cbe cd9d eebd
000002d0: 5593 a8be 7845 423e 35be 00be 731b 123e
000002e0: 2bb1 d93c 2dc0 3d3e 6b5d 633e ab30 16be
000002f0: c2a9 333d 7d4a 1e3d 8729 80be 6aa1 b3be
00000300: bc46 12be 9617 f53b 7625 453e 831d 82be
00000310: ac04 d5bd 5ef1 0b3e 8327 b5be f017 8cbe
00000320: 20f3 863e 997d 8bbe 62a0 bcbc 2b7a 583e
00000330: 30cc 723e 75f7 293e ba06 4bbe 9171 aebd
00000340: b284 783d d353 54be badc 0fbe bcc6 50be
00000350: b390 b5bd 18bd 8a3e 07e0 473e 1da8 373e
00000360: 07f3 8fbe 5ebf 8b3e d933 0f3e f386 e1bc
00000370: 34a6 b8be 10d6 d0bd 79ab 38bd a885 89b9
00000380: 4ab6 4fbe 0d61 0a3d 48d1 4abe bf96 11bd
00000390: 27a0 56be b347 723d e96d 21bd aeac dcbe
000003a0: b260 813e 6d20 c3bd a991 8d3d a2ed 033e
000003b0: 42d0 7b3e 43d2 6abe afa6 afbd 8e8e 7c3d
000003c0: 4b16 5abe 97f9 a0be c227 2abe 0630 593e
000003d0: d3cf 8abd e3eb 863e 970f 8bbd 13fb 5a3e
000003e0: 1041 293e 4614 063c 0ce7 08bd 299d cb3d
000003f0: 0dea 083e 613e 8dbd 0968 71be eb5e 893b
