trained_network/SD2/20x5+mix.pth (torch, 136969 bytes, 50 tensors)

feature_exact.op_attention_blocks.0.attention_0.W f4 [10, 32]
-0.33405888 -0.52504563 0.6042245 0.5312273 -0.5161043 0.36671674 0.43222237 0.062070463
0.5924535 -0.32891148 0.37105975 0.50166345 0.45446208 0.31895745 -0.32015997 0.10976788
0.120985046 -0.19997413 -0.038858727 0.59006923 -0.4014872 -0.09503903 -0.16070816 0.49765363
-0.2539393 0.35442874 0.19940671 -0.19695903 0.09048733 -0.39422226 -0.38393146 0.18393932
0.118643954 0.37055725 0.36518076 0.5399073 0.28892037 -0.04166474 0.5102471 -0.4697462
0.3964397 0.016981736 0.4723227 0.0719669 -0.6032744 0.26887742 -0.52762353 0.32193264
-0.3549234 0.09619906 -0.3963382 -0.58504903 -0.27549276 -0.51450217 -0.47444943 -0.0023991123
-0.29606688 -0.39876002 -0.14257286 0.47553083 0.13289817 -0.2626071 0.47104606 -0.3888135
-0.5223723 0.46563283 0.1514061 0.13357745 0.15957215 -0.32161066 0.35329387 -0.17927445
0.43730786 -0.09646821 -0.23924316 0.09274671 -0.15878879 0.5262464 0.14811732 -0.5731394
0.4932777 0.1345028 -0.28356937 0.40012288 -0.12786186 0.057861894 0.44763488 -0.5073318
-0.23786192 0.04679688 -0.43578488 0.30700552 -0.5936522 0.19262052 -0.0065017994 0.1678421
-0.29167393 -0.023318572 0.20701936 0.111089215 -0.057305224 0.02504535 -0.060447805 0.18041836
0.45311671 0.47454393 -0.45825353 0.031586636 0.5008068 0.40656224 -0.24202803 0.51182425
-0.33469146 -0.066453576 -0.14462252 0.3621264 -0.39180946 -0.36307785 0.28542647 -0.39747185
0.4601481 -0.52432334 -0.08810153 -0.11464919 0.112279594 0.027665695 0.3264323 -0.10823513
-0.4057359 -0.19431095 0.072020374 -0.47835803 0.5102791 0.3675224 -0.28526968 -0.09286519
0.4066137 -0.17947374 0.2716761 0.50005496 -0.5063235 -0.21320888 0.27103984 -0.03251421
-0.2418822 0.28913942 -0.20940688 -0.19107893 0.21759745 -0.064803764 -0.0063067074 0.34753707
-0.010512968 0.27925074 -0.4507807 0.2283988 0.44869325 -0.34830928 -0.2740704 -0.3457341
-0.08810434 0.11959265 -0.3663949 0.23645931 0.32710573 -0.15622818 0.16692492 -0.21578409
-0.13969606 0.068280265 -0.17656301 0.47993228 -0.32519138 0.08980569 -0.23299225 -0.34517014
-0.32609856 0.47378287 -0.5173589 -0.29352823 0.6621713 0.21375251 0.08522518 0.15642817
-0.520071 0.19792134 -0.49079767 -0.22299756 -0.31160352 -0.2979871 -0.12690443 0.20052849
0.20645379 -0.41498333 0.0017778093 0.42020017 -0.25907624 0.08502538 0.13340284 -0.29126826
-0.298639 0.11976032 0.29332635 0.4481825 -0.1765354 0.29734638 0.17539981 -0.40107518
-0.54101765 0.5064598 0.5232552 -0.2954417 -0.27126598 0.27780765 -0.45161015 0.029945584
0.11070019 -0.25367337 -0.40324014 0.24150665 0.03201807 0.32881725 0.15685582 -0.50812596
0.37973854 -0.5016561 0.35225648 -0.3234832 -0.5725171 -0.542328 0.2655814 0.07628546
0.22141609 0.14378941 0.12436647 -0.5578124 0.38682255 -0.35807955 -0.07237442 0.461251
0.16657169 -0.46557456 -0.24313477 -0.173898 -0.33849156 0.29378358 -0.047707368 -0.19847594
0.40404755 -0.4657471 0.046697937 -0.41379464 -0.11558799 -0.51605225 0.31685138 0.06531184
00000000: c409 abbe 6469 06bf 75ae 1a3f 83fe 073f
00000010: 691f 04bf 4cc2 bb3e 404c dd3e 993d 7e3d
00000020: 08ab 173f 1667 a8be 8bfb bd3e 046d 003f
00000030: 41af e83e 644e a33e 02ec a3be fbcd e03d
00000040: 02c7 f73d 05c6 4cbe 542a 1fbd c70e 173f
00000050: bb8f cdbe d3a3 c2bd ae90 24be 75cc fe3e
00000060: 5504 82be af77 b53e 4631 4c3e a1af 49be
00000070: 6c51 b93d 80d7 c9be aa92 c4be 975a 3c3e
00000080: 9afb f23d aeb9 bd3e f9f8 ba3e 5d37 0a3f
00000090: 5fed 933e a5a8 2abd 8e9f 023f 9382 f0be
000000a0: 25fa ca3e 481d 8b3c 48d4 f13e 6263 933d
000000b0: 3170 1abf 4daa 893e 5612 07bf 5bd4 a43e
000000c0: 85b8 b5be 0304 c53d d7ec cabe c6c5 15bf
000000d0: 630d 8dbe 6ab6 03bf 09eb f2be 6d3a 1dbb
000000e0: 1496 97be 462a ccbe 9ffe 11be c778 f33e
000000f0: 7516 083e 7074 86be f32c f13e 9012 c7be
00000100: 31ba 05bf 6d67 ee3e 330a 1b3e 87c8 083e
00000110: e266 233e 27aa a4be efe2 b43e b993 37be
00000120: d1e6 df3e 2091 c5bd 29fc 74be fdf1 bd3d
00000130: 8799 22be 16b8 063f 11ac 173e 44b9 12bf
00000140: e58e fc3e 1abb 093e 0130 91be e8dc cc3e
00000150: 38ee 02be 9800 6d3d 6630 e53e 7fe0 01bf
00000160: 1392 73be 16ae 3f3d 321f dfbe d42f 9d3e
00000170: 97f9 17bf 503e 453e 0c0d d5bb cdde 2b3e
00000180: 4956 95be 9706 bfbc e2fc 533e be82 e33d
00000190: e2b8 6abd e82b cd3c 1e98 77bd 97bf 383e
000001a0: eafe e73e 6cf7 f23e 35a0 eabe fd60 013d
000001b0: e034 003f ed28 d03e 32d6 77be ea06 033f
000001c0: ae5c abbe d018 88bd ed17 14be a268 b93e
000001d0: 409b c8be 57e5 b9be 6b23 923e 6e81 cbbe
000001e0: 8898 eb3e 0e3a 06bf 936e b4bd 32cd eabd
000001f0: d8f2 e53d 2ba3 e23c 2222 a73e 61aa ddbd
00000200: 9ebc cfbe 73f9 46be 6b7f 933d 58eb f4be
00000210: a7a1 023f e52b bc3e de0e 92be 1b30 bebd
00000220: ac2f d03e f7c7 37be 2119 8b3e 9a03 003f
00000230: 6b9e 01bf 6e53 5abe bcc5 8a3e 9f2d 05bd
00000240: f8af 77be 150a 943e c26e 56be 32aa 43be
00000250: ded1 5e3e d6b7 84bd 7fa8 cebb 61f0 b13e
00000260: 953e 2cbc f4f9 8e3e bacc e6be 60e1 693e
00000270: 1fbb e53e 9855 b2be f552 8cbe 0f04 b1be
00000280: 0c70 b4bd feec f43d 1d98 bbbe 6422 723e
00000290: 677a a73e 48fa 1fbe 5eee 2a3e 81f6 5cbe
000002a0: 7c0c 0fbe 86d6 8b3d efcc 34be afb9 f53e
000002b0: 7c7f a6be 0cec b73d 8595 6ebe 24ba b0be
000002c0: 64f6 a6be ab93 f23e a271 04bf 5549 96be
000002d0: 0f84 293f f0e1 5a3e 8a8a ae3d b52e 203e
000002e0: 6023 05bf e4ab 4a3e d549 fbbe 7959 64be
000002f0: 7f8a 9fbe c491 98be 3cf3 01be 5757 4d3e
00000300: 9f68 533e b278 d4be 6205 e93a 7a24 d73e
00000310: a4a5 84be c921 ae3d c19a 083e 1d21 95be
00000320: 36e7 98be e644 f53d df2e 963e 2d78 e53e
00000330: b2c5 34be c93d 983e 029c 333e ba59 cdbe
00000340: 2280 0abf 59a7 013f 0ef4 053f 2244 97be
00000350: 60e3 8abe ce3c 8e3e 7239 e7be 7150 f53c
00000360: c8b6 e23d 7ae1 81be 7e75 cebe 854d 773e
00000370: 6125 033d bc5a a83e d09e 203e 8b14 02bf
00000380: 176d c23e 896c 00bf f65a b43e 979f a5be
00000390: 7b90 12bf 02d6 0abf 49fa 873e 8d3b 9c3d
000003a0: e6ba 623e 883d 133e d9b3 fe3d cbcc 0ebf
000003b0: 9b0d c63e 3456 b7be 0a39 94bd 1729 ec3e
000003c0: c591 2a3e ca5f eebe 52f8 78be 5112 32be
000003d0: c44e adbe cd6a 963e cd68 43bd 473d 4bbe
000003e0: 52df ce3e 6776 eebe 5646 3f3d e4dc d3be
000003f0: 65b9 ecbd 001c 04bf 583a a23e 37c2 853d

feature_exact.op_attention_blocks.0.attention_0.a f4 [64, 1]
0.1788719 0.4738997 0.2328336 -0.45599163 -0.06427901 -0.46706808 -0.31575248 0.42149016
0.21973525 0.4151173 -0.20522447 -0.05314815 -0.057090256 -0.09042844 0.039730158 0.32836565
0.068683244 -0.29066652 0.06717387 -0.3956979 0.33164126 0.14275984 0.4555721 -0.39881313
-0.27440012 0.25667554 -0.31533656 -0.4765549 0.18967251 -0.16904463 0.31488767 0.5018852
0.35904604 -0.09907417 0.175017 0.4227287 -0.29428074 0.1804642 0.093733646 -0.043151297
0.3108821 0.30336142 0.13750994 -0.13511062 0.5112267 0.21925877 -0.19995633 -0.108620085
0.37490413 -0.0021603142 0.37198645 0.55647916 0.06983862 0.35037428 0.1097065 0.0067451564
-0.36996615 -0.071208835 0.3393049 -0.22138068 0.47062725 -0.25914368 -0.10363799 -0.20646758
00000000: 322a 373e fba2 f23e ee6b 6e3e bc77 e9be
00000010: b7a4 83bd 8c23 efbe 4faa a1be 8fcd d73e
00000020: 4702 613e 418a d43e 5d26 52be e0b1 59bd
00000030: 79d7 69bd 8c32 b9bd 17bc 223d 8b1f a83e
00000040: cda9 8c3d 3ed2 94be 7492 893d ea98 cabe
00000050: e2cc a93e a32f 123e bf40 e93e 3c31 ccbe
00000060: 2c7e 8cbe fa6a 833e cb73 a1be 01ff f3be
00000070: 8339 423e 091a 2dbe f538 a13e 8c7b 003f
00000080: e2d4 b73e 66e7 cabd a837 333e e56f d83e
00000090: f7ab 96be 9bcb 383e 6df7 bf3d 6abf 30bd
000000a0: f02b 9f3e 3052 9b3e 68cf 0c3e 705a 0abe
000000b0: c1df 023f 5f85 603e 5ac1 4cbe 3574 debd
000000c0: 6ff3 bf3e 0f94 0dbb 0275 be3e 6b75 0e3f
000000d0: 8d07 8f3d 4264 b33e cdad e03d 7906 dd3b
000000e0: 346c bdbe f0d5 91bd 5fb9 ad3e 9eb1 62be
000000f0: 0ef6 f03e 7bae 84be 2840 d4bd 3d6c 53be

feature_exact.op_attention_blocks.0.attention_1.W f4 [10, 32]
-0.26530936 0.58172506 -0.3126846 -0.11496959 -0.023443285 0.2813508 -0.23193075 0.4629777
0.4984702 0.2510516 0.19061613 -0.2429262 -0.18572694 0.5592677 0.5673349 0.3215945
-0.2641548 0.031034248 0.30094194 -0.56652135 0.23105283 0.22412598 0.27195165 0.11215128
0.5870042 -0.6498318 0.3210231 -0.21635541 0.18760754 -0.36379367 0.21532096 -0.5071848
0.00363845 0.5440507 -0.29739365 0.042041235 -0.28394032 0.43280357 -0.12405534 0.40000874
-0.18617013 -0.08143696 -0.49398896 -0.009633834 -0.56884295 -0.0015948528 0.19409434 -0.4664732
0.2524257 0.35517627 0.29778728 0.7844663 0.22094576 -0.3405536 -0.119301684 0.39441976
-0.15090567 -0.21143553 -0.20780575 -0.30552623 0.09521511 0.22296005 -0.0993972 -0.4138738
-0.14095128 0.33875176 -0.16563906 0.5663316 0.33523858 -0.13679612 -0.14347288 0.33447933
0.3614378 -0.036017787 0.23324853 0.18572389 -0.39263096 -0.05630745 -0.089627504 -0.5158292
-0.14776248 0.21627888 -0.19906867 0.426005 -0.091759905 0.4478404 0.59060514 0.18616825
-0.5023273 -0.49002466 0.27243838 0.06912679 0.20691559 0.15487313 0.30820012 0.11265532
-0.0052504167 -0.20516668 0.16195741 0.0124627305 0.090600975 0.29049578 -0.42413652 -0.1298192
0.015301072 0.41093192 -0.3791085 0.2695547 -0.04160114 0.54299855 0.1259151 -0.231251
0.3964512 0.076416396 -0.4251506 -0.30345735 0.12383715 -0.3993654 -0.46068615 0.26714805
-0.39627153 -0.09559133 -0.3897495 0.28846505 -0.35355207 0.1864423 0.07111164 -0.07785728
-0.33944193 -0.09957406 0.2572752 0.47471058 0.40684184 0.35895044 0.50719583 -0.23816185
-0.45185608 0.2560264 -0.16337943 -0.3531792 0.32692066 0.02938636 0.028678916 0.4630572
-0.13121517 -0.18263839 -0.35422355 -0.05658676 -0.4977291 -0.36649236 0.20440613 -0.06409975
0.46702388 0.28902468 0.27043033 -0.21603209 -0.39570814 0.26364413 0.283698 0.46342775
0.19754098 0.40765595 0.10907118 0.028490067 0.21597268 -0.35955957 0.12567408 -0.14583364
-0.6085531 -0.24095304 0.44471568 0.005366751 0.30858088 0.32695553 0.49227345 -0.22881755
0.09030193 0.1505726 0.44443366 -0.025296176 -0.14482091 -0.1523361 0.2776713 -0.23772518
-0.037696548 -0.20982486 0.2344842 0.52670926 -0.32560194 0.5705743 0.5274936 -0.14338307
-0.44104993 0.44066462 -0.24958475 -0.6709168 -0.41140997 0.26854593 -0.58052564 -0.06387985
0.4866448 -0.12540296 0.08684642 -0.37226078 0.33724135 0.31318697 -0.5114716 -0.32261783
-0.2627629 0.5403905 -0.26943585 -0.5332724 0.46358594 -0.09952819 0.26184785 0.4332812
0.5253403 -0.5298712 0.038320635 -0.019970333 0.19710392 0.5683231 -0.21165599 -0.096278556
-0.058722205 0.3718368 0.5281581 -0.35883453 0.0650734 -0.22032398 0.26685125 -0.26100627
-0.34014872 0.012268732 -0.14750023 -0.38807818 0.44293973 0.31456017 0.0043841433 0.6278326
0.2486995 0.1395202 0.175256 0.30351248 -0.28444174 -0.3895582 0.42432863 -0.35697335
0.31371418 0.38158202 0.3716068 0.33456647 -0.38607314 -0.017399259 -0.30689234 0.12317896
00000000: a1d6 87be efeb 143f 3218 a0be 2d75 ebbd
00000010: 220c c0bc 360d 903e 417f 6dbe 6a0b ed3e
00000020: 7c37 ff3e d689 803e e030 433e a5c1 78be
00000030: 342f 3ebe 2b2c 0f3f dc3c 113f 09a8 a43e
00000040: 4c3f 87be 893b fe3c 1015 9a3e 8b07 11bf
00000050: 1d99 6c3e 4881 653e 3f3d 8b3e 92af e53d
00000060: e845 163f 605b 26bf 245d a43e 468c 5dbe
00000070: 311c 403e 2a43 babe 197d 5c3e ddd6 01bf
00000080: 1073 6e3b e846 0b3f fb43 98be 6e33 2c3d
00000090: a060 91be 6e98 dd3e ba10 febd f2cd cc3e
000000a0: 62a3 3ebe 6cc8 a6bd 1fec fcbe 3ad7 1dbc
000000b0: b19f 11bf 610a d1ba abc0 463e 93d5 eebe
000000c0: f13d 813e aad9 b53e 9377 983e c9d2 483f
000000d0: 9b3f 623e 0b5d aebe 7154 f4bd 63f1 c93e
000000e0: 0487 1abe 8e82 58be 08cb 54be ef6d 9cbe
000000f0: 2400 c33d a44f 643e c290 cbbd 44e7 d3be
00000100: 8855 10be df70 ad3e 499d 29be 1cfb 103f
00000110: 64a4 ab3e 4814 0cbe 8eea 12be e040 ab3e
00000120: 600e b93e 6387 13bd b4d8 6e3e 672e 3e3e
00000130: ed06 c9be a4a2 66bd a08e b7bd 620d 04bf
00000140: 0c4f 17be 3678 5d3e a8d8 4bbe 541d da3e
00000150: 9eec bbbd 564b e53e e631 173f e4a2 3e3e
00000160: 8698 00bf 83e4 fabe 0b7d 8b3e 5992 8d3d
00000170: aee1 533e 1097 1e3e 68cc 9d3e d5b7 e63d
00000180: b00b acbb 3717 52be 2ad8 253e 7b30 4c3c
00000190: 018d b93d ddbb 943e 6c28 d9be 53ef 04be
000001a0: 59b1 7a3c ab65 d23e 821a c2be 1303 8a3e
000001b0: f565 2abd f401 0b3f e3ef 003e 10cd 6cbe
000001c0: a7fb ca3e 3380 9c3d 57ad d9be c35e 9bbe
000001d0: 559e fd3d 9f79 ccbe 0edf ebbe a1c7 883e
000001e0: 1ae4 cabe 63c5 c3bd 3f8d c7be b1b1 933e
000001f0: c704 b5be bbea 3e3e fba2 913d a373 9fbd
00000200: 55cb adbe 7ced cbbd 93b9 833e 440d f33e
00000210: 934d d03e 5ac8 b73e 96d7 013f b3e0 73be
00000220: ae59 e7be e415 833e f04c 27be e7d3 b4be
00000230: 2562 a73e aabb f03c 0cf0 ea3c d515 ed3e
00000240: 455d 06be 8f05 3bbe ca5c b5be 85c7 67bd
00000250: 59d6 febe e3a4 bbbe d74f 513e bb46 83bd
00000260: c11d ef3e 0bfb 933e d875 8a3e 8437 5dbe
00000270: 429a cabe 5dfc 863e dd40 913e 6746 ed3e
00000280: 2f48 4a3e 48b8 d03e b660 df3d 0064 e93c
00000290: f127 5d3e 3118 b8be b5b0 003e 6a55 15be
000002a0: 23ca 1bbf 65bc 76be c6b1 e33e 92db af3b
000002b0: 50fe 9d3e b766 a73e 440b fc3e 264f 6abe
000002c0: 38f0 b83d b42f 1a3e cf8c e33e ed39 cfbc
000002d0: ef4b 14be fffd 1bbe ef2a 8e3e 3b6e 73be
000002e0: b267 1abd 54dc 56be a01c 703e 6bd6 063f
000002f0: 4cb5 a6be 2811 123f d209 073f 03d3 12be
00000300: 4cd1 e1be cb9e e13e 2593 7fbe 34c1 2bbf
00000310: 54a4 d2be da7e 893e 549d 14bf 70d3 82bd
00000320: 8229 f93e a269 00be 89dc b13d f798 bebe
00000330: e6aa ac3e 0b5a a03e ceef 02bf 2a2e a5be
00000340: dc88 86be 0857 0a3f 7ff3 89be 8a84 08bf
00000350: 235b ed3e 70d5 cbbd ec10 863e 09d7 dd3e
00000360: b47c 063f a4a5 07bf 19f6 1c3d d398 a3bc
00000370: 9cd5 493e 9f7d 113f 59bc 58be b12d c5bd
00000380: b286 70bd 6561 be3e 5f35 073f 29b9 b7be
00000390: 3445 853d 9c9c 61be baa0 883e 9da2 85be
000003a0: f927 aebe cb02 493c 4d0a 17be 2fb2 c6be
000003b0: ffc8 e23e 080e a13e dca8 8f3b a3b9 203f
000003c0: 15ab 7e3e 62de 0e3e 4f76 333e fd65 9b3e
000003d0: 59a2 91be 2c74 c7be 9a41 d93e 36c5 b6be
000003e0: 259f a03e b85e c33e 3f43 be3e 4c4c ab3e
000003f0: 61ab c5be e488 8ebc fe20 9dbe 4045 fc3d

feature_exact.op_attention_blocks.0.attention_1.a f4 [64, 1]
0.33175072 0.3121489 0.022413943 0.3027094 -0.3312735 0.11374301 0.18374115 -0.14550805
-0.3526832 -0.15910888 0.15200177 -0.17455095 0.36633846 -0.22405256 -0.090464175 0.08405563
0.19029446 0.16546689 0.014841904 0.07500645 0.44485015 0.22431111 0.025192907 -0.13544096
-0.1411278 0.21441591 0.06678713 0.07477608 -0.07472581 0.33819932 -0.3414852 -0.050436325
0.046471395 0.041829344 -0.35438907 -0.028084287 0.41583055 -0.26117283 -0.23264305 0.3314981
0.10661735 0.022076119 0.25801817 -0.3555951 0.24109326 -0.18819892 0.0023995326 -0.34805185
0.2910615 -0.2686228 0.3323282 -0.06541988 0.2463418 -0.23252678 0.35323662 -0.43397117
0.02603417 -0.25137967 0.086271964 0.37919018 -0.42193192 0.488818 0.23099709 -0.18357098
00000000: 3bdb a93e fbd1 9f3e 729d b73c bafc 9a3e
00000010: ae9c a9be 18f2 e83d a426 3c3e 1000 15be
00000020: e492 b4be 70ed 22be 5aa6 1b3e 7cbd 32be
00000030: b790 bb3e 096e 65be 4845 b9bd 5c25 ac3d
00000040: 8ddc 423e 2770 293e 752b 733c fb9c 993d
00000050: 66c3 e33e d0b1 653e 5b61 ce3c 09b1 0abe
00000060: ce83 10be d88f 5b3e b1c7 883d 3424 993d
00000070: d809 99bd 7628 ad3e 26d7 aebe 5296 4ebd
00000080: ca58 3e3d 3f55 2b3d 7c72 b5be 0511 e6bc
00000090: bee7 d43e 72b8 85be fb39 6ebe 1eba a93e
000000a0: 325a da3d fad8 b43c f51a 843e 9010 b6be
000000b0: 27e1 763e 38b7 40be 7a41 1d3b da33 b2be
000000c0: 0306 953e ed88 89be ec26 aa3e dcfa 85bd
000000d0: 0641 7c3e 801b 6ebe 6edb b43e 7831 debe
000000e0: 9d45 d53c d6b4 80be 5baf b03d 3725 c23e
000000f0: 7607 d8be 5a46 fa3e 808a 6c3e 08fa 3bbe

feature_exact.op_attention_blocks.0.attention_2.W f4 [10, 32]
-0.09694105 -0.7911591 -0.23476526 0.41671398 -0.16174057 0.5116491 -0.2603834 0.14108169
0.20236467 -0.020242292 0.5793007 0.29838195 0.56100804 0.42226848 0.1660611 -0.18450321
-0.26799956 0.35201257 0.3671607 0.57464945 -0.21544516 0.45072368 -0.10141889 0.43791425
-0.33976808 -0.43963447 -0.14854932 -0.39541495 0.21517804 -0.35285065 0.4356353 0.46026087
-0.482122 -0.18876822 -0.15003583 0.5122026 -0.44957453 0.19961467 -0.09213365 -0.4511776
0.16095914 -0.58567333 0.08236776 -0.030978031 -0.541724 -0.2743019 0.5000748 0.3399812
0.40648267 -0.31959978 0.25825927 0.18851897 -0.48254818 0.40450588 -0.6240343 0.23095037
-0.51783514 -0.06532273 -0.32518852 0.1974665 0.5312581 -0.30140656 -0.5034083 -0.30303505
0.31307855 0.06424383 0.29053247 -0.13439433 0.04914497 0.46403682 -0.4478691 0.30386415
0.30149266 -0.017132433 -0.38604662 -0.3699167 0.32641622 -0.43672255 0.19168732 0.20644875
-0.46125695 0.52013063 -0.26557952 0.3443931 -0.11211794 -0.43551767 0.21559155 0.005314599
0.076435484 -0.21932754 -0.017383235 -0.27527285 -0.25662905 0.2721625 -0.039366268 0.500429
-0.46267256 0.47365203 -0.4388514 -0.39858726 -0.027090926 0.2382881 0.29532787 -0.29990873
0.5169818 0.579205 -0.30339497 0.22932196 0.29873458 -0.4259744 -0.096197285 0.07118761
0.035813432 -0.28753686 0.33132878 0.28214768 -0.12368984 0.15698868 -0.073580116 -0.06473623
-0.010263479 -0.07536696 -0.49585027 0.50059384 0.45204723 0.4593943 -0.39300552 0.5092703
-0.45370772 -0.07604192 -0.3237629 -0.43726572 0.24544595 -0.2584499 0.22530726 0.45552334
0.5173264 0.25196654 -0.18827923 0.2608607 0.16977596 0.50762737 -0.28357422 -0.23005332
-0.2952703 0.16396624 -0.52599925 0.3891695 -0.2918003 -0.33200315 0.012546914 0.48839948
0.14881301 0.3759061 0.35428876 0.29376554 0.54718614 -0.2176146 -0.54502153 0.33934247
-0.21095203 -0.12177954 -0.18502386 -0.59418845 0.4181212 0.3683608 -0.35001618 0.46484262
-0.4165165 -0.44506633 -0.22117013 -0.36353534 -0.41023874 0.09853279 0.20722237 -0.045534905
-0.39366776 0.2562446 -0.25576323 -0.41277534 0.43627247 0.10085441 0.09948337 0.023092141
0.24690107 0.18526798 0.0054278327 -0.28351486 -0.19946921 -0.25444323 0.13788477 -0.34131086
-0.58169293 -0.17779452 0.24521354 -0.13824283 0.03475091 0.84042484 -0.0253364 -0.13990818
-0.31413236 0.07325922 0.22010328 -0.14699608 -0.3814401 -0.19009659 0.005353809 0.59329724
0.46894324 0.13811313 0.33110934 -0.2865142 -0.21790035 0.00628422 -0.12642562 -0.049960215
-0.060769208 0.27978182 -0.08367334 -0.39486733 -0.2177517 -0.2285073 -0.46337828 0.074258715
0.037512735 -0.19598024 0.18083516 0.25566643 0.3683179 0.0009587739 -0.09689927 0.420556
0.42947036 0.4726981 -0.42673522 -0.084653765 0.010709995 0.36551303 -0.001591818 -0.20379303
0.4027558 -0.26387805 -0.5292385 0.30076185 -0.22219847 0.047485527 -0.12806658 0.2403477
-0.39983496 0.105352506 0.3578585 0.12466994 -0.022813527 0.4572053 0.08887669 -0.03381729
00000000: 0789 c6bd 6789 4abf 4e66 70be 895b d53e
00000010: 529f 25be 6ffb 023f f950 85be b877 103e
00000020: af38 4f3e 2ad3 a5bc 0d4d 143f 85c5 983e
00000030: 399e 0f3f 9333 d83e ec0b 2a3e 69ee 3cbe
00000040: 3d37 89be fe3a b43e 7dfc bb3e 3a1c 133f
00000050: a89d 5cbe 41c5 e63e b5b4 cfbd 4c36 e03e
00000060: 15f6 adbe c517 e1be 501d 18be d473 cabe
00000070: a257 5c3e d7a8 b4be 970b df3e 50a7 eb3e
00000080: b2d8 f6be 754c 41be fea2 19be b61f 033f
00000090: a22e e6be ca67 4c3e 91b0 bcbd c000 e7be
000000a0: 79d2 243e b0ee 15bf 6eb0 a83d a4c5 fdbc
000000b0: 6dae 0abf 4c71 8cbe e704 003f 0412 ae3e
000000c0: 7f1e d03e 95a2 a3be 8f3a 843e 1e0b 413e
000000d0: 8e10 f7be 651b cf3e b6c0 1fbf 417e 6c3e
000000e0: d890 04bf ecc7 85bd 1c7f a6be a834 4a3e
000000f0: 8800 083f f651 9abe 5edf 00bf 6927 9bbe
00000100: d54b a03e 4592 833d acc0 943e ab9e 09be
00000110: 3c4c 493d 3c96 ed3e 194f e5be 1594 9b3e
00000120: 3f5d 9a3e 5159 8cbc e7a7 c5be b965 bdbe
00000130: 0720 a73e 199a dfbe ae49 443e 4d67 533e
00000140: df29 ecbe 4827 053f 0afa 87be 4b54 b03e
00000150: 179e e5bd 2cfc debe 08c4 5c3e 1626 ae3b
00000160: 358a 9c3d 6697 60be 4967 8ebc 90f0 8cbe
00000170: e264 83be e258 8b3e 863e 21bd 1d1c 003f
00000180: 6be3 ecbe 8582 f23e 21b1 e0be a113 ccbe
00000190: caed ddbc cc01 743e 3735 973e a38d 99be
000001a0: eb58 043f c746 143f 9656 9bbe 60d3 6a3e
000001b0: bdf3 983e 5119 dabe 1503 c5bd cfca 913d
000001c0: 1bb1 123d 0838 93be eda3 a93e a975 903e
000001d0: 1951 fdbd a4c1 203e 2cb1 96bd 6e94 84bd
000001e0: 2728 28bc fe59 9abd 16e0 fdbe eb26 003f
000001f0: bc72 e73e bb35 eb3e 0538 c9be 8a5f 023f
00000200: 614c e8be debb 9bbd 40c4 a5be 4be1 dfbe
00000210: 2f56 7b3e 8c53 84be f2b6 663e 5b3a e93e
00000220: 816f 043f c201 813e 45cc 40be 898f 853e
00000230: c0d9 2d3e def3 013f a430 91be 1993 6bbe
00000240: ab2d 97be c4e6 273e e3a7 06bf 3a41 c73e
00000250: d966 95be 51fc a9be 9291 4d3c 7f0f fa3e
00000260: 7062 183e c476 c03e 5665 b53e 7068 963e
00000270: 6414 0c3f 5dd6 5ebe 8886 0bbf 4cbe ad3e
00000280: cf03 58be 8d67 f9bd e576 3dbe bc1c 18bf
00000290: fb13 d63e c999 bc3e 5235 b3be daff ed3e
000002a0: a741 d5be bcdf e3be 6c7a 62be 4e21 babe
000002b0: d00a d2be 8fcb c93d 1a32 543e cf82 3abd
000002c0: d28e c9be 7e32 833e 66f3 82be 4a57 d3be
000002d0: 1b5f df3e c28c ce3d f0bd cb3d bb2b bd3c
000002e0: a2d3 7c3e e4b6 3d3e f6db b13b dc28 91be
000002f0: a841 4cbe 6246 82be aa31 0d3e 4cc0 aebe
00000300: d4e9 14bf c40f 36be 4219 7b3e 878f 0dbe
00000310: f856 0e3d 1526 573f 488e cfbc 1744 0fbe
00000320: f5d5 a0be ee08 963d c162 613e 2486 16be
00000330: 1e4c c3be aea8 42be 016f af3b 54e2 173f
00000340: 5419 f03e 876d 0d3e 2a87 a93e fdb1 92be
00000350: 4521 5fbe dceb cd3b b875 01be 15a3 4cbd
00000360: 22e9 78bd 903f 8f3e ee5c abbd 0d2c cabe
00000370: 4dfa 5ebe d1fd 69be eb3f edbe f414 983d
00000380: f4a6 193d 0baf 48be da2c 393e b6e6 823e
00000390: 2a94 bc3e 3a56 7b3a 2073 c6bd 1e53 d73e
000003a0: 8ae3 db3e 7c05 f23e 0a7d dabe f45e adbd
000003b0: fa78 2f3c 8624 bb3e 8da4 d0ba 1faf 50be
000003c0: 0236 ce3e 061b 87be 2d7c 07bf 75fd 993e
000003d0: ff87 63be 2f80 423d e323 03be b51d 763e
000003e0: 2bb7 ccbe 0ec3 d73d 3b39 b73e f452 ff3d
000003f0: 6fe3 babc d016 ea3e fb04 b63d 0084 0abd

feature_exact.op_attention_blocks.0.attention_2.a f4 [64, 1]
0.18884309 -0.3460323 -0.036414646 0.35982192 0.18590099 0.06421666 -0.3412146 0.4806918
0.011349477 -0.6255479 -0.1530571 -0.37198097 -0.4274716 0.07059434 0.09749596 0.16645731
-0.150895 0.446675 0.03500667 -0.2429696 -0.3958899 -0.12166867 0.049215846 0.10357818
0.16453196 0.47949576 0.30616617 -0.14561826 0.28418812 -0.24306487 0.35779333 -0.4177047
0.35376248 0.35141277 -0.40799415 -0.5351137 0.5597029 -0.3672624 0.08653502 -0.12640594
0.20457871 0.39073396 0.07607804 0.25123233 -0.029618561 -0.13559623 -0.02926341 -0.038257822
-0.12731238 0.22082724 0.038364228 -0.18537675 -0.13409123 -0.35510764 0.34109595 -0.048757438
-0.04574092 -0.06610224 0.31260383 -0.049166776 -0.45149496 0.2454115 0.27103484 0.1248073
00000000: 1560 413e 252b b1be 8627 15bd 943a b83e
00000010: d45c 3e3e 0684 833d aeb3 aebe 3c1d f63e
00000020: 28f3 393c e823 20bf 00bb 1cbe 4a74 bebe
00000030: 8fdd dabe c493 903d f6ab c73d c973 2a3e
00000040: 3884 1abe 96b2 e43e 2763 0f3d 06cd 78be
00000050: 15b2 cabe 6c2d f9bd 8e96 493d cc20 d43d
00000060: 117b 283e 7880 f53e d0c1 9c3e f41c 15be
00000070: 1b81 913e ffe5 78be b030 b73e 64dd d5be
00000080: 5b20 b53e 60ec b33e 9ce4 d0be 36fd 08bf
00000090: b048 0f3f d109 bcbe 4639 b13d 8f70 01be
000000a0: 157d 513e 480e c83e cece 9b3d 86a1 803e
000000b0: a0a2 f2bc bdd9 0abe d2b9 efbc 3cb4 1cbd
000000c0: 2d5e 02be 8920 623e cf23 1d3d 67d3 3dbe
000000d0: 364f 09be abd0 b5be 21a4 ae3e e1b5 47bd
000000e0: d55a 3bbd 9c60 87bd 9c0d a03e 1a63 49bd
000000f0: 592a e7be 274d 7b3e 14c5 8a3e f89a ff3d

feature_exact.op_attention_blocks.0.attention_3.W f4 [10, 32]
0.20196828 0.49302003 0.37920198 -0.382219 -0.57735854 -0.5317099 -0.49096447 0.6491537
-0.43971816 0.46806702 -0.7254843 0.28726065 0.46651724 0.031691182 -0.41386187 -0.5421574
0.381421 -0.48425746 0.49943092 0.20931602 -0.1568062 -0.3215029 0.13881192 -0.085292466
0.07536971 0.36779875 0.51920676 0.3001001 -0.49108592 -0.449504 0.35100856 -0.66988206
0.39744756 -0.26828754 -0.58779794 0.1752399 0.51045686 0.19553871 -0.28617612 0.47849056
0.59710735 0.57289135 0.12335748 -0.4575014 0.17974667 -0.6558706 0.4213512 0.09739449
0.46272147 0.54941374 -0.44050288 0.6120204 0.1423067 0.128744 -0.1775706 0.27805224
-0.18037115 0.39763582 0.46808654 -0.41342708 -0.55569535 -0.50069016 -0.39801252 -0.5698275
0.36196005 -0.23059855 -0.011581572 0.2555634 -0.29227632 0.13568996 -0.014582993 -0.46309793
0.5734945 0.68428123 -0.15061398 0.08317158 0.18538067 -0.020651432 0.28849193 0.1844543
0.11912514 0.5237215 0.07123798 -0.309823 -0.23833002 0.48354614 0.21938133 -0.21994086
-0.08368672 -0.11362766 -0.2757685 -0.33932486 0.30097842 0.41359565 -0.33317602 -0.13206469
-0.5253973 -0.056904767 0.25407314 0.108091384 -0.38729 -0.35029504 0.33202216 -0.4484802
0.33760715 -0.34071139 0.51244533 -0.46729782 0.16346532 -0.14668943 -0.21635424 -0.24546845
-0.49688792 0.39775455 -0.38664278 -0.018254224 0.30254713 -0.08892749 -0.4146414 0.20726304
0.43867275 0.48285413 0.1868512 0.24663469 0.0005655905 0.43246266 0.45676118 0.08275176
0.33740607 0.33767834 -0.04238125 0.20529164 -0.13966851 -0.31773543 -0.3545727 -0.31855
0.5788897 -0.05768773 -0.38432655 0.51264775 0.45324495 0.06788401 -0.32279515 0.50082546
-0.11944243 -0.46040854 -0.15771398 0.26749682 -0.10085968 0.50680757 -0.0051861606 0.14440191
-0.571177 -0.54040235 0.23951434 -0.45420045 0.23092437 -0.49763814 -0.38163465 0.464362
0.13121887 0.22923014 0.24476108 -0.47095957 0.030576786 0.61477596 0.55985767 -0.4296572
0.12208714 -0.51080084 0.53518933 -0.12438653 -0.20279112 0.43299493 -0.29980922 0.28457087
-0.0839197 0.4302463 0.36592358 0.017554944 0.421219 0.4119251 0.08799987 0.40050638
-0.2402321 0.4261743 -0.17839418 -0.2754486 0.104056895 -0.038871143 0.26752886 0.59406227
0.44036493 0.034083705 0.48989427 0.52151936 -0.60918593 -0.51619345 -0.6322055 0.36817008
0.12334857 0.20854177 0.048673227 0.12561485 0.03743728 -0.572495 -0.15581547 -0.025262255
0.5430158 0.1371291 -0.47647795 -0.38017318 0.24994357 0.027364062 -0.50163084 -0.024216872
-0.6352838 -0.17962654 0.2908371 -0.046792034 0.26063198 -0.12181254 0.51618534 0.013814793
-0.134117 -0.32138368 0.28289834 -0.3569204 -0.3203104 0.11634069 -0.29447308 0.03147158
-0.06501134 0.40000027 0.50171643 -0.46396437 0.40378615 0.45496994 -0.4026871 -0.39308813
0.40637884 -0.2993288 -0.4362458 -0.21925308 0.25297526 0.40026256 -0.19977584 0.23226018
0.1520378 0.37795222 0.3609965 0.3911293 0.41598314 0.4831304 0.27784064 -0.5373234
00000000: c6d0 4e3e 1f6d fc3e c326 c23e 35b2 c3be
00000010: c5cd 13bf 241e 08bf b25f fbbe f02e 263f
00000020: bd22 e1be 7ba6 ef3e 57b9 39bf d413 933e
00000030: 59db ee3e 9dce 013d b4e5 d3be d4ca 0abf
00000040: 9d49 c33e 98f0 f7be 69b5 ff3e f056 563e
00000050: ce91 20be 079c a4be b624 0e3e d1ad aebd
00000060: 6f5b 9a3d 1e50 bc3e bcea 043f b8a6 993e
00000070: 9d6f fbbe 6325 e6be 65b7 b33e 647d 2bbf
00000080: 3f7e cb3e fc5c 89be ed79 16bf 1772 333e
00000090: 4dad 023f 4d3b 483e ad85 92be b7fc f43e
000000a0: 07dc 183f 02a9 123f d9a2 fc3d a03d eabe
000000b0: 830f 383e 23e7 27bf 58bb d73e c376 c73d
000000c0: d4e9 ec3e 61a6 0c3f 9889 e1be 5ead 1c3f
000000d0: d9b8 113e 78d5 033e 11d5 35be dd5c 8e3e
000000e0: 37b3 38be ec96 cb3e 0aa9 ef3e b7ac d3be
000000f0: 0d42 0ebf 3b2d 00bf 4cc8 cbbe 37e0 11bf
00000100: d452 b93e 0722 6cbe a2c0 3dbc 35d9 823e
00000110: 3ea5 95be 4ff2 0a3e 82ed 6ebc 2c1b edbe
00000120: 89d0 123f 0e2d 2f3f 8d3a 1abe dd55 aa3d
00000130: 6ed4 3d3e 312d a9bc 37b5 933e 97e1 3c3e
00000140: e2f7 f33d 9d12 063f 38e5 913d 1fa1 9ebe
00000150: c90c 74be 5c93 f73e 80a5 603e 2d38 61be
00000160: f163 abbd 9eb5 e8bd 8731 8dbe fdbb adbe
00000170: d819 9a3e cfc2 d33e 0c96 aabe f73b 07be
00000180: 7080 06bf f914 69bd e015 823e 045f dd3d
00000190: e04a c6be df59 b3be cffe a93e 329f e5be
000001a0: d8da ac3e b971 aebe 9e2f 033f a941 efbe
000001b0: 7463 273e c135 16be f78b 5dbe 155c 7bbe
000001c0: 1868 febe 7ca6 cb3e 0bf6 c5be e289 95bc
000001d0: 75e7 9a3e 9e1f b6bd e14b d4be c33c 543e
000001e0: b799 e03e a838 f73e ec55 3f3e ce8d 7c3e
000001f0: 2344 143a bf6b dd3e 9adc e93e c179 a93d
00000200: 7dc0 ac3e 2de4 ac3e f697 2dbd f937 523e
00000210: 4305 0fbe 38ae a2be 8e8a b5be fc18 a3be
00000220: 1e32 143f f849 6cbd 73c6 c4be e23c 033f
00000230: b90f e83e c606 8b3d 6845 a5be 1936 003f
00000240: 3c9e f4bd abba ebbe c67f 21be 58f5 883e
00000250: 858f cebd 24be 013f abf0 a9bb 18de 133e
00000260: a838 12bf cf57 0abf 3f43 753e f68c e8be
00000270: 7077 6c3e 6dca febe 9e65 c3be dbc0 ed3e
00000280: 3d5e 063e 4ebb 6a3e a6a2 7a3e 9d21 f1be
00000290: 2b7c fa3c f561 1d3f d552 0f3f 07fc dbbe
000002a0: d308 fa3d d8c3 02bf 2b02 093f 5dbe febd
000002b0: 7aa8 4fbe 83b1 dd3e 9880 99be 46b3 913e
000002c0: 17de abbd 3e49 dc3e 565a bb3e 63cf 8f3c
000002d0: 04aa d73e d9e7 d23e 4739 b43d 2c0f cd3e
000002e0: 67ff 75be 8533 da3e f7ac 36be 9907 8dbe
000002f0: c81b d53d 5937 1fbd 8bf9 883e 7714 183f
00000300: 8377 e13e 5b9b 0b3d 6cd3 fa3e 4b82 053f
00000310: 9cf3 1bbf 4125 04bf 38d8 21bf ca80 bc3e
00000320: 2d9e fc3d f98b 553e 945d 473d 2ea1 003e
00000330: d557 193d 088f 12bf 178e 1fbe caf2 cebc
00000340: 1503 0b3f 926b 0c3e ebf4 f3be 0fa6 c2be
00000350: 35f1 7f3e 992a e03c e16a 00bf 7662 c6bc
00000360: f6a1 22bf 05f0 37be 9ae8 943e 01a9 3fbd
00000370: 8e71 853e da78 f9bd b924 043f 7157 623c
00000380: f855 09be 678c a4be 0dd8 903e 45be b6be
00000390: baff a3be 0744 ee3d 2dc5 96be 58e8 003d
000003a0: aa24 85bd d6cc cc3e 7d70 003f bd8c edbe
000003b0: 0fbd ce3e d2f1 e83e 012d cebe d942 c9be
000003c0: e310 d03e a041 99be 9c5b dfbe e183 60be
000003d0: f985 813e 37ef cc3e 0a92 4cbe 9dd5 6d3e
000003e0: ccaf 1b3e f482 c13e 89d4 b83e 1a42 c83e
000003f0: befb d43e de5c f73e 2141 8e3e 078e 09bf

feature_exact.op_attention_blocks.0.attention_3.a f4 [64, 1]
0.19487399 0.36755514 -0.16442904 0.1729904 -0.37298813 0.035455633 0.43631655 0.25066274
-0.49264723 -0.2007917 0.09245816 -0.35059366 -0.35274136 -0.27917492 0.24334028 -0.35239416
-0.016662952 0.15085867 -0.024967378 -0.19638146 -0.32567096 -0.27455926 0.11693842 0.50755495
0.24561541 -0.3576931 0.47616294 0.20677318 -0.22921537 -0.4132938 0.14755192 0.28429586
0.38638532 0.1742377 0.00010499561 0.22930583 -0.32994953 0.03799373 -0.5196134 -0.14082552
-0.031662006 -0.23272622 -0.4975063 -0.29290432 0.37144706 -0.08512938 -0.20770462 0.09163639
0.47166207 0.01047902 -0.04641291 -0.23733316 0.3212207 -0.029372294 -0.2053288 -0.094498694
-0.38702825 -0.24118885 -0.014311744 -0.35558012 -0.36559212 -0.15777408 0.32819858 0.12720726
00000000: 0c8d 473e 3030 bc3e 1660 28be 6524 313e
00000010: 4df8 bebe ed39 113d e264 df3e de56 803e
00000020: 423c fcbe 579c 4dbe b45a bd3d 0381 b3be
00000030: 849a b4be 04f0 8ebe 322e 793e 026d b4be
00000040: be80 88bc b27a 1a3e 6388 ccbc 3918 49be
00000050: 58be a6be 0893 8cbe 697d ef3d 1fef 013f
00000060: 9b82 7b3e 8d23 b7be a1cb f33e 59bc 533e
00000070: 6fb7 6abe 3f9b d3be da17 173e 3a8f 913e
00000080: 4cd4 c53e 5e6b 323e 1731 dc38 26cf 6a3e
00000090: 25ef a8be 509f 1b3d 6205 05bf 9134 10be
000000a0: 05b0 01bd c84f 6ebe 25b9 febe 8ef7 95be
000000b0: 4f2e be3e 5058 aebd 85b0 54be dcab bb3d
000000c0: b17d f13e 32b0 2b3c 771b 3ebd 7707 73be
000000d0: 0a77 a43e 2a9e f0bc b741 52be 8888 c1bd
000000e0: 9128 c6be 36fa 76be ce7b 6abc 990e b6be
000000f0: e42e bbbe 878f 21be a509 a83e 9f42 023e

feature_exact.op_attention_blocks.1.attention_0.W f4 [128, 8]
0.014380665 -0.21362863 -0.010418492 0.101613894 0.057619758 0.15666674 0.0008581662 0.23829682
0.06360887 -0.31752238 0.20550564 0.14077167 -0.119195096 0.18062228 0.18645373 -0.01835885
-0.09252122 0.004718411 0.2953852 -0.06735518 0.07899969 0.18274707 -0.02980374 -0.20049523
0.057693984 -0.23096456 0.017702054 0.16718245 -0.102296814 -0.07036748 -0.0640077 -0.0868458
0.17698157 -0.13601698 -0.07857377 -0.018465312 0.09013393 -0.034253508 0.29134768 0.2345339
0.04406744 -0.089238554 0.1542351 -0.22430947 0.01770517 -0.05624606 -0.2054426 -0.083899714
-0.30892116 -0.16413589 -0.09236056 -0.22756861 -0.24393548 -0.07188248 -0.33293432 0.10219111
-0.05632367 -0.2907999 -0.05851291 0.11856136 -0.10381635 0.16784625 -0.00403704 0.043316297
-0.025128776 0.33374003 0.18575826 0.3038036 0.18067779 0.18366636 0.11842331 -0.33497706
-0.15721832 -0.31884095 -0.30031192 0.06607735 -0.2820851 -0.21435206 0.13606074 0.053077962
0.29122475 0.3217102 0.20972185 0.2970489 -0.24826683 -0.041592922 -0.09581267 0.15038349
0.1760615 0.115118794 -0.16892038 0.2842245 0.264693 0.18394665 -0.23037516 0.17718151
0.2582146 -0.21588652 0.079861596 -0.19838524 0.19151285 0.041874196 -0.025964491 0.01447243
0.09846233 -0.22184478 0.2193456 0.13432738 0.082710385 0.068845764 0.071272574 -0.16223478
0.3490431 0.058670733 -0.1711287 0.3921856 0.049297076 0.20772752 0.40723208 -0.0032409746
0.21071032 -0.26958385 -0.103589855 0.12465703 -0.13347986 0.0518908 0.080558814 0.19647238
0.2442308 -0.16327837 0.011021168 -0.07302127 0.2058443 -0.21810637 -0.17460565 -0.27949503
0.10325596 -0.030031664 0.20199384 0.075973764 -0.07989721 0.32481512 -0.26523116 0.1416167
0.039384037 0.17630862 -0.12100833 -0.18705256 -0.2835623 -0.004736668 0.25448617 -0.11136393
0.29374093 0.22658822 -0.14255029 -0.043336846 -0.2565019 0.18988226 0.10705631 0.11859564
0.0044277115 0.0558013 -0.43091354 0.07014505 0.061182 0.014778181 0.07054267 0.28982514
-0.19161049 -0.18393971 0.19318624 0.32654816 0.2694167 -0.08474233 0.12821099 0.23381689
-0.11382668 -0.07042691 -0.07970156 0.18261544 -0.2397771 0.11657831 0.04891053 0.05494998
0.062449645 0.1183622 -0.19508286 -0.26852545 0.31175756 -0.084331945 -0.19888335 -0.27335504
0.20259325 0.18246205 0.1968536 0.14327063 0.23068273 0.19351898 -0.27476388 0.1235579
-0.0007088011 0.3019375 0.22128457 -0.13827297 -0.17491576 0.26479483 0.18943691 0.25126565
0.13253377 -0.079574384 0.043218907 0.04561968 0.02730228 -0.01783025 -0.22436489 0.12013894
0.33888635 -0.2266543 -0.2939118 0.13176268 0.27402845 -0.2024232 -0.2001464 -0.18747133
0.20140363 -0.27758557 -0.12894455 0.076040275 -0.09609293 -0.23825124 0.20496978 -0.14479263
-0.042250097 -0.09001719 0.06502905 -0.26417944 -0.1385175 0.20051786 0.30575106 0.1268156
-0.27668196 -0.108979926 -0.22339635 -0.5225756 -0.03302752 -0.26607817 -0.11288651 0.111079045
-0.042422533 0.23150125 0.22273186 0.04084509 -0.10541941 -0.19737814 -0.16545823 0.13885474
00000000: e19c 6b3c 77c1 5abe 53b2 2abc f21a d03d
00000010: b202 6c3d 3f6d 203e 8ff6 603a 1504 743e
00000020: 5e45 823d 4b92 a2be 1270 523e 7326 103e
00000030: 8f1c f4bd 0cf5 383e baed 3e3e 4d65 96bc
00000040: c47b bdbd e69c 9a3b bb3c 973e 83f1 89bd
00000050: 97ca a13d 0c22 3b3e f926 f4bc 9f4e 4dbe
00000060: 8750 6c3d f981 6cbe e603 913c e031 2b3e
00000070: fe80 d1bd d31c 90bd 7816 83bd 36dc b1bd
00000080: a83a 353e 0948 0bbe 49eb a0bd 9144 97bc
00000090: 2398 b83d 684d 0cbd 862b 953e a829 703e
000000a0: 0f80 343d b4c2 b6bd ceef 1d3e 62b1 65be
000000b0: 6f0a 913c 4562 66bd 8c5f 52be 9dd3 abbd
000000c0: ea2a 9ebe 3d13 28be 8927 bdbd bf07 69be
000000d0: 39ca 79be 1f37 93bd 5e76 aabe 9349 d13d
000000e0: a6b3 66bd b9e3 94be 3cab 6fbd 4cd0 f23d
000000f0: ab9d d4bd e3df 2b3e 2549 84bb 6e6c 313d
00000100: ddda cdbc f9df aa3e 6a37 3e3e 258c 9b3e
00000110: 9903 393e 0913 3c3e ec87 f23d 1d82 abbe
00000120: d7fd 20be 1f3f a3be 7cc2 99be 9053 873d
00000130: 756d 90be 1b7f 5bbe 8253 0b3e 4768 593d
00000140: 691b 953e 33b7 a43e 53c1 563e cb16 983e
00000150: a939 7ebe 575d 2abd 6f39 c4bd 21fe 193e
00000160: 7749 343e 67c3 eb3d 77f9 2cbe e085 913e
00000170: d785 873e 835c 3c3e 77e7 6bbe 126f 353e
00000180: b434 843e 5b11 5dbe 7a8e a33d 8025 4bbe
00000190: f21b 443e 4784 2b3d 7cb3 d4bc c51d 6d3c
000001a0: 9ea6 c93d 472b 63be 229c 603e 1e8d 093e
000001b0: 1064 a93d 02ff 8c3d 5bf7 913d e020 26be
000001c0: c7b5 b23e b950 703d 5d3c 2fbe 8dcc c83e
000001d0: bbeb 493d 86b6 543e b980 d03e 8866 54bb
000001e0: 72c4 573e e506 8abe eb26 d4bd 2f4c ff3d
000001f0: f2ae 08be 738b 543d 05fc a43d 0e30 493e
00000200: a417 7a3e 7232 27be 2192 343c 2d8c 95bd
00000210: d9c8 523e 4757 5fbe d3cb 32be f919 8fbe
00000220: dc77 d33d f704 f6bc 79d7 4e3e 2298 9b3d
00000230: 26a1 a3bd 2b4e a63e 61cc 87be f803 113e
00000240: 2851 213d 3f8a 343e 37d3 f7bd b58a 3fbe
00000250: 142f 91be 0d36 9bbb 034c 823e c612 e4bd
00000260: 3665 963e be06 683e b4f8 11be fa81 31bd
00000270: 3854 83be 7f70 423e 5740 db3d 45e2 f23d
00000280: 5616 913b e78f 643d b3a0 dcbe 35a8 8f3d
00000290: fa99 7a3d 2f20 723c ad78 903d f663 943e
000002a0: 8a35 44be b15a 3cbe 9dd2 453e 5231 a73e
000002b0: fcf0 893e 638d adbd be49 033e b26d 6f3e
000002c0: f61d e9bd fc3b 90bd 923a a3bd 8bff 3a3e
000002d0: 2188 75be 9cc0 ee3d 6856 483d 3b13 613d
000002e0: 33cb 7f3d e267 f23d cdc3 47be 2b7c 89be
000002f0: b09e 9f3e 3ab6 acbd 14a8 4bbe 31f5 8bbe
00000300: 9b74 4f3e 55d7 3a3e fd93 493e 89b5 123e
00000310: 1838 6c3e d729 463e daad 8cbe ed0b fd3d
00000320: d6ce 39ba 8d97 9a3e 6c98 623e 6e97 0dbe
00000330: 1e1d 33be 3093 873e c0fb 413e e4a5 803e
00000340: efb6 073e e5f7 a2bd 4f06 313d b4db 3a3d
00000350: 08a9 df3c bf10 92bc e9bf 65be 680b f63d
00000360: 8382 ad3e 1118 68be 9c7b 96be ccec 063e
00000370: 754d 8c3e 0748 4fbe 2ef3 4cbe 7cf8 3fbe
00000380: c13c 4e3e b21f 8ebe 0a0a 04be 01bb 9b3d
00000390: 5fcc c4bd 22f8 73be 99e3 513e 8544 14be
000003a0: 700e 2dbd ef5a b8bd f32d 853d 8742 87be
000003b0: 88d7 0dbe 8e54 4d3e 678b 9c3e f3db 013e
000003c0: 42a9 8dbe de30 dfbd 03c2 64be 84c7 05bf
000003d0: dd47 07bd 663b 88be 0b31 e7bd 697d e33d
000003e0: 40c3 2dbd aa0e 6d3e d213 643e 2e4d 273d
000003f0: 22e6 d7bd 7f1d 4abe e26d 29be f02f 0e3e

feature_exact.op_attention_blocks.1.attention_0.a f4 [16, 1]
0.18235147 -0.42301846 -0.19869608 -0.996418 0.18720917 -0.10150263 -0.93548995 0.56877935
0.8409184 0.43113992 -0.50438523 0.32957253 0.2685849 -0.37208635 0.5058519 -0.14008665
00000000: 58ba 3a3e e095 d8be fc76 4bbe 4015 7fbf
00000010: c3b3 3f3e 9ce0 cfbd 457c 6fbf 869b 113f
00000020: 6e46 573f 5fbe dc3e 641f 01bf bbbd a83e
00000030: f683 893e 1a82 bebe 837f 013f e072 0fbe

feature_exact.op_attention_blocks.1.attention_1.W f4 [128, 8]
-0.23235007 -0.25566137 -0.18129908 0.15510686 -0.3038809 -0.08873801 0.016370844 0.19129848
0.14137688 -0.0834084 -0.26945615 -0.12363129 0.032354124 -0.111812435 0.005281554 -0.086124696
0.28752574 -0.105878256 -0.2391279 0.20910971 0.23938239 0.12683648 -0.080937706 0.06491604
0.25758743 -0.12482796 0.2750195 0.17272581 -0.30867842 0.19538894 -0.22091657 -0.0067121154
-0.21780686 0.24699391 0.01740144 0.22463207 0.028129533 -0.12596476 -0.208254 -0.15877002
0.26726583 -0.07660844 -0.21482834 0.27636787 -0.14084731 0.07569392 0.04517 -0.009246414
-0.114048064 -0.2415247 -0.035742257 -0.22446467 -0.19723159 0.060086362 -0.26468477 -0.19605897
-0.17110595 -0.2406435 0.21527095 -0.06399635 0.25185344 0.15962757 0.31375036 0.04898195
0.18084124 0.06521762 0.25374612 0.26224327 -0.186993 -0.29547387 0.18450977 0.12595055
0.030410247 -0.29496935 -0.42963067 -0.045691222 -0.15043283 0.06686878 0.29253185 0.300896
0.018846527 0.16042908 0.086266674 -0.28713125 0.06608323 0.14420591 -0.1400356 -0.268285
-0.24367665 0.12216323 0.02011688 0.13487056 -0.093132704 0.17928267 -0.059267037 0.060382012
-0.111078046 -0.2895723 0.33691296 0.019499402 -0.20101711 -0.058944847 -0.08239743 -0.24548964
-0.070890374 -0.17713189 0.23718642 0.16520064 0.04153938 0.09976964 -0.19617067 -0.09328572
-0.091992095 -0.22943597 0.01856627 0.044648044 -0.20141743 0.13011268 0.20598446 0.11631358
0.28047296 -0.11010866 0.20068903 0.13768776 -0.10669187 -0.2513329 -0.0382571 0.27542254
-0.3041897 0.25393206 0.001076811 -0.1940024 0.23943892 0.18526837 -0.27558252 0.23503669
0.09291231 0.032154016 0.38454318 -0.2422149 0.16347523 0.37999463 0.24333397 -0.052206185
0.2429497 0.02278751 0.1605733 0.1399904 0.14373262 0.04415174 0.021200191 -0.06327567
-0.20142093 -0.34324032 0.02899961 -0.061747808 0.07700168 -0.09163805 -0.23781681 -0.1959139
0.0640304 0.24956994 -0.0725002 0.04183988 0.041595627 0.4128075 0.010131109 -0.08058753
0.1510693 0.26265407 -0.17953444 0.2173573 -0.011932967 0.21139608 0.3198448 0.16897054
0.06546004 0.20776889 0.07031908 0.10559519 -0.074495114 -0.23365113 0.03751469 0.10404482
-0.22398643 0.002470966 0.35334662 -0.09826369 -0.22528179 0.21579124 0.07990664 0.14330383
-0.28278366 0.04234096 0.20533581 -0.13065995 -0.23680435 -0.19525166 -0.06720512 0.0055417437
-0.06431279 0.25028774 0.14770427 -0.19995813 0.3118345 0.27349684 0.022196257 0.20696115
0.076475956 0.07229132 -0.07143126 0.05817435 0.03613235 -0.03560837 0.091233015 0.0025931462
-0.10603459 0.103516 -0.21314618 -0.13618393 -0.015296766 0.100778736 -0.07685349 0.22326057
-0.15568969 -0.14882615 -0.18946575 0.16200452 0.21631332 -0.25903398 0.046697356 0.14190044
-0.25543195 0.16928619 0.10329759 0.1651954 -0.16153957 0.20978731 -0.07088048 -0.17144161
-0.124986395 -0.34600788 0.07281185 -0.24494681 0.12685047 0.21265267 -0.19501254 0.07452517
-0.2893278 -0.10173475 -0.093464226 -0.28897834 0.15874378 0.12727796 -0.20637773 -0.15333575
00000000: 2ded 6dbe 0ce6 82be 77a6 39be 55d4 1e3e
00000010: 4796 9bbe 46bc b5bd 261c 863c c0e3 433e
00000020: 1ac5 103e 06d2 aabd 28f6 89be 6732 fdbd
00000030: c285 043d ebfd e4bd e310 ad3b 2562 b0bd
00000040: 9336 933e b3d6 d8bd f2dd 74be db20 563e
00000050: a820 753e 6ce1 013e abc2 a5bd b3f2 843d
00000060: 80e2 833e cda5 ffbd 5bcf 8c3e 09df 303e
00000070: 190b 9ebe 0a14 483e f437 62be 4ef1 dbbb
00000080: c308 5fbe f9eb 7c3e 778d 8e3c f305 663e
00000090: e86f e63c e8fc 00be 8940 55be 9c94 22be
000000a0: 11d7 883e e3e4 9cbd f6fb 5bbe 1780 8d3e
000000b0: 473a 10be 6a05 9b3d 2e04 393d 457e 17bc
000000c0: 0892 e9bd 4052 77be 7966 12bd 11da 65be
000000d0: 14f7 49be 1e1d 763d c384 87be afc3 48be
000000e0: 6636 2fbe 406b 76be fd6f 5c3e 8510 83bd
000000f0: eff2 803e 6975 233e e3a3 a03e 4ca1 483d
00000100: 722e 393e d190 853d 03eb 813e c044 863e
00000110: 187b 3fbe 5a48 97be 21f0 3c3e 2ef9 003e
00000120: e91e f93c 3906 97be 8df8 dbbe b826 3bbd
00000130: 100b 1abe 80f2 883d bcc6 953e 0a0f 9a3e
00000140: 0864 9a3c 8547 243e 95ac b03d de02 93be
00000150: a556 873d b7aa 133e 7e65 0fbe a75c 89be
00000160: 5f86 79be b730 fa3d 28cc a43c 821b 0a3e
00000170: 5cbc bebd e095 373e fec1 72bd 2153 773d
00000180: e37c e3bd d242 94be db7f ac3e 36bd 9f3c
00000190: 6ed7 4dbe 2770 71bd fcbf a8bd a361 7bbe
000001a0: f92e 91bd 1062 35be ffe0 723e 5b2a 293e
000001b0: 3225 2a3d 0654 cc3d f7e0 48be 950c bfbd
000001c0: 5a66 bcbd 43f1 6abe 4a18 983c dee0 363d
000001d0: 5f40 4ebe 423c 053e 97ed 523e d035 ee3d
000001e0: 279a 8f3e a680 e1bd 6d81 4d3e 05fe 0c3e
000001f0: 4481 dabd b5ae 80be 7ab3 1cbd 2f04 8d3e
00000200: c1be 9bbe 6203 823e c823 8d3a 91a8 46be
00000210: 7a2f 753e feb6 3d3e 2719 8dbe 75ad 703e
00000220: cf48 be3d eeb3 033d d8e2 c43e 2f07 78be
00000230: 0d66 273e a88e c23e 8a2c 793e 27d6 55bd
00000240: cec7 783e dfac ba3c 546d 243e a559 0f3e
00000250: a52e 133e 74d8 343d 06ac ad3c ad96 81bd
00000260: 4a41 4ebe 32bd afbe 9790 ed3c 45eb 7cbd
00000270: 0fb3 9d3d bbac bbbd 4086 73be a79d 48be
00000280: 5f22 833d 438f 7f3e fc7a 94bd 4b60 2b3d
00000290: 2d60 2a3d 815b d33e f3fc 253c 130b a5bd
000002a0: e9b1 1a3e 987a 863e e0d7 37be e992 5e3e
000002b0: 7e82 43bc 3778 583e b3c2 a33e 9d06 2d3e
000002c0: ea0f 863d 5ec1 543e 7303 903d 4a42 d83d
000002d0: e590 98bd 3e42 6fbe 01a9 193d 7315 d53d
000002e0: b35c 65be eeef 213b d9e9 b43e 793e c9bd
000002f0: 45b0 66be 61f8 5c3e 18a6 a33d 3dbe 123e
00000300: 05c9 90be b76d 2d3d 8d43 523e b9cb 05be
00000310: d77c 72be 0df0 47be d7a2 89bd 8497 b53b
00000320: 6db6 83bd b725 803e ca3f 173e d3c1 4cbe
00000330: c6a8 9f3e c707 8c3e edd4 b53c a0ed 533e
00000340: 6d9f 9c3d 790d 943d 8d4a 92bd 3a48 6e3d
00000350: 84ff 133d 15da 11bd 60d8 ba3d c6f1 293b
00000360: aa28 d9bd 3200 d43d fe42 5abe cd73 0bbe
00000370: 499f 7abc 1565 ce3d 5d65 9dbd 6b9e 643e
00000380: 1e6d 1fbe e265 18be 4f03 42be 83e4 253e
00000390: 3d81 5d3e 1aa0 84be ba45 3f3d 594e 113e
000003a0: fac7 82be 5c59 2d3e b08d d33d fc28 293e
000003b0: a16a 25be 7cd2 563e c929 91bd 648e 2fbe
000003c0: def8 ffbd f227 b1be 611e 953d 56d3 7abe
000003d0: 17e5 013e 9fc1 593e 5eb1 47be a7a0 983d
000003e0: c622 94be 4f5a d0bd 2c6a bfbd f8f4 93be
000003f0: bb8d 223e 2755 023e af54 53be 0c04 1dbe

feature_exact.op_attention_blocks.1.attention_1.a f4 [16, 1]
0.5507004 -0.36685303 -0.8281231 0.20010968 -0.109663434 0.38718614 0.44521612 -0.84740967
0.85012716 -0.40660763 -0.7608305 0.83849376 0.42762047 0.68452835 0.6816273 -0.67164284
00000000: b4fa 0c3f 29d4 bbbe e0ff 53bf 8de9 4c3e
00000010: 3997 e0bd 433d c63e 5ef3 e33e d7ef 58bf
00000020: efa1 593f e02e d0be cac5 42bf 87a7 563f
00000030: 12f1 da3e 403d 2f3f 207f 2e3f c9f0 2bbf

feature_exact.op_attention_blocks.1.attention_2.W f4 [128, 8]
-0.065137245 -0.21636844 0.122232735 -0.19511655 0.03839334 0.023065954 -0.0807095 -0.22813693
0.26244813 -0.33807567 -0.18178372 0.4142643 -0.14001782 -0.17418578 -0.09729716 0.38596013
0.1492776 -0.24692531 0.27077544 0.09673196 0.050591137 0.16200253 -0.31874838 -0.17650007
0.18948147 -0.24122341 0.3609377 0.25439438 0.16365604 -0.267983 -0.1671248 0.023907337
0.1856485 -0.196735 -0.30766115 0.21391037 0.21593432 0.08126058 0.21874541 -0.10976872
-0.060769558 -0.08679772 0.32134378 0.13195165 0.2463675 0.3440098 0.180972 0.056039095
0.1405139 -0.13783185 0.21616244 0.13047907 -0.024198284 0.23430501 -0.42634034 -0.27990437
-0.033391226 -0.2769764 -0.25855446 0.09160222 -0.06278966 0.042619053 0.0528604 0.061034597
-0.24670677 0.004496736 0.28715584 -0.073386714 -0.080948934 -0.021439144 -0.10528556 -0.20526588
-0.09331478 0.064000465 -0.121446915 -0.17661104 0.20793058 0.004051491 0.23931941 -0.035996817
-0.010329824 0.15692173 0.35225493 -0.244071 -0.18773182 -0.23150676 -0.25474757 -0.26582476
-0.16649885 0.31308064 0.15180777 0.0959706 -0.18948497 0.25633547 -0.19212084 0.039117116
0.20811273 -0.17665802 -0.21830146 0.29496193 -0.04458613 0.030892631 0.25232226 0.059019927
-0.15496096 -0.35245043 0.14072433 0.36354944 0.11891027 -0.24941108 0.10046336 0.16759574
0.11537794 -0.0074324245 0.22152792 -0.191509 -0.14838827 0.25407684 0.289027 -0.26695448
-0.0047774278 -0.22072445 -0.17508984 -0.21916138 -0.013122181 -0.0011198212 0.06135895 0.27950087
0.22570956 -0.20726463 0.16370739 0.038128607 -0.20995326 0.07972445 -0.20763248 0.17728993
0.0025442643 -0.1757492 0.28529775 -0.099158056 -0.030945048 0.10336567 -0.04714772 -0.23732859
0.10677635 0.09179247 0.3575736 0.04622377 -0.24136378 -0.016315373 -0.02296074 -0.19900154
0.18573463 -0.18331608 0.061392374 -0.12667812 -0.12538931 -0.060339916 0.2627862 0.11885962
0.25657284 0.26587695 -0.3046192 0.016915282 0.2561712 0.28143507 0.14498498 -0.20497791
0.10732907 -0.16596936 0.034281507 -0.11078835 0.1612852 -0.2846572 0.31839204 0.29337528
-0.14710703 -0.117131 -0.3021363 -0.15826532 -0.28518596 0.10606842 0.019139322 0.19896367
-0.06577519 0.11614812 0.27880153 -0.011109734 -0.0024595817 0.20768216 -0.28809115 -0.2687703
-0.10836759 -0.046815462 0.22361907 -0.26249936 -0.19668557 0.030553864 -0.05889699 -0.044607636
0.24287716 -0.2683718 -0.053488236 0.28941926 0.22339046 0.19421537 -0.088047355 -0.11365081
0.04842336 -0.21544212 -0.1114801 -0.24822086 -0.16494507 0.22569361 0.20043267 0.12786372
-0.23069806 0.2987533 0.089790344 -0.06165393 -0.27951366 -0.10100153 -0.035570133 -0.027378606
-0.14674467 0.034143373 -0.12180373 -0.12040311 -0.21826088 0.06497089 -0.12236193 -0.3216808
0.25912753 -0.059960116 0.09382385 0.16326721 0.24583837 -0.18469219 0.09303506 0.058502473
-0.19833092 -0.30195978 -0.13076301 0.1425581 -0.13622959 0.20169309 -0.12216732 0.28532314
0.087563924 -0.05567725 -0.021450898 0.14799081 0.096283704 -0.04189684 0.105947874 0.15793519
00000000: ad66 85bd b08f 5dbe 2855 fa3d a2cc 47be
00000010: 5642 1d3d d0f4 bc3c 064b a5bd ba9c 69be
00000020: 9a5f 863e 4118 adbe 8325 3abe 731a d43e
00000030: d560 0fbe c25d 32be bc43 c7bd 919c c53e
00000040: 3adc 183e fdd9 7cbe 14a3 8a3e 681b c63d
00000050: a738 4f3d fee3 253e fd32 a3be 6fbc 34be
00000060: 6e07 423e 4503 77be d4cc b83e fb3f 823e
00000070: 7395 273e 1135 89be c322 2bbe 52d9 c33c
00000080: a41a 3e3e e674 49be c385 9dbe 520b 5b3e
00000090: e31d 5d3e f26b a63d ccfe 5f3e 6cce e0bd
000000a0: 80e9 78bd 01c3 b1bd 2c87 a43e 551e 073e
000000b0: c347 7c3e 0d22 b03e b950 393e 4089 653d
000000c0: e0e2 0f3e cb23 0dbe b059 5d3e 4e9c 053e
000000d0: 7b3b c6bc a7ed 6f3e 4849 dabe a04f 8fbe
000000e0: 3dc5 08bd dacf 8dbe 4061 84be f299 bb3d
000000f0: de97 80bd 5191 2e3d 2684 583d 6aff 793d
00000100: b3a0 7cbe 5b59 933b 1706 933e c64b 96bd
00000110: 8ec8 a5bd 25a1 afbc f59f d7bd 3831 52be
00000120: d21b bfbd ad12 833d 29b9 f8bd 86d9 34be
00000130: c1eb 543e 5fc2 843b 2610 753e 6671 13bd
00000140: 6c3e 29bc 17b0 203e c25a b43e c0ed 79be
00000150: c53c 40be 1c10 6dbe 466e 82be 2f1a 88be
00000160: ad7e 2abe 1b4c a03e 7f73 1b3e 3c8c c43d
00000170: 5908 42be 673e 833e 53bb 44be 4539 203d
00000180: 811b 553e d7e5 34be 6b8a 5fbe 4005 973e
00000190: f29f 36bd 8b12 fd3c 6230 813e e1be 713d
000001a0: 16ae 1ebe 6274 b4be 0a1a 103e 2723 ba3e
000001b0: 3a87 f33d 9e65 7fbe bcbf cd3d 389e 2b3e
000001c0: 454b ec3d b28b f3bb 37d8 623e ef1a 44be
000001d0: 18f3 17be 5c16 823e 59fb 933e 42ae 88be
000001e0: f88b 9cbb 9705 62be c04a 33be d76b 60be
000001f0: 6bfe 56bc f7c6 92ba 8653 7b3d bd1a 8f3e
00000200: 6820 673e 2e3d 54be e9a2 273e be2c 1c3d
00000210: fdfd 56be 9346 a33d 9c9d 54be 7e8b 353e
00000220: acbd 263b 99f7 33be 8c12 923e 6113 cbbd
00000230: 7880 fdbc 61b1 d33d f81d 41bd 4406 73be
00000240: 8fad da3d b1fd bb3d e313 b73e 2355 3d3d
00000250: 1128 77be d1a7 85bc 2918 bcbc 0fc7 4bbe
00000260: 3831 3e3e 36b7 3bbe 9276 7b3d e9b7 01be
00000270: 0e66 00be fd26 77bd ea8b 863e ac6c f33d
00000280: 845d 833e 0621 883e 0cf7 9bbe eb91 8a3c
00000290: df28 833e 4218 903e f176 143e bbe5 51be
000002a0: 58cf db3d dff3 29be c46a 0c3d 01e5 e2bd
000002b0: f327 253e 97be 91be 4804 a33e 4935 963e
000002c0: 3aa3 16be 61e2 efbd 9cb1 9abe 4e10 22be
000002d0: e503 92be 663a d93d 11ca 9c3c 22bd 4b3e
000002e0: 25b5 86bd 11df ed3d 13bf 8e3e 9a05 36bc
000002f0: ef30 21bb a2aa 543e af80 93be 439c 89be
00000300: d4ef ddbd 92c1 3fbd 66fc 643e 5166 86be
00000310: f167 49be 194c fa3c f83d 71bd 7fb6 36bd
00000320: cab4 783e 0768 89be 7b16 5bbd c32e 943e
00000330: 78c0 643e 65e0 463e 2c52 b4bd c2c1 e8bd
00000340: 9357 463d dc9c 5cbe ae4f e4bd 9c2d 7ebe
00000350: 5ce7 28be 3a1c 673e 393e 4d3e b5ee 023e
00000360: 1d3c 6cbe 31f6 983e 00e4 b73d d588 7cbd
00000370: 6a1c 8fbe e4d9 cebd fdb1 11bd 1949 e0bc
00000380: 3c44 16be ecd9 0b3d 3c74 f9bd e895 f6bd
00000390: c87f 5fbe 750f 853d e498 fabd 59b3 a4be
000003a0: 5dac 843e bd98 75bd b826 c03d 852f 273e
000003b0: 0ebd 7b3e f31f 3dbe 2a89 be3d 4aa0 6f3d
000003c0: 4317 4bbe 799a 9abe bde6 05be c0fa 113e
000003d0: c57f 0bbe a288 4e3e dc32 fabd e015 923e
000003e0: b754 b33d d40d 64bd cbb9 afbc e78a 173e
000003f0: 6430 c53d 059c 2bbd 33fb d83d c3b9 213e
