trained_network/SD1/10x5.pth (torch, 136969 bytes, 50 tensors)

feature_exact.op_attention_blocks.0.attention_0.W f4 [10, 32]
0	0xbeb363c9	-0.35037068
1	0xbed1f823	-0.41009626
2	0x3f11c85f	0.5694637
3	0x3ef91b96	0.4865386
4	0xbefb9760	-0.49138927
5	0x3e3b9bba	0.18321124
6	0x3f029298	0.51004934
7	0x3e0576b1	0.13033558
8	0x3f09bec4	0.5380671
9	0xbe99e7f2	-0.30059773
10	0x3ea6cfe7	0.32580492
11	0x3eec45f2	0.46147114
12	0x3ed6873c	0.4190005
13	0x3e4c7ae9	0.19968762
14	0xbebe1d5a	-0.37131768
15	0x3de2e836	0.11079447
16	0x3d7fca19	0.062448595
17	0xbe63c789	-0.22244085
18	0xbdb85497	-0.09000509
19	0x3f0aedf8	0.5426936
20	0xbe5b3184	-0.21405607
21	0xbdef04b4	-0.11670819
22	0xbde2f331	-0.11081541
23	0x3e998933	0.29987487
24	0xbe8c8581	-0.27445605
25	0x3ebc9fa0	0.36840534
26	0x3dd59e80	0.10430622
27	0xbe683dc0	-0.22679806
28	0x3d7cc7c1	0.061713938
29	0xbe5868f8	-0.21133792
30	0xbe9abfc8	-0.30224442
31	0x3e814809	0.2525027
32	0x3e5ed58c	0.21761149
33	0x3eca6e0f	0.39537093
34	0x3eaeb06c	0.34118974
35	0x3f13f711	0.5779887
36	0x3ed2fe64	0.4120971
37	0xbe21a75f	-0.15786503
38	0x3ecf243b	0.4045733
39	0xbee051fd	-0.43812552
40	0x3ede49be	0.43415636
41	0x3e435c25	0.19078119
42	0x3f0610d6	0.5236944
43	0x3dbb92d6	0.09158866
44	0xbf044891	-0.5167323
45	0x3ed56e13	0.41685542
46	0xbeaea7fe	-0.34112543
47	0x3ed5b40b	0.41738924
48	0xbed8a44e	-0.42312855
49	0x3da951ce	0.08267556
50	0xbedd6847	-0.4324362
51	0xbefd8990	-0.49519014
52	0xbe58e274	-0.21180135
53	0xbec59e86	-0.38597506
54	0xbec33499	-0.38126066
55	0xbc742a7b	-0.014902706
56	0xbeb96abf	-0.36214253
57	0xbed7bbaf	-0.4213538
58	0xbd9703a4	-0.07373741
59	0x3ec6f884	0.38861477
60	0x3e88621e	0.26637357
61	0xbe950a26	-0.29109305
62	0x3ed0843e	0.40725893
63	0xbe6e57c5	-0.23275669
64	0xbeef03d8	-0.4668262
65	0x3ef1f7a1	0.47259238
66	0x3e787341	0.24262716
67	0x3e07a355	0.132459
68	0x3e356133	0.1771286
69	0xbe9ad753	-0.30242404
70	0x3ecee327	0.40407678
71	0xbe36676c	-0.1781289
72	0x3ef270d3	0.47351703
73	0xbd52b852	-0.051445313
74	0xbe195899	-0.14975204
75	0x3c477243	0.012173238
76	0xbe10d0e8	-0.14142191
77	0x3ef66d7e	0.4813041
78	0x3dcc3b08	0.09972197
79	0xbf0985e5	-0.5371993
80	0x3ef94bf2	0.48690754
81	0x3dc7a736	0.0974869
82	0xbe5a0298	-0.21290052
83	0x3ee30eae	0.44347137
84	0xbe2341b3	-0.15943031
85	0x3da9febd	0.083005406
86	0x3ee206fd	0.44145957
87	0xbf020991	-0.5079585
88	0xbe99db7d	-0.3005027
89	0xb8c46910	-9.365578e-05
90	0xbecc0594	-0.39848006
91	0x3e85f6a2	0.26164728
92	0xbf08845c	-0.53326964
93	0x3e035ac5	0.12827595
94	0xbcce4253	-0.02517811
95	0x3e25cdb5	0.16191752
96	0xbeb2a3e7	-0.34890673
97	0xbd204a76	-0.03913351
98	0x3e615251	0.22004057
99	0x3de6341f	0.1124041
100	0xbdd62613	-0.10456481
101	0x3d0b718f	0.034043845
102	0xbc77ef2e	-0.0151327085
103	0x3ddd20e5	0.1079729
104	0x3ee6a001	0.45043948
105	0x3ea05f61	0.31322768
106	0xbec70ee8	-0.3887856
107	0x3dafc2c1	0.08582068
108	0x3ec3160b	0.38102755
109	0x3eb6b184	0.3568231
110	0xbe7ee5c7	-0.2489234
111	0x3ef02204	0.46900952
112	0xbeaf5eed	-0.3425211
113	0xbbc61df9	-0.0060460535
114	0xbdeb1c27	-0.11479979
115	0x3e5b8f6b	0.21441428
116	0xbebfc96d	-0.37458363
117	0xbec01d94	-0.37522566
118	0x3e67afaa	0.22625604
119	0xbebe6b9e	-0.3719148
120	0x3f025c90	0.5092249
121	0xbedb7c0e	-0.42868084
122	0xbe1b6ece	-0.15178987
123	0xbda45cff	-0.0802555
124	0x3d5d5606	0.054037116
125	0x3dba8855	0.091080345
126	0x3e91e394	0.2849394
127	0xbc134369	-0.00898824
128	0xbed21d47	-0.41037962
129	0xbe0d7c46	-0.13816938
130	0x3e058335	0.13038333
131	0xbef77d3f	-0.48337743
132	0x3f069e8e	0.52585685
133	0x3ed1c4e4	0.40970528
134	0xbe61654f	-0.22011302
135	0xbcf9e457	-0.030504389
136	0x3ed3147d	0.4122657
137	0xbe4f52a2	-0.20246366
138	0x3ea66870	0.32501554
139	0x3ec98f7c	0.39367282
140	0xbf05c4d9	-0.5225349
141	0xbe6f6e6f	-0.23381971
142	0x3e952cba	0.29135686
143	0x3cc8602d	0.024459923
144	0xbe9b9044	-0.30383503
145	0x3e5b2b02	0.21403125
146	0xbe13ee24	-0.14446312
147	0xbe46ad18	-0.19401968
148	0x3e141be9	0.14463772
149	0xbd2c3cb7	-0.04205009
150	0x3c96829a	0.018372823
151	0x3e971ddf	0.29514977
152	0xbd28ead4	-0.041239575
153	0x3e642009	0.22277845
154	0xbee85e0f	-0.4538426
155	0x3e3361c8	0.1751777
156	0x3ef5bdca	0.4799636
157	0xbebb5e25	-0.36595264
158	0xbe917eab	-0.28416952
159	0xbeb2e821	-0.34942725
160	0xbd2a19a0	-0.041528344
161	0x3de06785	0.10957245
162	0xbea4ecac	-0.32211816
163	0x3ea2272f	0.3167052
164	0x3e26159c	0.16219181
165	0xbd762131	-0.060090248
166	0x3e5097c5	0.20370395
167	0xbe6e5b08	-0.23276913
168	0xbca804c2	-0.020510081
169	0x3db91583	0.09037306
170	0xbd9740d6	-0.07385413
171	0x3ec5fa81	0.38667682
172	0xbe97d80b	-0.29657015
173	0x3e128b4e	0.14310953
174	0xbea618d0	-0.32440805
175	0xbecc7017	-0.39929268
176	0xbe9f61e0	-0.3112936
177	0x3ef758a6	0.4830982
178	0xbed94db2	-0.4244209
179	0xbe7e708c	-0.2484762
180	0x3f078a02	0.5294496
181	0x3e67b36f	0.22627042
182	0x3e00eeac	0.12591046
183	0x3e367c84	0.17820936
184	0xbf093e27	-0.5361046
185	0x3e0611cf	0.13092731
186	0xbeda5811	-0.42645314
187	0xbea41c89	-0.3205302
188	0xbe952b61	-0.29134658
189	0xbed4af92	-0.415402
190	0xbdd2e149	-0.10296876
191	0x3e151aa2	0.14560941
192	0x3e6bf9a6	0.23044452
193	0xbea5d5f1	-0.32389787
194	0x3d9ed62f	0.07755696
195	0x3ecaca97	0.3960769
196	0xbe8d331f	-0.27578065
197	0xbdcddb7b	-0.10051628
198	0x3e9f2614	0.3108374
199	0xbe36563f	-0.17806338
200	0xbeb5cdac	-0.35508478
201	0x3de33edb	0.11095973
202	0x3e7f394b	0.249242
203	0x3ecc21ca	0.3986953
204	0xbe578787	-0.21047793
205	0x3e2f4c51	0.17118956
206	0x3d803bc2	0.06261398
207	0xbeced8e9	-0.40399864
208	0xbf22db9f	-0.63616365
209	0x3ee107b9	0.43951204
210	0x3ef3004a	0.47461158
211	0xbeb18d9d	-0.34678355
212	0xbe576f11	-0.21038462
213	0x3e7f67ae	0.24941894
214	0xbef8f662	-0.48625475
215	0xbe30bce2	-0.17259553
216	0x3d6bed60	0.057599425
217	0xbe83d756	-0.25750226
218	0xbef3ac50	-0.47592402
219	0x3e3fb5b5	0.1872166
220	0x3c0165f5	0.007897844
221	0x3ec716cf	0.3888459
222	0x3e97988b	0.2960857
223	0xbee44fbb	-0.4459208
224	0x3ed56b14	0.41683257
225	0xbeffa81d	-0.49932948
226	0x3ec575cf	0.38566443
227	0xbe8e7500	-0.2782364
228	0xbef37332	-0.47548825
229	0xbf0e25af	-0.5552625
230	0x3e9d3b29	0.30709198
231	0x3dfeeef6	0.12447922
232	0x3e7f40a8	0.24927008
233	0x3e4f92d1	0.2027085
234	0x3df047a9	0.11732418
235	0xbefcab90	-0.49349642
236	0x3ee0b850	0.4389062
237	0xbec412dc	-0.3829564
238	0xbe012b29	-0.1261412
239	0x3ef21bd1	0.47286847
240	0x3e8452e2	0.25844485
241	0xbef5aaee	-0.47981972
242	0xbe9d31a5	-0.30701938
243	0xbe7eed7e	-0.24895284
244	0xbe9bccf2	-0.30429798
245	0x3e928a23	0.28621015
246	0xbb71df21	-0.0036906677
247	0xbe48a0be	-0.19592568
248	0x3ed10bf1	0.40829423
249	0xbee519d5	-0.4474627
250	0x3d901cb2	0.07036723
251	0xbebf0da8	-0.37315106
252	0xbd940549	-0.072275706
253	0xbf0d3f96	-0.5517515
254	0x3ea59847	0.3234274
255	0x3da157d0	0.07878077

feature_exact.op_attention_blocks.0.attention_0.a f4 [64, 1]
0	0x3e468497	0.19386517
1	0x3ec95342	0.39321333
2	0x3eb02acb	0.34407648
3	0xbe94b4a8	-0.2904408
4	0xbe1fa804	-0.15591437
5	0xbf045ea6	-0.5170692
6	0xbe33d755	-0.17562611
7	0x3e96d809	0.29461697
8	0x3e914ae8	0.2837746
9	0x3ec365a7	0.38163492
10	0xbd5b57d8	-0.05355057
11	0xbd0b297f	-0.03397512
12	0xbd9422f5	-0.0723323
13	0xbc377d01	-0.011199237
14	0xbdba85a2	-0.0910752
15	0x3ec4ce65	0.38438717
16	0x3cfa0f18	0.030524775
17	0xbea168f4	-0.31525385
18	0x3dca7be7	0.09886914
19	0xbecb6edb	-0.39733014
20	0x3e7fab3e	0.24967667
21	0x3e0139e1	0.12619735
22	0x3eb962c4	0.36208165
23	0xbe99b4aa	-0.30020648
24	0xbe927981	-0.28608325
25	0x3e2b6654	0.16738254
26	0xbe9fa081	-0.31177142
27	0xbedc279a	-0.42998964
28	0x3e7f2f1c	0.24920315
29	0xbe88a431	-0.26687768
30	0x3ec882a9	0.39162186
31	0x3ecd0229	0.4004071
32	0x3eab6b87	0.33480474
33	0x3d70b3d2	0.05876524
34	0x3e0a628e	0.13514158
35	0x3ee76f90	0.45202303
36	0xbe6c5579	-0.2307948
37	0x3d3799f7	0.044824567
38	0x3e2392c0	0.1597395
39	0xbda7fd12	-0.08202566
40	0x3eac654d	0.33671036
41	0x3e8ee99d	0.27912608
42	0x3e3ee6c3	0.18642716
43	0xbde89137	-0.113558225
44	0x3efa2629	0.4885724
45	0x3e702143	0.23450188
46	0xbe91f74d	-0.28508988
47	0xbe17a2b1	-0.14808156
48	0x3ecb87a8	0.39751935
49	0x3ce3a5cd	0.02778902
50	0x3e9560c1	0.2917538
51	0x3ed5667c	0.41679752
52	0x3ddb61ee	0.10712038
53	0x3ec8cfe8	0.3922112
54	0x3ddfc011	0.10925306
55	0x39ae9273	0.0003329698
56	0xbede5c6b	-0.43429884
57	0xbd21a2e8	-0.039462
58	0x3e9b0416	0.30276555
59	0xbe122187	-0.14270602
60	0x3ed7405c	0.4204129
61	0xbe9d8a0e	-0.3076939
62	0xbddefb47	-0.10887771
63	0xbe467744	-0.19381434

feature_exact.op_attention_blocks.0.attention_1.W f4 [10, 32]
0	0xbde98538	-0.114023626
1	0x3eeb9ba4	0.46017182
2	0xbeb35acb	-0.35030207
3	0xbd8a5c6e	-0.06755911
4	0x3db8b28c	0.0901843
5	0x3e6d199c	0.231543
6	0xbe902b4d	-0.28158036
7	0x3f0a77d3	0.5408909
8	0x3ef35033	0.47522125
9	0x3e582ffb	0.21112053
10	0x3e928168	0.28614354
11	0xbe8a6c7e	-0.27035898
12	0xbe6c94a5	-0.23103578
13	0x3eaf87b0	0.3428321
14	0x3efdd0ca	0.49573356
15	0x3ecc10c9	0.39856556
16	0xbe5ca9da	-0.21549168
17	0xbe4dad61	-0.2008567
18	0x3eb24550	0.34818506
19	0xbf14cd79	-0.58126026
20	0x3e408e0d	0.18804188
21	0x3c9e3584	0.019312628
22	0x3e985d90	0.29758883
23	0x3da71aca	0.081594065
24	0x3f113485	0.56720763
25	0xbf385e85	-0.72019225
26	0x3ea7cd7a	0.32773954
27	0xbe1e346e	-0.15449688
28	0x3e2f04d9	0.17091693
29	0xbeb5acc8	-0.35483384
30	0x3e9f5f7d	0.3112754
31	0xbf06c038	-0.5263705
32	0x3ce40db3	0.027838564
33	0x3f02e994	0.5113766
34	0xbe80bd5a	-0.25144464
35	0x3db930e0	0.09042525
36	0xbec93a8b	-0.39302477
37	0x3e9946e7	0.29936907
38	0xbc36363b	-0.011121328
39	0x3f02231e	0.50834835
40	0xbe823099	-0.25427702
41	0xbd332d6d	-0.043744493
42	0xbed80701	-0.42192844
43	0xbde401de	-0.11133169
44	0xbee5928a	-0.44838363
45	0x3bdd46d6	0.006752829
46	0x3e4763a2	0.194716
47	0xbedcdfad	-0.431394
48	0x3ea8a6f8	0.32939887
49	0x3eaeb43b	0.3412188
50	0x3ea3d9ae	0.32002014
51	0x3f227599	0.6346069
52	0x3d4d7526	0.05016055
53	0xbea57af4	-0.32320368
54	0xbe6d359d	-0.23164983
55	0x3e93dbea	0.2887872
56	0xbe103279	-0.14081754
57	0xbe6f2777	-0.23354898
58	0xbe1aadb9	-0.15105332
59	0xbe921e1b	-0.28538594
60	0x3ae614b2	0.0017553775
61	0x3e911209	0.28334072
62	0xbcae4801	-0.021274569
63	0xbec02527	-0.37528345
64	0xbe33b229	-0.17548431
65	0x3ea915fc	0.33024585
66	0xbe10fcf4	-0.14158994
67	0x3f10ebf6	0.5661005
68	0x3e5d3d73	0.21605472
69	0xbd3a99bd	-0.045556773
70	0xbe0db6ce	-0.13839266
71	0x3e3b4bde	0.1829066
72	0x3ee1806f	0.440433
73	0xbb3ee543	-0.002912835
74	0x3e60ab9b	0.21940462
75	0x3e6a7d29	0.22899307
76	0xbee6e506	-0.45096606
77	0x3d04baca	0.0324047
78	0xbd286ef4	-0.04112144
79	0xbefa5eda	-0.4890049
80	0xbe01c2d0	-0.12671971
81	0x3ea59393	0.32339153
82	0xbe97619f	-0.29566666
83	0x3e3d0c00	0.18461609
84	0xbdafa307	-0.08576017
85	0x3f0916a0	0.5355015
86	0x3f075553	0.5286457
87	0x3e7bea7e	0.2460117
88	0xbee5989f	-0.44843003
89	0xbf0549e1	-0.52065855
90	0x3e8c2216	0.27369756
91	0x3d0e8861	0.03479803
92	0x3e24eb6c	0.16105431
93	0x3e4c28f5	0.19937499
94	0x3e841b0d	0.25801888
95	0x3d82b9dc	0.06383106
96	0x3d3e2153	0.0464185
97	0xbe1a6d3e	-0.15080735
98	0x3e764241	0.24048711
99	0x3d4ba1bd	0.049714793
100	0x3e16ac80	0.14714241
101	0x3ea2b500	0.31778717
102	0xbeb9b0ef	-0.36267802
103	0xbdaf37eb	-0.085555874
104	0xbc3ff84a	-0.011716912
105	0x3ea36d2c	0.3191923
106	0xbec2c9bc	-0.38044536
107	0x3e8cac1c	0.2747506
108	0xbc3384c0	-0.010956943
109	0x3f0516fd	0.519882
110	0x3d345644	0.04402758
111	0xbe227ecc	-0.15868682
112	0x3ead8895	0.33893266
113	0x3d9c8b7f	0.07643794
114	0xbecdc207	-0.40187094
115	0xbdc871f3	-0.09787359
116	0x3daeeae2	0.08540894
117	0xbed5d731	-0.4176574
118	0xbede7e65	-0.43455806
119	0x3e643953	0.22287492
120	0xbec9a2d3	-0.39382038
121	0xbd8613e5	-0.06546763
122	0xbec78d11	-0.38974813
123	0x3eb11b7a	0.34591275
124	0xbe878542	-0.26468855
125	0x3da33acd	0.079702
126	0x3dd23dfb	0.10265728
127	0x3c952bb7	0.018209321
128	0xbec81b92	-0.39083534
129	0xbd8f3a20	-0.06993508
130	0x3e9a2631	0.30107263
131	0x3eff1e5e	0.49827856
132	0x3ea99854	0.3312403
133	0x3ef9f0b0	0.48816442
134	0x3f05da82	0.5228654
135	0xbea5d323	-0.32387647
136	0xbed28cc1	-0.41123012
137	0x3e8108bd	0.2520198
138	0xbe121237	-0.14264761
139	0xbea31ac4	-0.31856358
140	0x3e9195d5	0.28434625
141	0x3d8c0102	0.0683613
142	0x3ccfa97b	0.02534937
143	0x3f0719cc	0.5277374
144	0xbded6606	-0.11591725
145	0xbdb099b1	-0.08623064
146	0xbee2ff30	-0.44335318
147	0xbe5e03cb	-0.21681134
148	0xbed87385	-0.42275634
149	0xbe9f5813	-0.31121883
150	0x3e205933	0.15659027
151	0xbd21eb69	-0.039531145
152	0x3efd7bef	0.49508616
153	0x3e7e39a7	0.2482668
154	0x3e911c44	0.28341877
155	0xbe66b53e	-0.22530076
156	0xbece963b	-0.40348992
157	0x3e92a476	0.286411
158	0x3e7b537f	0.2454357
159	0x3ee9236f	0.45534846
160	0x3d2f3a3f	0.042780157
161	0x3edb19d5	0.42793146
162	0x3e2f4c90	0.1711905
163	0xbd1be958	-0.03806433
164	0x3e0c1f11	0.13683726
165	0xbdf15ded	-0.11785493
166	0x3e308921	0.1723981
167	0xbea0b9ce	-0.31391758
168	0xbeee7efb	-0.46581253
169	0xbe6bdd75	-0.23033698
170	0x3ea5468e	0.3228039
171	0x3e6a4613	0.22878294
172	0x3e244245	0.16040905
173	0x3ebcce7c	0.36876285
174	0x3f06d0ce	0.5266236
175	0xbde5c6d9	-0.11219568
176	0xbb84b420	-0.004049793
177	0x3e054980	0.1301632
178	0x3ed974e7	0.42472002
179	0xbd88cb5e	-0.06679414
180	0xbe1b695a	-0.15176907
181	0xbdc5784a	-0.09642084
182	0x3e48ace4	0.19597203
183	0xbd518681	-0.051153664
184	0xbc7d0065	-0.015441989
185	0xbde3b8d1	-0.11119235
186	0x3e6e505c	0.23272842
187	0x3f01cd2e	0.50703704
188	0xbe7271d6	-0.23676237
189	0x3f05f64b	0.5232894
190	0x3ec7f570	0.3905444
191	0xbe2a59e7	-0.16635858
192	0xbebcea3c	-0.36897457
193	0x3ea75507	0.32682058
194	0xbe8d78ad	-0.2763113
195	0xbf143a13	-0.57901114
196	0xbec293be	-0.38003343
197	0x3e8cf5b8	0.2753122
198	0xbf115835	-0.5677522
199	0xbcaa7b3b	-0.020810714
200	0x3eeea305	0.4660875
201	0xbe31991c	-0.17343563
202	0x3e16f36b	0.14741294
203	0xbeb853e5	-0.36001506
204	0x3e6ae3f8	0.22938526
205	0x3e326fa9	0.17425407
206	0xbf0f265c	-0.55917907
207	0xbe6ff1a3	-0.23432021
208	0xbe82e63f	-0.2556629
209	0x3ed3811b	0.41309437
210	0xbe84389e	-0.25824445
211	0xbed39608	-0.41325402
212	0x3ecc7d31	0.39939263
213	0xbeb03b3b	-0.3442019
214	0x3e527e0a	0.20555893
215	0x3ef9673e	0.4871158
216	0x3ed9951d	0.42496577
217	0xbf0012b8	-0.5002856
218	0xbc9fbb9d	-0.01949864
219	0xbd7c5786	-0.061606906
220	0x3e65c47f	0.22438239
221	0x3f002e05	0.5007022
222	0xbe33920d	-0.17536183
223	0xbe101720	-0.14071321
224	0xbdaf5180	-0.08560467
225	0x3ec3a27f	0.38209912
226	0x3eb6802a	0.35644656
227	0xbe5b568e	-0.21419737
228	0x3d39c994	0.045358256
229	0xbe87ca5e	-0.2652158
230	0x3e92de74	0.28685343
231	0xbe707fb0	-0.23486209
232	0xbeb3d653	-0.35124454
233	0xbb41dd46	-0.0029581352
234	0xbdc9b26f	-0.09848487
235	0xbed32864	-0.41241753
236	0x3eedd3df	0.46450707
237	0x3e896df6	0.26841706
238	0xbcbe47b0	-0.023227543
239	0x3eefa98f	0.4680905
240	0x3e92c267	0.28663942
241	0x3e0ac99c	0.1355347
242	0x3e82c5ee	0.25541633
243	0x3eacdbfc	0.33761585
244	0xbe490b5f	-0.19633244
245	0xbecc0727	-0.39849207
246	0x3eda43fb	0.4262999
247	0xbeda1c7f	-0.42599866
248	0x3e6d6211	0.2318194
249	0x3ec50608	0.38481164
250	0x3eeca964	0.46222985
251	0x3ec487fe	0.38385004
252	0xbed98f14	-0.42491972
253	0x3d4b152d	0.04958074
254	0xbea6b23d	-0.3255786
255	0x3db1c89f	0.086808436

feature_exact.op_attention_blocks.0.attention_1.a f4 [64, 1]
0	0x3e76aa1a	0.24088326
1	0x3e9ac229	0.30226257
2	0x3dc0b2d1	0.094091065
3	0x3ebe7380	0.37197495
4	0xbe9ab770	-0.30218077
5	0x3da43886	0.080185935
6	0x3ea636bc	0.32463634
7	0xbde87283	-0.113499664
8	0xbeb99e3e	-0.36253542
9	0xbd9db679	-0.077008195
10	0x3d8360fc	0.06414983
11	0xbe9c4ac3	-0.3052579
12	0x3ec765c4	0.3894483
13	0xbea1873c	-0.31548488
14	0xbea6ce72	-0.3257938
15	0x3e06c261	0.13160087
16	0x3e584462	0.21119836
17	0x3e22912e	0.15875694
18	0x3ab12e3d	0.0013517808
19	0x3e96867e	0.29399484
20	0x3ea10848	0.3145163
21	0x3e57be15	0.21068604
22	0x3ded55b8	0.11588615
23	0xbe368038	-0.17822349
24	0xbdf4d35f	-0.11954378
25	0x3e97457d	0.29545203
26	0x3df26116	0.11834924
27	0x3cef2e7c	0.02919697
28	0xbe0080be	-0.12549111
29	0x3e62a0ad	0.22131605
30	0xbed6b606	-0.41935748
31	0x3d2fb302	0.042895325
32	0xbd155ae6	-0.03646364
33	0x3d878cd3	0.06618657
34	0xbecf6bfe	-0.4051208
35	0xbd49d558	-0.049275726
36	0x3ece5670	0.40300322
37	0xbe7bd25d	-0.24591966
38	0xbe65dda1	-0.22447826
39	0x3edb3653	0.42814884
40	0x3e37e529	0.17958511
41	0x3e074df4	0.1321333
42	0x3e68cef9	0.22735204
43	0xbedd2679	-0.43193415
44	0x3e626535	0.2210892
45	0xbe3fabe9	-0.18717922
46	0xbe05d072	-0.13067797
47	0xbe7cf97e	-0.24704549
48	0x3e700229	0.23438324
49	0xbea8053e	-0.328165
50	0x3ea6b287	0.3255808
51	0xbd0a538a	-0.033771075
52	0x3e7d5a57	0.24741493
53	0xbe3d746c	-0.18501443
54	0x3eac62dd	0.33669177
55	0xbedf563a	-0.43620473
56	0x3d8f9769	0.07011301
57	0xbe733630	-0.2375114
58	0x3e2d0f22	0.16900304
59	0x3e9b0a35	0.30281225
60	0xbebcca00	-0.36872864
61	0x3eb69c40	0.35666084
62	0x3e283c07	0.16429149
63	0xbe50aba7	-0.2037798

feature_exact.op_attention_blocks.0.attention_2.W f4 [10, 32]
0	0xbc120652	-0.00891264
1	0xbf1be7eb	-0.60900754
2	0xbe79d113	-0.24396162
3	0x3f0057ee	0.5013417
4	0xbe00549a	-0.12532273
5	0x3ed6db68	0.4196427
6	0xbe6b8547	-0.2300006
7	0x3e6649a7	0.22489034
8	0x3d9c2f62	0.07626225
9	0xbd1efa46	-0.038812898
10	0x3eec7d1f	0.4618921
11	0x3e644734	0.22292787
12	0x3ed4364a	0.4144767
13	0x3f02e0f7	0.5112452
14	0x3de4c9d5	0.11171309
15	0xbe678783	-0.22610287
16	0xbeb3cbd0	-0.35116434
17	0x3ea973df	0.33096215
18	0x3e5976fc	0.21236795
19	0x3ea4eadf	0.32210442
20	0xbe4fa51a	-0.20277825
21	0x3ed338bb	0.4125422
22	0xbe208c41	-0.15678503
23	0x3f0227ec	0.50842166
24	0xbeb8d36f	-0.3609881
25	0xbe9d4871	-0.3071933
26	0xbe04037f	-0.12891959
27	0xbe7aba20	-0.24485064
28	0x3e8d40c4	0.27588475
29	0xbe8d1e81	-0.27562335
30	0x3ebd55ac	0.36979425
31	0x3ea4b38f	0.32168242
32	0xbee2ec54	-0.4432093
33	0xbe63e008	-0.2225343
34	0xbdf1354b	-0.11777743
35	0x3eb4e1b0	0.35328436
36	0xbeb10b2e	-0.34578842
37	0x3e5d83b0	0.21632266
38	0xbdd4ab6e	-0.1038426
39	0xbef59769	-0.4796708
40	0x3e80f267	0.25184938
41	0xbef229d4	-0.47297537
42	0xbaad06a0	-0.0013200827
43	0x3c2660c1	0.010154904
44	0xbf00c2f8	-0.502975
45	0xbe9ef02f	-0.3104262
46	0x3eca3940	0.39496803
47	0x3ebc64f3	0.36795768
48	0x3ec6ab9b	0.388028
49	0xbea007af	-0.31255862
50	0x3d4e9fc8	0.050445348
51	0x3e0bd0c0	0.1365385
52	0xbee93894	-0.45550978
53	0x3df0dfc5	0.11761431
54	0xbef8289c	-0.48468482
55	0x3dd0c4d5	0.10193793
56	0xbef98eca	-0.48741752
57	0xbdf735c7	-0.12070804
58	0xbe6c0341	-0.23048116
59	0x3e7ec9ba	0.2488164
60	0x3ec113ca	0.3771041
61	0xbeafc8ef	-0.34332988
62	0xbeeb0793	-0.45904216
63	0xbd7b378d	-0.061332274
64	0x3eb57a99	0.35445097
65	0x3de13f56	0.109984085
66	0x3e703519	0.23457755
67	0xbe80a7a8	-0.25127912
68	0x3d933398	0.07187575
69	0x3ee934f7	0.4554822
70	0xbec072fb	-0.37587723
71	0x3e43f12f	0.19134973
72	0x3e9bc1a9	0.30421188
73	0x3df3d7ac	0.119063705
74	0xbea69fdc	-0.32543838
75	0xbe8e13cc	-0.2774948
76	0x3e8a95cb	0.27067408
77	0xbef9f94a	-0.48823005
78	0x3e14ad38	0.14519203
79	0x3d4a68c4	0.04941632
80	0xbece4864	-0.40289605
81	0x3eeb5af5	0.45967832
82	0xbe99bcf2	-0.30026966
83	0x3e98b1e5	0.29823223
84	0xbe206d0c	-0.15666598
85	0xbf1025f2	-0.563079
86	0x3e9b4e12	0.30333
87	0xbabc18d0	-0.0014350656
88	0x3d3573cf	0.044299897
89	0xbe53f64b	-0.20699422
90	0x3dd88342	0.105719104
91	0xbe1fb17f	-0.15595053
92	0xbe9fa9f9	-0.31184366
93	0x3eafc56b	0.34330305
94	0xba79d41e	-0.0009530204
95	0x3f0d7b3c	0.55266166
96	0xbee85dcc	-0.4538406
97	0x3f02d8ba	0.5111195
98	0xbedaf3da	-0.4276417
99	0xbeb24f52	-0.34826142
100	0x3b9cce49	0.0047853333
101	0x3e6c4188	0.23071873
102	0x3e7943f3	0.24342327
103	0xbe03557c	-0.12825578
104	0x3ef87fe5	0.48535076
105	0x3f028080	0.50977325
106	0xbebeb859	-0.3725002
107	0x3de81268	0.11331636
108	0x3e93e804	0.2888795
109	0xbe8af6e5	-0.2714149
110	0xbe359c56	-0.17735419
111	0x3e044276	0.12915978
112	0xbd8c1105	-0.06839184
113	0xbe743c8a	-0.23851219
114	0x3e8b90c0	0.27258873
115	0x3ea6c51d	0.3257226
116	0xbda1f00c	-0.079071134
117	0x3dfa246d	0.12213979
118	0xbdcecf03	-0.10098078
119	0xbd62958b	-0.055318397
120	0xbce77ecb	-0.028258702
121	0x3db9ed46	0.090784594
122	0xbef1a04b	-0.47192606
123	0x3ee1fc3e	0.44137758
124	0x3ee8a3cc	0.45437467
125	0x3ee55990	0.44794893
126	0xbeff620a	-0.49879485
127	0x3edfd848	0.43719697
128	0xbed4f988	-0.41596627
129	0xbcb4c4b1	-0.022066446
130	0xbe945b53	-0.28975925
131	0xbf0a4bb2	-0.5402175
132	0x3e8e8a29	0.27839783
133	0xbe90e5d6	-0.2830035
134	0x3e7b5c5c	0.24546951
135	0x3edcab19	0.43099287
136	0x3eee4531	0.46537164
137	0x3e952595	0.29130235
138	0xbde3b123	-0.111177705
139	0x3e85b8ff	0.26117703
140	0x3e489809	0.19589247
141	0x3f0b2321	0.5435048
142	0xbeb24c69	-0.3482392
143	0xbea252b3	-0.3170372
144	0xbeb4d038	-0.35315108
145	0x3e347393	0.17622213
146	0xbf0af573	-0.54280776
147	0x3ee3ccb0	0.44492102
148	0xbe9dafa4	-0.30798066
149	0xbee1c2dd	-0.4409398
150	0x3da44667	0.08021241
151	0x3eec404e	0.4614281
152	0x3dd896dd	0.1057565
153	0x3ed4ffd1	0.41601422
154	0x3ed55c2b	0.4167188
155	0x3ea2d314	0.31801665
156	0x3ef89c70	0.48556852
157	0xbe173d2a	-0.14769426
158	0xbf08dc1f	-0.5346088
159	0x3ebf4a7a	0.3736151
160	0xbec2fa99	-0.38081816
161	0xbe365cd2	-0.17808846
162	0xbe278359	-0.16358699
163	0xbf04da4e	-0.51895607
164	0x3eb33f33	0.35009155
165	0x3ec1c5a0	0.37846088
166	0xbebd43b9	-0.3696573
167	0x3eef2f85	0.46715942
168	0xbed56972	-0.4168201
169	0xbf01153f	-0.50423044
170	0xbe714c41	-0.23564245
171	0xbed7bcf6	-0.42136353
172	0xbeeed9e0	-0.466506
173	0x3dbaa250	0.0911299
174	0x3e776b5b	0.24162047
175	0x3cae3b84	0.021268614
176	0xbeafd9a0	-0.34345722
177	0x3e705f0a	0.23473755
178	0xbe3445fc	-0.17604822
179	0xbed10a2a	-0.40828067
180	0x3efde1da	0.49586374
181	0x3e5e0d7b	0.2168483
182	0x3db5757b	0.08860298
183	0x3dbbc9d5	0.09169356
184	0x3e9e1f45	0.30883232
185	0x3dd01608	0.10160452
186	0x3c9794d0	0.018503577
187	0xbeafe39d	-0.34353343
188	0xbd6fb8f5	-0.058526
189	0xbe8cb5ff	-0.27482602
190	0x3d9bfd26	0.076166436
191	0xbed5878f	-0.41704985
192	0xbf070578	-0.5274272
193	0xbd5d0edb	-0.053969245
194	0x3e8a6d1f	0.27036378
195	0xbd81a80d	-0.06330881
196	0x3d634e8d	0.055494834
197	0x3f2b287f	0.6685867
198	0xbc90524d	-0.01761737
199	0xbdaf1ee8	-0.08550817
200	0xbee6618a	-0.4499629
201	0x3d0e15c4	0.034688726
202	0x3dd0b154	0.10190073
203	0xbe5d8787	-0.21633731
204	0xbee6c11b	-0.45069203
205	0xbe971928	-0.2951138
206	0xbd2575b9	-0.040395472
207	0x3f035ea4	0.51316285
208	0x3f009d8e	0.5024041
209	0x3e1273a9	0.14301933
210	0x3e40d5d0	0.18831563
211	0xbeb356e5	-0.35027233
212	0xbe668335	-0.22510989
213	0x3d8b8eb1	0.068143256
214	0xbe3f0ad0	-0.18656468
215	0xbd0cbea3	-0.034361493
216	0x3c41cfda	0.011829341
217	0x3ea5f64a	0.32414466
218	0xbcaac2df	-0.020844875
219	0xbe7108e9	-0.23538555
220	0xbe265623	-0.16243796
221	0xbe806734	-0.25078738
222	0xbf081000	-0.53149414
223	0xbbed9a36	-0.0072510494
224	0x3d56e2ab	0.05246226
225	0xbe595ca9	-0.21226753
226	0x3e5fcff5	0.21856673
227	0x3e089261	0.13337089
228	0x3e929861	0.2863188
229	0xbcd8ac7c	-0.026449434
230	0xbe04f170	-0.12982726
231	0x3eda161d	0.42594996
232	0x3ef29812	0.47381645
233	0x3ece5c86	0.40304965
234	0xbede540e	-0.43423504
235	0xbda0f39d	-0.078589655
236	0x3d175a61	0.036951426
237	0x3ebb1751	0.36541227
238	0xbd10f68c	-0.035391375
239	0xbea6a57a	-0.32548124
240	0x3edf9409	0.4366763
241	0xbe0a7cd0	-0.13524175
242	0xbee34b7f	-0.44393536
243	0x3ec50d10	0.38486528
244	0xbe74f986	-0.2392331
245	0xbc4b2afa	-0.012400383
246	0xbd271653	-0.040792774
247	0x3df96c7c	0.12178895
248	0xbeb3ff96	-0.35155934
249	0x3da84164	0.08215597
250	0x3eaf91a4	0.34290802
251	0x3d8aca90	0.06776917
252	0xbd0bcf03	-0.03413297
253	0x3eb88a9a	0.36043245
254	0x3e2ab3c9	0.16670145
255	0x3c3b21c9	0.011421629

feature_exact.op_attention_blocks.0.attention_2.a f4 [64, 1]
0	0x3e267b1e	0.16257903
1	0xbe924f11	-0.28575948
2	0xbea87dca	-0.3290847
3	0x3e894344	0.26809132
4	0x3eb4ee58	0.35338092
5	0x3d83a830	0.064285636
6	0xbdecd1ff	-0.11563491
7	0x3ecdbbb0	0.40182257
8	0x3e10377d	0.14083667
9	0xbebc6b5e	-0.36800665
10	0xbdbb97b4	-0.091597944
11	0xbd898c20	-0.0671618
12	0xbe12a45a	-0.14320508
13	0x3d406a12	0.046976157
14	0xbdca29da	-0.09871264
15	0xbc86a4cd	-0.016436005
16	0xbd8c6d96	-0.06856839
17	0x3ea89f21	0.32933906
18	0x3ded10da	0.1157548
19	0xbe41dc0b	-0.18931596
20	0xbe98d3a9	-0.29848984
21	0x3e1456ca	0.14486232
22	0x3e61d684	0.22054487
23	0x3dfa3acd	0.122182466
24	0x3e6d1c81	0.23155405
25	0x3e43ab34	0.19108278
26	0x3e81f800	0.2538452
27	0xbc2dcc40	-0.010607779
28	0x3e7349db	0.23758642
29	0xbd58b47e	-0.052906506
30	0x3eb20bbb	0.34774575
31	0xbe6354e6	-0.22200355
32	0x3ec8e87d	0.39239874
33	0x3ecbe727	0.39824793
34	0xbecf6186	-0.40504092
35	0xbee82d0c	-0.45346868
36	0x3ee243e3	0.44192418
37	0xbed0b33d	-0.40761748
38	0x3df37e62	0.1188934
39	0xbdfe8081	-0.12426854
40	0x3ea11ab2	0.3146568
41	0x3ee45e4d	0.44603196
42	0x3cb2f7a4	0.0218466
43	0x3e89c055	0.2690455
44	0x3d6dddb1	0.05807275
45	0xbe4c675e	-0.19961306
46	0xbcea4bb4	-0.028600551
47	0x3d237f97	0.0399166
48	0xbe030929	-0.12796463
49	0x3e44e22b	0.19226901
50	0x3c0c002b	0.008544962
51	0xbd805004	-0.06265262
52	0xbe6eeb1b	-0.23331873
53	0xbeed3966	-0.46332854
54	0x3e83e2cf	0.2575898
55	0xbd0eaef1	-0.034834806
56	0xbde40c57	-0.11135166
57	0xbdb6cd7b	-0.08925911
58	0x3e8eb8e3	0.27875432
59	0x3d01dd77	0.031705346
60	0xbebcd0c4	-0.36878026
61	0x3e801955	0.25019327
62	0x3e3ed0ed	0.18634386
63	0x3e7882b9	0.24268617

feature_exact.op_attention_blocks.0.attention_3.W f4 [10, 32]
0	0x3e2ee999	0.17081298
1	0x3eeec5a1	0.46635154
2	0x3eb5d34a	0.35512763
3	0xbebfb379	-0.37441614
4	0xbee1a4be	-0.44071
5	0xbecefdcf	-0.40428016
6	0xbee26e5e	-0.44224828
7	0x3efdd99f	0.49580094
8	0xbeee8d19	-0.46592024
9	0x3ee05a03	0.43818673
10	0xbf175219	-0.59109646
11	0x3e932487	0.28738806
12	0x3ecd09d4	0.4004656
13	0x3e967d75	0.2939259
14	0xbe844698	-0.2583511
15	0xbf02df9a	-0.5112244
16	0x3e82893c	0.25495327
17	0xbf0ea016	-0.5571302
18	0x3f18f4a7	0.5974831
19	0x3e58b8c8	0.21164238
20	0xbe06f1d0	-0.13178182
21	0xbec8b30b	-0.391991
22	0x3e11557e	0.14192769
23	0x3c5fa540	0.0136502385
24	0x3dbdce3c	0.09267852
25	0x3e8e9644	0.2784902
26	0x3ee1d1a0	0.44105244
27	0x3daaa43c	0.083321065
28	0xbf0222d6	-0.50834405
29	0xbeed6407	-0.46365377
30	0x3e3e0ee4	0.18560368
31	0xbf05faff	-0.52336115
32	0x3e7beb99	0.24601592
33	0xbe684e15	-0.22686036
34	0xbefdb941	-0.495554
35	0x3e43f3fd	0.19136043
36	0x3ecc9a06	0.3996126
37	0x3e592990	0.21207261
38	0xbe874246	-0.2641775
39	0x3ef19237	0.47181866
40	0x3f093547	0.5359692
41	0x3ed898e1	0.42304137
42	0x3d3aa41b	0.04556666
43	0xbf012a8a	-0.50455534
44	0x3d547b52	0.05187542
45	0xbf0df85c	-0.5545709
46	0x3ec050ba	0.3756159
47	0x3e4ba6f3	0.19887905
48	0x3eeb242a	0.45926028
49	0x3f146bd4	0.5797703
50	0xbeafe283	-0.34352502
51	0x3f07104c	0.5275924
52	0xbb9cab2d	-0.004781148
53	0x3e2e4992	0.17020252
54	0xbe2a373e	-0.16622636
55	0x3e885aca	0.26631767
56	0xbe762d6a	-0.24040762
57	0x3ecd398f	0.40082976
58	0x3f0cf5e4	0.550627
59	0xbec8fbfa	-0.39254743
60	0xbeddc214	-0.43312132
61	0xbf06d17e	-0.5266341
62	0xbed94b5c	-0.42440307
63	0xbf06cfda	-0.52660906
64	0x3ec89324	0.3917476
65	0xbe2ef2e3	-0.17084841
66	0x3d0fa148	0.03506592
67	0x3e8dde77	0.2770879
68	0xbed7b23d	-0.42128173
69	0x3e0ff9ac	0.14060086
70	0xbd894fb7	-0.067046575
71	0xbf0ac32a	-0.54204047
72	0x3f18c583	0.5967638
73	0x3ef04cdf	0.46933648
74	0xbe560ee9	-0.20904125
75	0xb94c6426	-0.00019492264
76	0x3e659d6c	0.22423333
77	0x3c960768	0.018314078
78	0x3e91e47e	0.28494638
79	0x3e58a5d3	0.21157007
80	0x3e4a087f	0.19729804
81	0x3f14e661	0.5816403
82	0x3d88144d	0.06644497
83	0xbec2e6d3	-0.3806673
84	0xbe8abdf4	-0.27098048
85	0x3ef9a787	0.48760626
86	0x3e88e097	0.26733848
87	0xbe2f7085	-0.17132767
88	0xbe391616	-0.18074831
89	0xbe30d38e	-0.17268202
90	0xbe85439a	-0.26028138
91	0xbebebca2	-0.3725329
92	0x3e909e2d	0.2824568
93	0x3ebfda90	0.37471437
94	0xbe868eef	-0.26280925
95	0xbd5ebe1a	-0.054380514
96	0xbf16c621	-0.5889607
97	0xbdf82298	-0.12115973
98	0x3e79a505	0.24379356
99	0x3e0836bd	0.13302131
100	0xbe895fe0	-0.2683096
101	0xbe94ae16	-0.29039067
102	0x3ea53927	0.32270166
103	0xbecdf869	-0.40228584
104	0x3ea02e66	0.312854
105	0xbdf7afe5	-0.12094096
106	0x3f0a4ade	0.5402049
107	0xbecf3c75	-0.40475813
108	0x3df68aec	0.12038216
109	0xbdbe3391	-0.09287179
110	0xbe184980	-0.14871788
111	0xbeba7cf3	-0.36423454
112	0xbf11f30f	-0.57011503
113	0x3eaf9b41	0.34298137
114	0xbeb010c3	-0.34387788
115	0x3dd1da6c	0.10246739
116	0x3e9a5f7c	0.30150974
117	0xbd1e90b5	-0.038712222
118	0xbee63daa	-0.4496892
119	0x3e33feef	0.17577718
120	0x3ef020a4	0.46899903
121	0x3f10c2f5	0.5654748
122	0x3e3779fb	0.17917626
123	0x3e339766	0.17538223
124	0x3d302327	0.043002274
125	0x3f037be5	0.51360923
126	0x3ee715e0	0.45133877
127	0xbbc5b29c	-0.006033255
128	0x3eaa5ce6	0.33274
129	0x3ebf7396	0.37392873
130	0x3cf3ac93	0.029745376
131	0x3e4e4be7	0.20146142
132	0xbe5ad8fa	-0.21371832
133	0xbebee76a	-0.3728593
134	0xbeb7f915	-0.35932222
135	0xbe9f1add	-0.31075183
136	0x3f19269a	0.59824526
137	0xbe230f44	-0.15923792
138	0xbeb1c879	-0.3472326
139	0x3f06607c	0.52490973
140	0x3eeeece5	0.4666511
141	0x3df8055a	0.12110396
142	0xbe9dc62c	-0.30815256
143	0x3f0aa46a	0.54157126
144	0xbde54667	-0.11195069
145	0xbedfb541	-0.43692973
146	0xbe0b9a26	-0.13633022
147	0x3e952319	0.2912834
148	0xbe149164	-0.14508587
149	0x3f033ca5	0.5126441
150	0x3d25d562	0.0404867
151	0x3e628c10	0.22123742
152	0xbf197c30	-0.5995512
153	0xbf05c4e7	-0.52253574
154	0x3e87231f	0.26393983
155	0xbecfbeba	-0.405752
156	0x3e9326a3	0.28740415
157	0xbefa2eb2	-0.4886375
158	0xbebc3756	-0.36760968
159	0x3ef2b02a	0.47400028
160	0x3e2b93d9	0.16755618
161	0x3e2df7e7	0.16989098
162	0x3e7201f2	0.23633555
163	0xbf0be191	-0.5464106
164	0x3bda144b	0.006655251
165	0x3eeef1b0	0.46668768
166	0x3f14626b	0.57962674
167	0xbeae54fa	-0.34049207
168	0x3e291b6d	0.16514368
169	0xbee67b14	-0.45015776
170	0x3f173a30	0.5907316
171	0xbe02c472	-0.1277025
172	0xbdc89158	-0.09793347
173	0x3eafb7d6	0.34319943
174	0xbe7aa513	-0.24477033
175	0x3e555ab9	0.20835389
176	0xbddd0553	-0.10792031
177	0x3eafedaa	0.3436101
178	0x3ebd58d4	0.36981833
179	0x3db30673	0.087414645
180	0x3ed6d69c	0.4196061
181	0x3ec637a6	0.3871433
182	0x3da99dd4	0.082820565
183	0x3eb2fa33	0.34956512
184	0xbe5bcfc9	-0.21465982
185	0x3ec9748d	0.39346734
186	0xbd9bc24e	-0.0760542
187	0xbe6ed1f5	-0.2332228
188	0x3e05addf	0.13054608
189	0x3c21614d	0.0098498585
190	0x3ea4c861	0.32184127
191	0x3f029da1	0.5102177
192	0x3ee7b9ab	0.4525884
193	0xbb5d7e82	-0.0033797328
194	0x3f03322f	0.5124845
195	0x3eff2f80	0.49840927
196	0xbefec2a2	-0.49757868
197	0xbee314cf	-0.44351813
198	0xbf12783c	-0.57214713
199	0x3eab436e	0.33449882
200	0x3dbdde7f	0.092709534
201	0x3e5a4e85	0.21319015
202	0x3e6d8454	0.2319501
203	0x3e366099	0.17810287
204	0xbb2e0227	-0.0026551576
205	0xbec71107	-0.38880178
206	0xbd1d0060	-0.038330436
207	0x3d39b237	0.045335975
208	0x3f025138	0.5090518
209	0x3d7806a4	0.060553208
210	0xbec86763	-0.39141378
211	0xbe83c7ba	-0.25738317
212	0x3e564814	0.20925933
213	0xbb282c76	-0.0025661266
214	0xbee2ca68	-0.4429505
215	0x3d01eb2e	0.031718425
216	0xbf1d4855	-0.61438495
217	0xbdd9b4de	-0.10630201
218	0x3e8034c3	0.25040254
219	0xbe0fb7d1	-0.14034964
220	0x3e84438e	0.2583279
221	0xbe005912	-0.12533978
222	0x3ee6e74b	0.45098338
223	0x3d61a2a8	0.05508676
224	0xbcbb72f0	-0.022881955
225	0xbe8a112c	-0.26966226
226	0x3ea56a17	0.32307503
227	0xbea330e1	-0.3187323
228	0xbed3cf37	-0.4136903
229	0x3d800af7	0.062520914
230	0xbe9787fb	-0.29595932
231	0x398e316c	0.00027121173
232	0xbda0c5da	-0.07850237
233	0x3ecab04d	0.39587632
234	0x3ee5e3e5	0.44900432
235	0xbeee98d5	-0.46600977
236	0x3eee7e8e	0.4658093
237	0x3edd1714	0.4318167
238	0xbee6eae0	-0.4510107
239	0xbecf6206	-0.40504473
240	0x3ef6fef4	0.4824139
241	0xbe6a5b96	-0.228865
242	0xbef30248	-0.47462678
243	0xbea8060a	-0.32817107
244	0x3e7a98f0	0.24472404
245	0x3eaef0f8	0.3416822
246	0xbe0122f7	-0.12610994
247	0x3e8c3abe	0.27388567
248	0x3e21701a	0.1576542
249	0x3eb0494c	0.3443092
250	0x3eb1d23e	0.34730715
251	0x3eb5b1a4	0.35487092
252	0x3ee0a4a0	0.438756
253	0x3ecdaa8a	0.40169173
254	0x3e54e622	0.20790914
255	0xbef6843c	-0.48147762

feature_exact.op_attention_blocks.0.attention_3.a f4 [64, 1]
0	0x3e7d7895	0.2475303
1	0x3ea4abb8	0.3216226
2	0xbe712b4d	-0.23551674
3	0x3e1be780	0.15225029
4	0xbea86508	-0.3288958
5	0x3e038a8d	0.12845822
6	0x3ec6feac	0.38866174
7	0x3e536073	0.20642261
8	0xbecdd550	-0.40201807
9	0xbd59ce44	-0.053175226
10	0xbb5143ce	-0.0031931284
11	0xbeacea41	-0.33772472
12	0xbeb31ea1	-0.34984306
13	0xbe750b00	-0.23929977
14	0x3eb3699b	0.35041508
15	0xbebb114b	-0.3653663
16	0x3d09a7fe	0.033607475
17	0x3de01aa1	0.10942579
18	0xbd1f83b3	-0.038943958
19	0xbe6ebc47	-0.2331401
20	0xbeb94e8d	-0.36192742
21	0xbe55d3ad	-0.20881529
22	0x3e88225c	0.26588714
23	0x3ebd9507	0.3702776
24	0x3e5789f3	0.21048717
25	0xbeb88a71	-0.36043122
26	0x3edc1d5b	0.42991146
27	0x3e35564c	0.17708701
28	0xbe25ec42	-0.16203406
29	0xbebe5a4a	-0.3717826
30	0x3d8accf9	0.06777377
31	0x3e89307b	0.267948
32	0x3ed6c244	0.41945088
33	0x3e0d952e	0.13826439
34	0xbd051ce6	-0.032498263
35	0x3e55e506	0.20888147
36	0xbe9f0a0f	-0.31062362
37	0x3d8039fb	0.06261059
38	0xbf106839	-0.5640903
39	0xbe1cc56d	-0.15309687
40	0xbc8b0ed8	-0.016974851
41	0xbe2c845a	-0.16847363
42	0xbf16d336	-0.5891603
43	0xbe953052	-0.29138428
44	0x3ebc911b	0.36829457
45	0xbcc97d20	-0.024595797
46	0xbe1ff315	-0.15620072
47	0x3dae4cc5	0.085107364
48	0x3f0d5214	0.55203366
49	0x3cf3aaf2	0.029744599
50	0x3cb29083	0.021797424
51	0xbeb0c881	-0.34527972
52	0x3e71eaa5	0.23624666
53	0xbcada90e	-0.021198776
54	0xbe017ff2	-0.12646464
55	0xbe4335fa	-0.19063559
56	0xbec68e67	-0.3878052
57	0xbe992e28	-0.29918027
58	0xbd928328	-0.07153922
59	0xbebae315	-0.36501375
60	0xbebd497d	-0.3697013
61	0xbe0bfa1a	-0.13669625
62	0x3e8f12d1	0.27944043
63	0x3db34e74	0.08755198

feature_exact.op_attention_blocks.1.attention_0.W f4 [128, 8]
0	0x3d1a9adf	0.037745353
1	0xbe58b451	-0.21162535
2	0xbd0eab4a	-0.034831323
3	0x3e76bec6	0.24096212
4	0x3defc043	0.11706593
5	0x3e458300	0.19288254
6	0xbc4f6511	-0.012658373
7	0x3e50a9b3	0.20377235
8	0x3df5d103	0.120027564
9	0xbe88ff64	-0.26757348
10	0x3e45d6d1	0.19320227
11	0x3e153f97	0.14575039
12	0xbda374f8	-0.079812944
13	0x3e1fd8c5	0.15610035
14	0x3e8d2d85	0.2757379
15	0xbd5dc3ca	-0.054141797
16	0xbdee547e	-0.11637209
17	0x3d4e1a4c	0.050318047
18	0x3e7a92f0	0.24470115
19	0xbdbfab93	-0.09358897
20	0x3d6611ea	0.056169428
21	0x3e36e81c	0.1786198
22	0x3ddef548	0.108866274
23	0xbd916ff8	-0.071014345
24	0x3d6bc733	0.057563018
25	0xbebde022	-0.37085062
26	0xbcd43c76	-0.025907736
27	0x3deb6573	0.11493959
28	0xbe1d65d9	-0.15370883
29	0xbda88469	-0.0822838
30	0x3d975e17	0.07390993
31	0xbd0bad8b	-0.03410105
32	0x3e5c6e46	0.21526441
33	0xbe2694ba	-0.16267672
34	0xbe02e3c5	-0.127822
35	0xbd5284f3	-0.05139632
36	0x3da0e9ce	0.07857095
37	0xbe1451ee	-0.14484379
38	0x3ebe4887	0.3716471
39	0x3e4f5fdb	0.2025141
40	0xbd8f1464	-0.06986311
41	0xbd942693	-0.0723392
42	0x3e0f47f0	0.13992286
43	0xbe734acd	-0.23759003
44	0xbd0e36cf	-0.03472024
45	0xbd5d5f19	-0.05404577
46	0xbe27f0ce	-0.16400453
47	0xbd90c5cb	-0.07068976
48	0xbe4785cf	-0.19484638
49	0xbe825930	-0.2545867
50	0xbe3a1d45	-0.18175228
51	0xbe50ab2b	-0.20377795
52	0xbea078ae	-0.3134207
53	0xbe126ff0	-0.14300513
54	0xbe2934da	-0.16524068
55	0x3e92d8a0	0.28680897
56	0xbd14ff0b	-0.03637604
57	0xbe95fb2f	-0.292932
58	0xbd166e24	-0.036726132
59	0x3d14e974	0.03635545
60	0xbde2cc82	-0.11074163
61	0x3e3225bb	0.17397206
62	0xbd846921	-0.06465364
63	0x3d7f2957	0.062295284
64	0xbd8ffc1e	-0.070305094
65	0x3eac47ab	0.33648428
66	0x3e1fb095	0.15594704
67	0x3e8205e6	0.25395125
68	0x3e2ef452	0.17085388
69	0x3e1da66f	0.1539552
70	0x3e801293	0.2501417
71	0xbe548f9c	-0.20757908
72	0xbdc96230	-0.09833181
73	0xbe853913	-0.26020107
74	0xbe5e11db	-0.21686499
75	0x3e5a1079	0.21295346
76	0xbe2e4d16	-0.17021593
77	0xbe659cc5	-0.22423084
78	0x3dcb3ea1	0.09924055
79	0x3d20210f	0.039094027
80	0x3e7f7624	0.24947411
81	0x3e76522d	0.24054785
82	0x3e28e4ec	0.16493577
83	0x3e8c360c	0.27384984
84	0xbe911f83	-0.28344354
85	0xbdcfb678	-0.10142225
86	0x3cb97107	0.022636903
87	0x3e894129	0.26807526
88	0x3dc61503	0.096719764
89	0x3dad2844	0.08454946
90	0xbe4f3a7b	-0.20237152
91	0x3e151b62	0.14561227
92	0x3e69496c	0.22781914
93	0x3dea8b80	0.11452389
94	0xbe49a2fc	-0.1969108
95	0x3e28e886	0.1649495
96	0x3e555954	0.20834857
97	0xbe5f7224	-0.21820885
98	0x3d8a4b49	0.06752641
99	0xbe94d76f	-0.29070613
100	0x3e1e1121	0.15436222
101	0x3dc977f9	0.09837336
102	0xbd92bde2	-0.071651235
103	0x3c88efeb	0.016715964
104	0x3be1ca56	0.0068905754
105	0xbe505ae5	-0.20347174
106	0x3e351add	0.17686029
107	0xbce5a82d	-0.028034294
108	0x3e119741	0.14217855
109	0x3cf5e1fa	0.03001498
110	0x3db61d22	0.088922754
111	0xbe2ef82c	-0.17086858
112	0x3e6f611a	0.23376885
113	0x3dd4a0eb	0.10382255
114	0xbd377e3f	-0.044798132
115	0x3e816233	0.25270233
116	0x3dd3073b	0.103041135
117	0x3e87e8ae	0.26544708
118	0x3ea0c7c2	0.31402403
119	0xbe11b877	-0.14230524
120	0x3e3d93a0	0.18513346
121	0xbe7e6e4a	-0.2484676
122	0xbd9a0f26	-0.075224206
123	0x3e64c82c	0.22341985
124	0xbdb1c810	-0.08680737
125	0x3daa45e0	0.08314109
126	0x3d998cf9	0.074975915
127	0x3e2a8523	0.1665235
128	0x3e85bfdd	0.26122943
129	0xbe2e0cfd	-0.16997142
130	0xbc890b7a	-0.016729105
131	0xbddc45ad	-0.10755477
132	0x3e7a4040	0.24438572
133	0xbe5d8589	-0.21632971
134	0xbe701c07	-0.23448192
135	0xbe958bff	-0.2920837
136	0x3d61bad9	0.055109832
137	0xbd9f3f0f	-0.07775699
138	0x3e3ab953	0.18234758
139	0xbc914058	-0.017730877
140	0xbe02ce61	-0.1277404
141	0x3e8edbb0	0.27901983
142	0xbe6446dd	-0.22292657
143	0x3dbaa982	0.09114362
144	0xbdad3b0b	-0.08458527
145	0x3e210c61	0.15727378
146	0xbde2ccfe	-0.110742554
147	0xbe828154	-0.25489295
148	0xbe9fc832	-0.31207424
149	0x3d6daa78	0.0580239
150	0x3e42d469	0.1902634
151	0xbddf8e65	-0.109158315
152	0x3e116f3e	0.14202592
153	0x3ea5ea4e	0.32405323
154	0xbdac4584	-0.084116966
155	0xbe89067c	-0.2676276
156	0xbe841b62	-0.2580214
157	0x3e8eb552	0.2787271
158	0x3cc99a37	0.024609668
159	0x3e0f5983	0.1399899
160	0x3c28f4e2	0.010312291
161	0xbc35015f	-0.01104769
162	0xbe79111a	-0.2432293
163	0x3de5f896	0.11229055
164	0x3d6f7113	0.058457445
165	0xbd10b47c	-0.035328373
166	0xbd275813	-0.04085548
167	0x3e6c1645	0.2305537
168	0xbe761b24	-0.24033791
169	0xbe956ccc	-0.29184568
170	0x3e85ab6f	0.26107356
171	0x3e7a94a5	0.24470766
172	0x3e68195a	0.22665921
173	0xbd25ebbd	-0.04050802
174	0x3d21f600	0.039541245
175	0x3e788f32	0.24273375
176	0xbe030b86	-0.12797365
177	0xbd8640d3	-0.06555333
178	0x3d77e830	0.060524166
179	0x3e40d8b6	0.18832669
180	0xbe799eda	-0.24377003
181	0x3e08a561	0.13344337
182	0xbaa174e5	-0.0012318162
183	0x3d13e1a1	0.03610385
184	0xbcce0970	-0.025150985
185	0xbb6d77fa	-0.0036234842
186	0xbe57e573	-0.21083622
187	0xbe93110e	-0.2872395
188	0x3e848c94	0.25888503
189	0xbddb2080	-0.10699558
190	0xbe43deb7	-0.19127928
191	0xbe54ddba	-0.20787707
192	0x3e3eed87	0.18645297
193	0x3e6ab17f	0.22919272
194	0x3e25766a	0.16158453
195	0x3e0c7ef6	0.13720307
196	0x3e76879d	0.2407517
197	0x3e71d634	0.23616868
198	0xbe935474	-0.2877537
199	0x3da51a90	0.08061707
200	0xbd92c8fb	-0.0716724
201	0x3e869975	0.26288953
202	0x3e556ee1	0.20843078
203	0xbe89ac7f	-0.26889417
204	0xbe7bc823	-0.24588065
205	0x3e857a17	0.2606971
206	0x3e36dbff	0.1785736
207	0x3e5f7c2d	0.21824713
208	0x3dca7419	0.09885425
209	0xbdc3a9d2	-0.09553875
210	0x3de0e935	0.10981981
211	0x3de0c9d8	0.10975999
212	0x3d5cc2aa	0.053896584
213	0x3d0facda	0.035076953
214	0xbe8f5a3f	-0.2799854
215	0x3dd47cba	0.10375352
216	0x3e9585b1	0.2920356
217	0xbe7d8422	-0.24757436
218	0xbe98021f	-0.29689118
219	0x3e2b7128	0.16742384
220	0x3e843b41	0.25826457
221	0xbe5f566c	-0.21810311
222	0xbe26b66e	-0.16280529
223	0xbe4b9642	-0.19881538
224	0x3e978258	0.29591632
225	0xbe626039	-0.22107019
226	0xbe80f098	-0.25183558
227	0x3e3173ec	0.17329377
228	0xbdbf1d69	-0.093317814
229	0xbea50c79	-0.32236078
230	0x3e84e923	0.2595912
231	0xbdc4042a	-0.09571107
232	0xbe02379d	-0.12716527
233	0xbda25932	-0.07927169
234	0x3d1c3c57	0.038143482
235	0xbe990b4d	-0.29891434
236	0xbe2ee7ae	-0.17080566
237	0x3e58d5d7	0.21175323
238	0x3e8dd30f	0.27700087
239	0x3dadc9fd	0.08485792
240	0xbe3fdbd7	-0.18736206
241	0xbe046817	-0.12930332
242	0xbe9d13c7	-0.3067915
243	0xbe815013	-0.25256404
244	0xbc841225	-0.016121933
245	0xbe8a014a	-0.26954108
246	0xbce72494	-0.028215684
247	0x3e0b68cb	0.13614194
248	0xbd35c503	-0.04437734
249	0x3e6696ff	0.22518538
250	0x3e1365ef	0.14394353
251	0x3e2b3dce	0.16722795
252	0xbd3a9dad	-0.045560528
253	0xbe611d23	-0.21983771
254	0xbeb18e64	-0.34678948
255	0x3c069a12	0.008215444

feature_exact.op_attention_blocks.1.attention_0.a f4 [16, 1]
0	0x3e15e789	0.14639105
1	0xbee8fb76	-0.4550435
2	0xbe38811e	-0.18018004
3	0xbf4d694a	-0.80238783
4	0x3e1571e1	0.14594223
5	0xbe0b2020	-0.13586473
6	0xbf6e85f1	-0.9317313
7	0x3f4571fb	0.77127045
8	0x3f5933d3	0.848447
9	0x3e9e375b	0.30901608
10	0xbf1b6e0b	-0.6071479
11	0x3e666d2e	0.22502586
12	0x3e0ea64c	0.13930625
13	0xbeccf4a4	-0.40030396
14	0x3f364096	0.711923
15	0xbd30d21c	-0.043169126

feature_exact.op_attention_blocks.1.attention_1.W f4 [128, 8]
0	0xbe8548c7	-0.26032087
1	0xbe55dfb1	-0.20886113
2	0xbe1cde7b	-0.15319245
3	0x3e0f2e99	0.1398262
4	0xbe80bc31	-0.2514358
5	0xbd7a2b65	-0.06107654
6	0x3cdf8d86	0.027289163
7	0x3e2948f7	0.1653174
8	0x3e50e72f	0.2040069
9	0xbddfc4b1	-0.10926188
10	0xbe907745	-0.28215995
11	0xbda58ac3	-0.08083107
12	0x3db9098a	0.090350226
13	0x3c06230f	0.00818707
14	0x3da2d2d5	0.07950369
15	0xbe2b67e8	-0.16738856
16	0x3e45cda5	0.19316728
17	0xbd1dc3dc	-0.038516864
18	0xbe88ebe0	-0.26742458
19	0x3e013ebe	0.1262159
20	0x3e85a267	0.26100466
21	0x3e12c400	0.1433258
22	0xbe0a9926	-0.13534984
23	0x3e265ea4	0.1624704
24	0x3ded1cc4	0.11577752
25	0xbe5af147	-0.21381103
26	0x3e8286cc	0.25493467
27	0x3d5dc67a	0.05414436
28	0xbe9f7a44	-0.3114797
29	0x3e2c9cb5	0.16856654
30	0xbe8231c2	-0.25428587
31	0xbd111e1b	-0.0354291
32	0xbdd93cfe	-0.106073365
33	0x3e290931	0.16507412
34	0xbd80fd09	-0.062982626
35	0x3e98334b	0.29726633
36	0xbcf9b559	-0.030481981
37	0xbe52263c	-0.20522398
38	0xbdb5aec6	-0.08871226
39	0xbe3af417	-0.18257175
40	0x3e50e227	0.2039877
41	0xbd61de0b	-0.055143397
42	0xbe7c15fe	-0.24617764
43	0x3dfda10b	0.12384232
44	0xbe413774	-0.1886881
45	0x3d343da0	0.044004083
46	0x3d87a4f7	0.066232614
47	0x3d2466a7	0.04013696
48	0xbe47965f	-0.19490956
49	0xbeb925e0	-0.3616171
50	0xbddcf4af	-0.10788857
51	0xbe604692	-0.2190192
52	0xbe456bef	-0.19279455
53	0x3d1be4f6	0.03806015
54	0xbe99b8be	-0.3002376
55	0xbde61242	-0.11233951
56	0xbe067f7b	-0.13134567
57	0xbe857735	-0.2606751
58	0x3e5efcaa	0.21776071
59	0xbdb1f405	-0.08689121
60	0x3e3e4d87	0.18584262
61	0x3e495f87	0.19665347
62	0x3e88ea98	0.2674148
63	0x3da8f53b	0.08249899
64	0x3de0342f	0.10947453
65	0x3d86ac04	0.06575778
66	0x3e783b65	0.24241407
67	0x3e488dc3	0.19585328
68	0xbe29ca05	-0.1658097
69	0xbe965519	-0.293618
70	0x3e74b0f6	0.2389563
71	0x3e410bec	0.18852204
72	0x3c27f555	0.010251363
73	0xbe646928	-0.22305739
74	0xbe65f658	-0.22457254
75	0x3cc49517	0.023996873
76	0xbd12b32a	-0.035815395
77	0x3e0dd53e	0.13850877
78	0x3e881a86	0.26582736
79	0x3e958e71	0.29210237
80	0xbc542398	-0.012947939
81	0x3dae8ff7	0.08523553
82	0x3d1ab0c0	0.03776622
83	0xbe88487a	-0.26617795
84	0x3d9fa0a4	0.07794312
85	0x3dfe772b	0.12425073
86	0xbe1bae91	-0.1520331
87	0xbe660f11	-0.22466685
88	0xbe644376	-0.2229136
89	0x3d056985	0.032571334
90	0xbdc0b8e6	-0.094102666
91	0x3df42e3f	0.11922883
92	0xbe07bead	-0.13256331
93	0x3dcf9e82	0.10137655
94	0xbc3f7705	-0.011686091
95	0x3d195c58	0.03744158
96	0xbe09d448	-0.13459885
97	0xbe8aaf9b	-0.270871
98	0x3ea83541	0.3285313
99	0xbd5e1c81	-0.054226402
100	0xbe8280b9	-0.25488833
101	0xbd325cc0	-0.043545485
102	0xbdd47ce7	-0.10375386
103	0xbe6cc7f6	-0.23123154
104	0xbe6e57cc	-0.2327568
105	0xbe42a052	-0.1900647
106	0x3e3f2ce9	0.18669476
107	0x3d161238	0.03663847
108	0x3df1f734	0.118147284
109	0x3dbf6f53	0.09347405
110	0xbe558667	-0.20852052
111	0xbe0e1f0d	-0.13879032
112	0x3c9f1d66	0.019423198
113	0xbe852a1a	-0.26008683
114	0xbd9584c9	-0.073007174
115	0x3db778b3	0.089585684
116	0xbe81bb81	-0.25338367
117	0x3e1dc383	0.15406613
118	0x3e629ac2	0.22129348
119	0x3d54e2c3	0.05197407
120	0x3e42b7ae	0.1901538
121	0xbc470cb6	-0.012149027
122	0x3e9d387c	0.30707157
123	0x3db82f7b	0.08993431
124	0xbd9e42f2	-0.077276126
125	0xbe731266	-0.23737487
126	0xbd672f7b	-0.056441765
127	0x3e872e19	0.26402357
128	0xbe888ced	-0.26670018
129	0x3e571d56	0.21007285
130	0xbd1b2818	-0.037880033
131	0xbe246e19	-0.16057624
132	0x3e7169ab	0.23575465
133	0x3e6a9856	0.22909674
134	0xbeb7f4a2	-0.35928828
135	0x3e6c55f2	0.2307966
136	0x3e1d70de	0.15375087
137	0xbd99ade3	-0.075038694
138	0x3e7bfcf4	0.24608213
139	0xbe5ec550	-0.21754956
140	0x3dc9e614	0.09858337
141	0x3ea4d6a9	0.32195023
142	0x3e9e232f	0.30886218
143	0xbdc94362	-0.098273054
144	0x3e6c72c9	0.23090662
145	0x3c9b17b5	0.018932203
146	0x3d9c9589	0.07645709
147	0x3dd52f40	0.10409403
148	0x3dff017e	0.124514565
149	0x3d70a86a	0.058754362
150	0x3c85a04b	0.016311785
151	0xbd6b66f0	-0.057471216
152	0xbe990a5b	-0.29890713
153	0xbe863099	-0.26208952
154	0x3d53d9cd	0.051721383
155	0xbe57f2d5	-0.21088727
156	0x3d9957f4	0.07487479
157	0xbd3235d5	-0.04350837
158	0xbe891c77	-0.2677953
159	0xbe29278d	-0.16518994
160	0x3e389b6e	0.18028042
161	0x3e2ab475	0.16670401
162	0x3d3652bc	0.044512495
163	0x3e0f2251	0.13977934
164	0x3c8f25f1	0.017474147
165	0x3e9985a2	0.29984766
166	0xbd065b1b	-0.03280173
167	0xbdae5daa	-0.08513959
168	0x3e280d4b	0.16411321
169	0x3e1d4ac2	0.15360549
170	0xbe439fe8	-0.19103968
171	0x3e789f70	0.2427957
172	0xbda99f44	-0.08282331
173	0x3e6516e6	0.22372016
174	0x3e8d3a70	0.27583647
175	0x3e3e1301	0.18561937
176	0x3dcb3c1e	0.09923576
177	0x3e3a7b8f	0.18211196
178	0x3dcc4d5a	0.09975691
179	0x3e3562f1	0.17713524
180	0xbdc7745b	-0.0973899
181	0xbe412062	-0.1886001
182	0x3cf93a41	0.030423285
183	0x3dcc5a35	0.09978143
184	0xbe86f052	-0.26355225
185	0xbd7fe498	-0.062473863
186	0x3e9f1d0a	0.31076843
187	0xbe233cb1	-0.1594112
188	0xbe99723c	-0.29969966
189	0x3e090ee4	0.13384587
190	0x3e068ee2	0.13140443
191	0x3e822f2e	0.2542662
192	0xbe970562	-0.29496294
193	0x3de2f31b	0.11081525
194	0x3e2cf83c	0.16891569
195	0xbe2b2356	-0.16712698
196	0xbe694814	-0.22781402
197	0xbe2af450	-0.1669476
198	0xbd54a22c	-0.05191247
199	0xbc9b050c	-0.018923305
200	0xbd8cd3b7	-0.06876319
201	0x3e31534b	0.1731693
202	0x3d62f2bc	0.05540727
203	0xbe80119c	-0.25013435
204	0x3e57d783	0.21078305
205	0x3e58dc68	0.21177828
206	0x3d213349	0.03935555
207	0x3e4bad9d	0.19890447
208	0x3cff4248	0.031159535
209	0x3dee1b2b	0.11626276
210	0x3c71f0cc	0.014766883
211	0x3d08526a	0.03328172
212	0x3d3195a9	0.043355618
213	0x3b8c2a60	0.0042775124
214	0x3d94a579	0.07258124
215	0xbad91738	-0.0016562706
216	0xbe05d41e	-0.13069198
217	0x3db313a3	0.0874398
218	0xbe6db386	-0.23213014
219	0xbe002336	-0.12513432
220	0x3c871f25	0.016494343
221	0x3df19be0	0.11797309
222	0xbdaafc04	-0.083488494
223	0x3e4ff546	0.20308408
224	0xbe3c3e5c	-0.18383163
225	0xbd91684a	-0.0709997
226	0xbe20277e	-0.15640065
227	0x3e360816	0.17776522
228	0x3e6fff15	0.2343715
229	0xbe9b80ae	-0.30371612
230	0x3d0cb386	0.034350894
231	0x3e2f236d	0.17103358
232	0xbe8bff10	-0.27343035
233	0x3e1cb801	0.15304567
234	0x3d4a44dd	0.04938208
235	0x3df0bf35	0.1175522
236	0xbe4c6739	-0.19961251
237	0x3e4fdb55	0.20298512
238	0xbe072b84	-0.13200194
239	0xbe4b68c4	-0.19864184
240	0xbe375997	-0.1790527
241	0xbea49750	-0.32146692
242	0x3dbf1f9a	0.093321994
243	0xbe79d0d5	-0.2439607
244	0x3e329706	0.17440423
245	0x3e635cd6	0.22203383
246	0xbe3e3710	-0.18575692
247	0x3daabf42	0.08337261
248	0xbe825447	-0.25454924
249	0xbda40cdc	-0.08010265
250	0xbdd1b3ba	-0.10239358
251	0xbe91eeb2	-0.28502423
252	0x3e54d459	0.20784129
253	0x3da8d945	0.08244566
254	0xbec67f5c	-0.38769042
255	0xbe468af5	-0.19388945

feature_exact.op_attention_blocks.1.attention_1.a f4 [16, 1]
0	0x3f16ef44	0.5895884
1	0xbeeed643	-0.46647844
2	0xbf3d385b	-0.73914117
3	0x3e15a441	0.14613439
4	0xbda491ee	-0.080356464
5	0x3ebbd6a6	0.366872
6	0x3ed5a79f	0.41729447
7	0xbf604f2e	-0.8762082
8	0x3f5e8ccb	0.86933583
9	0xbeac70f4	-0.33679926
10	0xbf318d6f	-0.69356436
11	0x3ecc57a4	0.39910614
12	0x3edaea5d	0.4275693
13	0x3f3ab332	0.7292968
14	0x3f1f7ff3	0.6230461
15	0xbf1cf524	-0.61311555
