trained_network/SD1/15x10.pth (torch, 136969 bytes, 50 tensors)

feature_exact.op_attention_blocks.0.attention_0.W f4 [10, 32]
-0.4423015 -0.4674346 0.5620397 0.5242855 -0.57306576 0.32853982 0.39539722 0.24966294
0.58374727 -0.41499054 0.40107614 0.4580581 0.47259337 0.29139268 -0.33217984 -0.012076801
0.08711978 -0.15448926 -0.070847206 0.61626804 -0.19221365 -0.09699358 -0.10258673 0.332885
-0.29513177 0.45651028 0.18593436 -0.26577884 -0.15772812 -0.17402305 -0.38922498 0.226044
0.2343151 0.3960693 0.34380695 0.5906063 0.40335792 -0.015774721 0.455777 -0.44747502
0.42419422 0.20484419 0.48660132 0.17218433 -0.52162844 0.3252386 -0.48231637 0.44569346
-0.42686418 0.12526566 -0.40304577 -0.44652247 -0.29530993 -0.39042023 -0.4254732 0.06510595
-0.24658024 -0.40081972 -0.07457676 0.5089366 0.2393678 -0.2497999 0.4163651 -0.2980004
-0.37098286 0.4127997 0.25454083 0.22214642 0.06503889 -0.31108624 0.5028949 -0.16649787
0.5407719 0.0009948133 -0.10186851 0.0794443 -0.07916055 0.4677071 0.15304957 -0.49169132
0.5499597 0.16236965 -0.24080235 0.5123324 -0.14162242 0.10161873 0.4833478 -0.48343325
-0.330874 0.07113389 -0.32835305 0.29576173 -0.5429909 0.06644471 0.026526975 0.10295116
-0.4000211 -0.07589245 0.1459479 0.112634175 -0.04099477 0.029413784 -0.030080793 0.13689946
0.4079031 0.32554016 -0.37887448 0.048918806 0.3986984 0.36351722 -0.13939683 0.48106447
-0.37223297 -0.011839047 -0.13045928 0.26340422 -0.4187544 -0.40168002 0.23655997 -0.3489897
0.5599577 -0.482011 -0.18945865 0.068158366 0.05177201 0.15139371 0.3376074 -0.01856219
-0.32517663 -0.19638051 0.14162908 -0.39697656 0.42343527 0.39918742 -0.12899855 -0.008391937
0.47221 -0.14768338 0.3726423 0.46793783 -0.4603948 -0.24007839 0.3430702 0.060718283
-0.25909874 0.26684782 -0.18821053 -0.12445482 0.15779248 -0.02583158 0.060260676 0.32334358
-0.063299134 0.28572604 -0.3883945 0.22451687 0.46842122 -0.41757017 -0.22603253 -0.40659362
-0.005930179 0.11003331 -0.34355006 0.26261806 0.23334377 -0.16982272 0.11712077 -0.27356482
-0.024926737 0.04958587 -0.042706933 0.35220432 -0.33353007 0.15961537 -0.2571968 -0.33343378
-0.34290951 0.4267499 -0.46330175 -0.29114792 0.5231907 0.18613656 0.011618591 0.1820171
-0.5646844 0.15384762 -0.47038323 -0.32174805 -0.26673847 -0.40888238 -0.11512197 0.21149842
0.17607601 -0.27724782 0.08711547 0.42780823 -0.38048992 -0.10722969 0.17075223 -0.12032364
-0.28222352 0.051505856 0.30431628 0.40118012 -0.16540596 0.26278988 0.06727114 -0.46366987
-0.5010912 0.4964618 0.5048685 -0.29394397 -0.17709507 0.27396923 -0.3813074 -0.13578723
0.03433121 -0.15774941 -0.45196432 0.11252903 -0.09398425 0.36646628 0.2393816 -0.49757284
0.4153716 -0.46226415 0.51528037 -0.28653103 -0.3760999 -0.57357377 0.28397703 0.1905928
0.2205765 0.2298759 0.087361306 -0.4391138 0.38741952 -0.4541492 -0.0786474 0.47331485
0.23010962 -0.4624088 -0.29520392 -0.18282734 -0.23688433 0.2951848 -0.023567151 -0.166657
0.4103775 -0.43807247 0.085884914 -0.34837067 -0.11450968 -0.5398407 0.21724065 0.12529095
00000000: 5875 e2be 9753 efbe d5e1 0f3f 9337 063f
00000010: 70b4 12bf 5f36 a83e 8171 ca3e a4a7 7f3e
00000020: 7670 153f a479 d4be da59 cd3e 9786 ea3e
00000030: c2f7 f13e 6c31 953e 7a13 aabe c6dd 45bc
00000040: db6b b23d 6f32 1ebe 5718 91bd bec3 1d3f
00000050: a8d3 44be 92a4 c6bd fe18 d2bd e76f aa3e
00000060: 831b 97be b7bb e93e 9465 3e3e 2a14 88be
00000070: 7b83 21be 1933 32be 7f48 c7be 1478 673e
00000080: 4cf0 6f3e 98c9 ca3e 7707 b03e f931 173f
00000090: ee84 ce3e fd39 81bc 9a5b e93e 721b e5be
000000a0: fc2f d93e adc2 513e cf23 f93e 1751 303e
000000b0: 7189 05bf ac85 a63e 2cf2 f6be ef31 e43e
000000c0: f18d dabe a445 003e 045c cebe 989e e4be
000000d0: dd32 97be 29e5 c7be a0d7 d9be 4556 853d
000000e0: 887f 7cbe 3e38 cdbe b3bb 98bd ab49 023f
000000f0: d51c 753e 8ccb 7fbe ce2d d53e 8293 98be
00000100: 77f1 bdbe 7b5a d33e 2d53 823e 5a7a 633e
00000110: 1c33 853d b246 9fbe b8bd 003f 6b7e 2abe
00000120: 0770 0a3f 6564 823a 70a0 d0bd b1b3 a23d
00000130: ed1e a2bd 4e77 ef3e 07b9 1c3e f7be fbbe
00000140: 29ca 0c3f 3b44 263e e494 76be 3728 033f
00000150: 7805 11be 7b1d d03d 5d79 f73e 9084 f7be
00000160: 5168 a9be a5ae 913d e41d a8be 156e 973e
00000170: 7401 0bbf 2a14 883d 194f d93c 0fd8 d23d
00000180: 91cf ccbe 806d 9bbd 5e73 153e bfac e63d
00000190: 22ea 27bd 2df5 f03c ff6b f6bc 5f2f 0c3e
000001a0: add8 d03e 33ad a63e d6fb c1be 165f 483d
000001b0: 3222 cc3e ee1e ba3e 0bbe 0ebe 154e f63e
000001c0: 5295 bebe 90f8 41bc 1e97 05be ebdc 863e
000001d0: fa66 d6be 01a9 cdbe c73c 723e c7ae b2be
000001e0: 6359 0f3f 25ca f6be 7301 42be 9d96 8b3d
000001f0: e30e 543d f406 1b3e e1da ac3e bc0f 98bc
00000200: 8d7d a6be f917 49be 3707 113e 8340 cbbe
00000210: 82cc d83e 4b62 cc3e 3218 04be 567e 09bc
00000220: 82c5 f13e 503a 17be f9ca be3e 8c95 ef3e
00000230: deb8 ebbe 1cd7 75be e6a6 af3e bcb3 783d
00000240: 97a8 84be 47a0 883e 43ba 40be 2be2 febd
00000250: 5a94 213e c09c d3bc e6d3 763d 4a8d a53e
00000260: faa2 81bd af4a 923e a5db c6be c0e7 653e
00000270: e8d4 ef3e c2cb d5be 1275 67be 0a2d d0be
00000280: f251 c2bb 2559 e13d cbe5 afbe e075 863e
00000290: abf1 6e3e 02e6 2dbe 04dd ef3d b010 8cbe
000002a0: 2833 ccbc 8e1a 4b3d 77ed 2ebd 2054 b43e
000002b0: 74c4 aabe 3672 233e 4daf 83be d5b7 aabe
000002c0: d691 afbe f77e da3e e335 edbe 5711 95be
000002d0: d3ef 053f 959a 3e3e e75b 3e3c b162 3a3e
000002e0: 288f 10bf 3b8a 1d3e 12d6 f0be 29bc a4be
000002f0: f291 88be 0859 d1be 11c5 ebbd 0b93 583e
00000300: 454d 343e 6df3 8dbe 9869 b23d ae09 db3e
00000310: 93cf c2be 3d9b dbbd acd9 2e3e 3e6c f6bd
00000320: 9a7f 90be cef7 523d 58cf 9b3e 7b67 cd3e
00000330: 2e60 29be 658c 863e 74c5 893d 2366 edbe
00000340: 8347 00bf 3e30 fe3e 103f 013f d37f 96be
00000350: 6958 35be b245 8c3e b93a c3be cf0b 0bbe
00000360: e29e 0c3d 1089 21be de67 e7be 9f75 e63d
00000370: d17a c0bd 78a1 bb3e 7320 753e dec1 febe
00000380: 96ab d43e e3ad ecbe 6ae9 033f 32b4 92be
00000390: 2b90 c0be bbd5 12bf 7065 913e c22a 433e
000003a0: cede 613e 9764 6b3e 7cea b23d 86d3 e0be
000003b0: da5b c63e 3e86 e8be e311 a1bd 5356 f23e
000003c0: dba1 6b3e d9c0 ecbe f824 97be 1737 3bbe
000003d0: ce91 72be 7622 973e e60f c1bc 22a8 2abe
000003e0: 001d d23e 094b e0be 6ee4 af3d a45d b2be
000003f0: 0d84 eabd 0033 0abf 5574 5e3e 454c 003e

feature_exact.op_attention_blocks.0.attention_0.a f4 [64, 1]
0.1864033 0.48259875 0.2493264 -0.2811734 -0.108964555 -0.48801965 -0.29296154 0.32265273
0.16523845 0.37191108 -0.11306098 -0.0029862493 -0.12245515 0.014005922 -0.030884944 0.30602485
0.020015186 -0.24258608 0.18272094 -0.40193224 0.29136613 0.24115703 0.3690277 -0.32010385
-0.32577735 0.20858417 -0.3565504 -0.47791788 0.24445723 -0.18269087 0.33120945 0.3503071
0.2984286 0.06668906 0.16722645 0.45643738 -0.22601564 0.08651759 0.16732459 -0.05290585
0.36061272 0.27222964 0.20521733 -0.08554738 0.48654133 0.27831933 -0.17807855 -0.16027008
0.48114896 0.06678933 0.3305906 0.4380604 0.055825148 0.37593448 0.100286566 -0.018156148
-0.43172762 -0.030663088 0.28039208 -0.13359797 0.4475112 -0.26175576 -0.10848282 -0.25886816
00000000: 82e0 3e3e 2f17 f73e 6b4f 7f3e f6f5 8fbe
00000010: cf28 dfbd b6dd f9be 0eff 95be bd32 a53e
00000020: 4534 293e 216b be3e 848c e7bd f3b4 43bb
00000030: c4c9 fabd 1879 653c 6c02 fdbc 4aaf 9c3e
00000040: e3f6 a33c 7c68 78be 331b 3b3e 10ca cdbe
00000050: f12d 953e def1 763e 33f1 bc3e a7e4 a3be
00000060: 4acc a6be 1797 553e c68d b6be a7b1 f4be
00000070: ff52 7a3e 5113 3bbe 4994 a93e 745b b33e
00000080: a2cb 983e 4694 883d 693d 2b3e 29b2 e93e
00000090: a570 67be 2230 b13d 2357 2b3e ceb3 58bd
000000a0: 3ba2 b83e af61 8b3e 7e24 523e 7733 afbd
000000b0: f21b f93e df7f 8e3e 395a 36be d71d 24be
000000c0: 2859 f63e d8c8 883d 2c43 a93e 7449 e03e
000000d0: e9a8 643d 7c7a c03e 0b63 cd3d 34bc 94bc
000000e0: 670b ddbe 2831 fbbc 8d8f 8f3e e8cd 08be
000000f0: 3020 e53e da04 86be 3e2c debd 5e8a 84be

feature_exact.op_attention_blocks.0.attention_1.W f4 [10, 32]
-0.17775938 0.4846486 -0.2363112 -0.035129506 -0.11705421 0.37512097 -0.09595934 0.571661
0.45957065 0.21541771 0.2637261 -0.20956744 -0.20818774 0.49859896 0.47362754 0.37582734
-0.27848333 -0.08828404 0.30844805 -0.5239156 0.15800151 0.052892964 0.21581413 0.09384859
0.5640918 -0.57069457 0.29601705 -0.13914067 0.23345748 -0.42088005 0.12181502 -0.5478045
0.046176486 0.5029968 -0.41705406 -0.051437043 -0.27069405 0.4056676 -0.095907114 0.5790139
-0.22364606 -0.1321241 -0.3820114 -0.2511144 -0.5147701 -0.10338635 0.190967 -0.5137551
0.327507 0.25065312 0.359074 0.73075795 0.10552186 -0.30101186 -0.24367869 0.35840714
-0.19843036 -0.16785266 -0.2970353 -0.24636555 0.018889995 0.25808275 0.048558746 -0.41789052
-0.18130964 0.3344646 -0.13822292 0.5318629 0.18269601 0.017070008 -0.12154812 0.29948825
0.32622752 -0.06632707 0.22950096 0.21767004 -0.44944453 -0.11270631 -0.052543707 -0.47313052
-0.15964435 0.29717666 -0.3090774 0.17234287 -0.09439326 0.492146 0.51539296 0.24456315
-0.40182146 -0.4901154 0.23494856 0.07070573 0.18221876 0.23024017 0.16233282 0.0070493934
0.07951278 -0.12130469 0.20076701 0.015173563 0.19354913 0.27346912 -0.4190411 -0.059094653
-0.06396638 0.3380415 -0.41055766 0.29752964 0.015503818 0.431741 0.09515587 -0.17611277
0.35196972 0.03586639 -0.4067773 -0.16531605 0.06050142 -0.40879852 -0.37224847 0.18809463
-0.49800336 -0.08903281 -0.4213069 0.32055932 -0.36041903 0.120163165 -0.01104836 0.052277576
-0.39111525 -0.07171262 0.30330643 0.46394992 0.29781944 0.55579084 0.5384829 -0.20800251
-0.53677946 0.19712536 -0.13447039 -0.31887913 0.2783027 -0.0714302 0.021799078 0.5472371
-0.16221744 -0.11770926 -0.45251843 -0.22948867 -0.44310734 -0.35259154 0.141074 -0.040259458
0.5195149 0.28186476 0.24106178 -0.19257039 -0.38671046 0.31111193 0.13316944 0.40916303
0.0888309 0.4848324 0.13073407 0.0105468305 0.17061599 -0.26252303 0.09210118 -0.28924003
-0.34294716 -0.19086832 0.3137643 0.15023585 0.18869878 0.32454044 0.52510786 -0.15705563
0.043762773 0.13534206 0.39222148 -0.24393067 -0.12577747 -0.10031188 0.29748487 -0.09887576
-0.054588806 -0.12784955 0.25935027 0.48297545 -0.3040036 0.53926516 0.5487865 -0.18017772
-0.38314462 0.35478643 -0.23697758 -0.5170426 -0.43675712 0.19370003 -0.49755102 0.026520979
0.51451075 -0.14230588 0.17752156 -0.38856265 0.34218687 0.30493212 -0.59605825 -0.30180976
-0.27549216 0.43863752 -0.19080272 -0.4968545 0.40719777 -0.27420038 0.21462543 0.4206143
0.4314087 -0.51991224 -0.0029342282 0.035504483 0.10691264 0.540807 -0.39474958 -0.20672588
-0.08589086 0.20943426 0.4254224 -0.29040688 0.041040327 -0.23582295 0.31396213 -0.33764064
-0.39295352 0.07724635 -0.12607671 -0.3858874 0.42306998 0.27178293 -0.023092777 0.5111216
0.22375591 0.09114673 0.23815435 0.29445696 -0.31870586 -0.3937759 0.34826115 -0.33964348
0.31846255 0.45156735 0.45332876 0.36539918 -0.45508584 -0.030991955 -0.3383595 0.11072753
00000000: 8e06 36be dc23 f83e 90fb 71be f5e3 0fbd
00000010: 1eba efbd db0f c03e 5586 c4bd 6058 123f
00000020: d84c eb3e 7696 5c3e 1b07 873e d998 56be
00000030: 2b2f 55be 5d48 ff3e 4f7f f23e 716c c03e
00000040: 5e95 8ebe 43ce b4bd e7ec 9d3e 551f 06bf
00000050: 26cb 213e 4ba6 583d 61fe 5c3e b133 c03d
00000060: 5268 103f 0a19 12bf 8c8f 973e e47a 0ebe
00000070: 7a0f 6f3e 977d d7be 277a f93d ea3c 0cbf
00000080: 8e23 3d3d 66c4 003f 1c88 d5be a6af 52bd
00000090: 6998 8abe aab3 cf3e f36a c4bd 413a 143f
000000a0: 7903 65be 8a4b 07be 0097 c3be 1192 80be
000000b0: f9c7 03bf 39bc d3bd da8c 433e 7485 03bf
000000c0: ffae a73e 9b55 803e 8cd8 b73e f412 3b3f
000000d0: d81b d83d 3a1e 9abe e886 79be 2481 b73e
000000e0: 5431 4bbe 91e1 2bbe 0315 98be 4047 7cbe
000000f0: 31bf 9a3c 6c23 843e 89e5 463d bff5 d5be
00000100: 3ca9 39be f23e ab3e 4f8a 0dbe 2b28 083f
00000110: aa14 3b3e 67d6 8b3c 39ee f8bd 8656 993e
00000120: 4b07 a73e 7dd6 87bd 4d02 6b3e e5e4 5e3e
00000130: 981d e6be 91d2 e6bd 1238 57bd 2a3e f2be
00000140: cf79 23be 8a27 983e 653f 9ebe a67a 303e
00000150: 4151 c1bd 8ffa fb3e cbf0 033f c36e 7a3e
00000160: 8bbb cdbe 68f0 fabe 5b96 703e 2ace 903d
00000170: 8e97 3a3e 14c4 6b3e 933a 263e 99fe e63b
00000180: 99d7 a23d 986e f8bd de95 4d3e 899a 783c
00000190: be31 463e 2504 8c3e 8e8c d6be 3c0d 72bd
000001a0: ce00 83bd c713 ad3e 9d34 d2be ce55 983e
000001b0: ba03 7e3c 280d dd3e 15e1 c23d e856 34be
000001c0: 6035 b43e a3e8 123d 1d45 d0be 9c48 29be
000001d0: 56d0 773d 0a4e d1be 5a97 bebe e19b 403e
000001e0: 4cfa febe d556 b6bd 8ab5 d7be 5a20 a43e
000001f0: d888 b8be 1b18 f63d 2e04 35bc 0321 563d
00000200: 4240 c8be 11de 92bd fb4a 9b3e d88a ed3e
00000210: ca7b 983e 4f48 0e3f 04da 093f 9cfe 54be
00000220: 616a 09bf 3bdb 493e 9bb2 09be 2044 a3be
00000230: b17d 8e3e ff49 92bd fb93 b23c bb17 0c3f
00000240: 541c 26be 8d11 f1bd 7fb0 e7be 14ff 6abe
00000250: f7de e2be e186 b4be b475 103e 1ae7 24bd
00000260: eefe 043f 9450 903e e6d8 763e 2c31 45be
00000270: eafe c5be 104a 9f3e 925d 083e d17d d13e
00000280: faec b53d f43b f83e 27df 053e 9dcc 2c3c
00000290: f5b5 2e3e 6b69 86be 8b9f bc3d 4517 94be
000002a0: c596 afbe fc72 43be b7a5 a03e 6dd7 193e
000002b0: 413a 413e 2a2a a63e 786d 063f 31d3 20be
000002c0: 9840 333d 1c97 0a3e 41d1 c83e f6c8 79be
000002d0: cfcb 00be 5170 cdbd f04f 983e 607f cabd
000002e0: 8398 5fbd feea 02be 8fc9 843e 8f48 f73e
000002f0: 5ca6 9bbe 480d 0a3f 467d 0c3f 8280 38be
00000300: 882b c4be 91a6 b53e 40aa 72be e75c 04bf
00000310: a19e dfbe 4d59 463e 02bf febe 8642 d93c
00000320: fab6 033f a2b8 11be 36c8 353e aff1 c6be
00000330: 1e33 af3e 1020 9c3e 4697 18bf cf86 9abe
00000340: 4f0d 8dbe 1995 e03e ca61 43be b763 febe
00000350: 3a7c d03e fe63 8cbe c5c6 5b3e c25a d73e
00000360: 9ae1 dc3e f818 05bf 2e4c 40bb 266d 113d
00000370: 04f5 da3d 5472 0a3f 9e1c cabe f3af 53be
00000380: 8ce7 afbd ef75 563e f7d0 d93e 36b0 94be
00000390: e719 283d 927b 71be a5bf a03e 3cdf acbe
000003a0: 3431 c9be 5633 9e3d 411a 01be 0993 c5be
000003b0: a19c d83e 2227 8b3e 102d bdbc ddd8 023f
000003c0: 4520 653e 23ab ba3d bcde 733e 10c3 963e
000003d0: 6a2d a3be ff9c c9be 494f b23e c0e5 adbe
000003e0: 860d a33e d633 e73e b51a e83e 9a15 bb3e
000003f0: 0301 e9be d7e2 fdbc 753d adbe 1ec5 e23d

feature_exact.op_attention_blocks.0.attention_1.a f4 [64, 1]
0.10536303 0.29095024 -0.014991264 0.4292799 -0.26636428 0.15013815 0.19983475 -0.0931637
-0.114213005 0.03451651 0.2528526 -0.3096926 0.37653786 -0.1246084 -0.3512761 0.09683172
0.16139248 0.19801848 -0.105047844 0.003927827 0.38431513 0.16697353 0.3163779 -0.0218711
-0.015383621 0.017854119 0.11049552 0.06305983 -0.08334028 0.31084794 -0.2701398 -0.123789616
0.050370723 0.023456534 -0.33981788 -0.033986818 0.4040473 -0.27304617 -0.23464598 0.30495858
0.12951931 0.069494754 0.23425005 -0.31531188 0.1620608 -0.18985896 -0.05827028 -0.39429405
0.31420046 -0.24591245 0.3020609 -0.04690911 0.23382561 -0.27120835 0.36252615 -0.41441992
-0.0010996934 -0.2516034 0.07248308 0.41422263 -0.4092209 0.46953875 0.21928477 -0.20580915
00000000: 93c8 d73d 6ef7 943e eb9d 75bc 93ca db3e
00000010: e660 88be d1bd 193e 7ba1 4c3e 9ccc bebd
00000020: 82e8 e9bd 2f61 0d3d e575 813e 0790 9ebe
00000030: 92c9 c03e b032 ffbd 76da b3be b54f c63d
00000040: 1244 253e 5bc5 4a3e 5323 d7bd 00b5 803b
00000050: f4c4 c43e 1cfb 2a3e 49fc a13e 052b b3bc
00000060: 950b 7cbc cd42 923c 7a4b e23d 8325 813d
00000070: 4fae aabd 7627 9f3e c44f 8abe 6985 fdbd
00000080: 8851 4e3d eb27 c03c 9cfc adbe c335 0bbd
00000090: 4adf ce3e b5cc 8bbe 0947 70be 8823 9c3e
000000a0: b6a0 043e 4453 8e3d 3fdf 6f3e 8f70 a1be
000000b0: 44f3 253e 636a 42be d1ac 6ebd e9e0 c9be
000000c0: e2de a03e 79d0 7bbe baa7 9a3e c423 40bd
000000d0: fb6f 6f3e d2db 8abe 079d b93e d92e d4be
000000e0: 9623 90ba 29d2 80be 0272 943d fd14 d43e
000000f0: 6785 d1be 6267 f03e 308c 603e a2bf 52be

feature_exact.op_attention_blocks.0.attention_2.W f4 [10, 32]
0.076527365 -0.68739986 -0.29853502 0.49983597 -0.07221035 0.4357792 -0.20275076 0.023023682
0.18505612 -0.051395264 0.46786776 0.31275177 0.46366063 0.3225481 -0.049693167 -0.16364723
-0.3284751 0.38081977 0.22771208 0.30358794 -0.20496748 0.44979408 -0.035237107 0.5569869
-0.4520218 -0.44402137 -0.114869416 -0.37025693 0.13465314 -0.28699607 0.3972318 0.36421934
-0.35424185 -0.18462788 -0.14699298 0.28984386 -0.35450786 0.12183912 -0.09538137 -0.56609374
0.24829586 -0.40338212 0.014519598 0.19788943 -0.53900963 -0.388327 0.39740524 0.3635623
0.3248702 -0.32665247 0.123411775 0.06023918 -0.5115012 0.058998376 -0.43200952 0.22872272
-0.57251 -0.17587942 -0.14498849 0.39321992 0.31784043 -0.24853446 -0.47739488 -0.040119123
0.31195965 0.05233748 0.27771255 -0.2057283 -0.010646375 0.4855049 -0.41039604 0.1763991
0.31387672 0.05184267 -0.37689742 -0.18818748 0.19553256 -0.62362516 0.19875959 0.08262431
-0.37661958 0.45713532 -0.36495492 0.2938259 -0.15489611 -0.61494315 0.28757352 0.013211992
0.078350395 -0.28174686 0.07964962 -0.02769574 -0.29127175 0.35978544 0.022395473 0.55685186
-0.48240888 0.54131085 -0.41975 -0.34189305 0.0067435605 0.25194752 0.2544647 -0.10033878
0.491562 0.49993652 -0.35442233 0.13067497 0.34077373 -0.2397876 -0.19307879 0.19409195
-0.0868017 -0.20764375 0.29519492 0.36991632 -0.07375465 0.10822759 -0.12640671 -0.056432456
0.020297345 0.094849974 -0.5182102 0.44054613 0.47170213 0.43821007 -0.43974343 0.49411616
-0.4519277 -0.07248288 -0.24324155 -0.48484218 0.19713195 -0.25426015 0.22112732 0.41774553
0.47360277 0.22501738 -0.15434343 0.34444094 0.13626991 0.42525467 -0.3041292 -0.27599347
-0.3418587 0.16158235 -0.58938336 0.44826284 -0.30167848 -0.47854596 0.048315234 0.4711986
0.13991368 0.33424142 0.37656897 0.4274999 0.5053659 -0.13629735 -0.5056315 0.38613424
-0.37278855 -0.13209943 -0.17489691 -0.5661648 0.43612695 0.3490242 -0.30321148 0.45643064
-0.44488728 -0.500465 -0.18183438 -0.46123567 -0.43780577 0.14333585 0.2119608 0.0029183675
-0.33973408 0.22881164 -0.18833777 -0.41302022 0.49999538 0.12290901 0.049586155 0.05883989
0.29678434 0.20644753 0.019755797 -0.3586439 -0.09171321 -0.27656493 0.076144464 -0.3736508
-0.5182665 -0.12177521 0.20855248 -0.05883305 0.13059695 0.6646168 -0.02427898 -0.2985542
-0.3552226 0.03447201 0.089279614 -0.15183753 -0.40193686 -0.38687187 -0.21901406 0.575678
0.5095453 0.21669528 0.175933 -0.3608363 -0.2570496 0.08363498 -0.074195035 -0.013588773
-0.14853556 0.18109737 -0.002587085 -0.4492114 -0.3055925 -0.21901543 -0.49306026 0.024041371
0.124554545 -0.35620537 0.31776658 0.16752446 0.21817616 -0.034111436 -0.09134523 0.37962994
0.42906517 0.34640118 -0.45876116 0.017241703 0.030297304 0.34819373 -0.06289072 -0.32743734
0.5186394 -0.16567259 -0.4402912 0.3898686 -0.16209672 0.08176507 0.029210117 0.19853532
-0.3369889 0.14431073 0.295508 0.064966455 -0.043432605 0.28394634 0.13560298 0.035266615
00000000: 61ba 9c3d 70f9 2fbf 95d9 98be 80ea ff3e
00000010: 05e3 93bd 741e df3e e59d 4fbe 299c bc3c
00000020: 5a7f 3d3e d783 52bd 5d8c ef3e 0021 a03e
00000030: ed64 ed3e 0625 a53e 108b 4bbd 2493 27be
00000040: e32d a8be cffa c23e 5b2d 693e e16f 9b3e
00000050: ffe2 51be 694b e63e c954 10bd b296 0e3f
00000060: 676f e7be c556 e3be a840 ebbd 5192 bdbe
00000070: 83e2 093e 26f1 92be f761 cb3e f57a ba3e
00000080: 305f b5be 170f 3dbe 5485 16be 6a66 943e
00000090: 0e82 b5be ca86 f93d 4f57 c3bd 85eb 10bf
000000a0: 4541 7e3e 1a88 cebe 9ce3 6d3c 87a3 4a3e
000000b0: 89fc 09bf ccd2 c6be b378 cb3e d624 ba3e
000000c0: 6355 a63e fe3e a7be 50bf fc3d 5cbd 763d
000000d0: bef1 02bf 48a8 713d 5a30 ddbe 4a36 6a3e
000000e0: 0490 12bf bc19 34be dd77 14be 1f54 c93e
000000f0: fbbb a23e d17f 7ebe 1a6d f4be f353 24bd
00000100: 2db9 9f3e d35f 563d 5730 8e3e 71aa 52be
00000110: 226e 2ebc 1994 f83e 6e1f d2be f7a1 343e
00000120: 73b4 a03e fb58 543d b3f8 c0be 38b4 40be
00000130: b039 483e e6a5 1fbf a287 4b3e ef36 a93d
00000140: 48d4 c0be a40d ea3e 5fdb babe 5970 963e
00000150: 169d 1ebe ea6c 1dbf d63c 933e 1c77 583c
00000160: 2c76 a03d 2041 90be 571f a33d 2de2 e2bc
00000170: 9221 95be cc35 b83e b676 b73c d88d 0e3f
00000180: 4cfe f6be 5993 0a3f 79e9 d6be 9b0c afbe
00000190: 16f9 dc3b 44ff 803e 3249 823e 6b7e cdbd
000001a0: 04ae fb3e aef7 ff3e d876 b5be a9cf 053e
000001b0: e579 ae3e e18a 75be 72b6 45be 0ac0 463e
000001c0: 17c5 b1bd 90a0 54be ca23 973e ac65 bd3e
000001d0: ae0c 97bd 6da6 dd3d c370 01be b825 67bd
000001e0: 9e46 a63c b440 c23d 6ca9 04bf 438f e13e
000001f0: f182 f13e 125d e03e 0d26 e1be cbfc fc3e
00000200: 1163 e7be e771 94bd 5014 79be 3c3d f8be
00000210: f5dc 493e 632e 82be 336f 623e bee2 d53e
00000220: 107c f23e f56a 663e 340c 1ebe 905a b03e
00000230: 578a 0b3e fbba d93e d3b6 9bbe 044f 8dbe
00000240: 1b08 afbe d875 253e d4e1 16bf b582 e53e
00000250: 9a75 9abe fa03 f5be 32e6 453d f140 f13e
00000260: 8845 0f3e b121 ab3e a6cd c03e 44e1 da3e
00000270: a95f 013f 8891 0bbe 1171 01bf 63b3 c53e
00000280: 24de bebe 1345 07be 2d18 33be 2df0 10bf
00000290: 084c df3e 4db3 b23e 893e 9bbe 47b1 e93e
000002a0: 44c8 e3be 791e 00bf cb32 3abe 1527 ecbe
000002b0: 1428 e0be a2c6 123e 410c 593e 1542 3f3b
000002c0: a0f1 adbe 994d 6a3e 9edb 40be 6377 d3be
000002d0: 65ff ff3e b8b7 fb3d da1a 4b3d 1902 713d
000002e0: 1ef4 973e fb66 533e e9d6 a13c 2ca0 b7be
000002f0: 23d4 bbbd eb99 8dbe a1f1 9b3d 284f bfbe
00000300: 1dad 04bf 4865 f9bd c88e 553e edfa 70bd
00000310: 35bb 053e 5424 2a3f b6e4 c6bc 19dc 98be
00000320: bddf b5be 8632 0d3d 3bd8 b63d 4c7b 1bbe
00000330: abca cdbe 1214 c6be 3945 60be a25f 133f
00000340: 9071 023f 5ee5 5d3e c827 343e 89bf b8be
00000350: 019c 83be d148 ab3d 91f3 97bd 72a3 5ebc
00000360: b519 18be 9771 393e 158c 29bb 09ff e5be
00000370: 9f76 9cbe 9545 60be 6572 fcbe 69f2 c43c
00000380: 7416 ff3d 8d60 b6be 4db2 a23e 888b 2b3e
00000390: 9269 5f3e 6fb8 0bbd 3513 bbbd db5e c23e
000003a0: 6eae db3e 7f5b b13e bee2 eabe 793e 8d3c
000003b0: 0d32 f83c 7346 b23e dacc 80bd dea5 a7be
000003c0: 8dc5 043f 13a6 29be d96d e1be db9c c73e
000003d0: affc 25be 7274 a73d 0e4a ef3c d84c 4b3e
000003e0: cf89 acbe 31c6 133e d34c 973e 220d 853d
000003f0: 63e6 31bd 6a61 913e 82db 0a3e ba73 103d

feature_exact.op_attention_blocks.0.attention_2.a f4 [64, 1]
0.18562888 -0.3850435 -0.34696764 0.40328217 0.35265136 0.042903986 -0.11141438 0.24016659
0.032866944 -0.5039664 0.080763504 -0.07077728 -0.23865612 0.075386405 -0.07958996 0.10328531
0.018724166 0.30181086 0.2742751 -0.29384214 -0.25456008 0.3110177 0.07588594 -0.044181682
0.16727751 0.10531221 0.15778908 -0.13938211 0.15413277 -0.15798679 0.4818462 -0.38216734
0.33505705 0.33702362 -0.41490367 -0.45188186 0.41768157 -0.34013918 0.047589283 -0.125654
0.27531797 0.36822757 0.033613287 0.23151737 -0.027678408 -0.20298071 0.06642456 0.10869832
-0.12723404 0.22905003 0.01751609 -0.09524006 -0.24464056 -0.43407187 0.19258803 -0.03415725
-0.15453216 -0.04985785 0.25129405 -0.005422427 -0.3668118 0.19870663 0.17315191 0.19254604
00000000: 7f15 3e3e 6c24 c5be bea5 b1be 007b ce3e
00000010: b88e b43e 17bc 2f3d 392d e4bd 3bee 753e
00000020: 7d9f 063d f103 01bf 5667 a53d aef3 90bd
00000030: 4562 74be 3064 9a3d 1000 a3bd 4087 d33d
00000040: 6c63 993c f486 9a3e c96d 8c3e 7a72 96be
00000050: b355 82be b63d 9f3e 166a 9b3d daf7 34bd
00000060: cc4a 2b3e eead d73d 7693 213e 2fba 0ebe
00000070: fbd4 1d3e 4ac7 21be 8cb4 f63e 70ab c3be
00000080: 998c ab3e 5c8e ac3e 416e d4be 0f5d e7be
00000090: 5cda d53e b926 aebe fbec 423d 71ab 00be
000000a0: 7af6 8c3e 5388 bc3e 16ae 093d e412 6d3e
000000b0: d4bd e2bc 2dda 4fbe 9a09 883d 3a9d de3d
000000c0: a449 02be 178c 6a3e e77d 8f3c 380d c3bd
000000d0: 0e83 7abe ab3e debe cc35 453e 79e8 0bbd
000000e0: ae3d 1ebe bf37 4cbd 9da9 803e 9dae b1bb
000000f0: c2ce bbbe c079 4b3e bc4e 313e ca2a 453e

feature_exact.op_attention_blocks.0.attention_3.W f4 [10, 32]
0.15080924 0.4700622 0.27333042 -0.34994262 -0.6228532 -0.59086174 -0.48920763 0.47136602
-0.42608345 0.42385635 -0.7362851 0.2528448 0.4002719 0.16494526 -0.3885636 -0.5200407
0.27037197 -0.7395619 0.4778581 0.10479509 0.0012662107 -0.5444365 0.12831181 0.0011979197
-0.00021383865 0.09639397 0.504971 0.14002785 -0.6351487 -0.37163052 0.2608281 -0.3850848
0.20593803 -0.28323257 -0.59213954 0.12048577 0.50962955 0.28335246 -0.12186334 0.5413374
0.44054386 0.51361036 0.18176505 -0.5133672 0.09399457 -0.5170011 0.50995475 0.1615215
0.3767968 0.49902213 -0.1965312 0.6659515 0.14627616 0.18379192 -0.20989962 0.26305804
-0.12993367 0.41541475 0.55425566 -0.4615432 -0.42566848 -0.4880964 -0.37394983 -0.53915805
0.3752471 -0.2085769 -0.036434844 0.25655445 -0.38212377 0.09255123 0.1241718 -0.4590068
0.60226905 0.6111915 -0.14207621 -0.094900005 0.114280075 -0.040141787 0.30788723 0.14865023
0.08539568 0.38360217 0.0968859 -0.2974803 -0.22345372 0.40327775 0.2610323 -0.098793246
-0.0790624 -0.15237801 -0.12542744 -0.3509024 0.37297785 0.36397856 -0.3851061 -0.076784246
-0.59472334 -0.115733065 0.2758715 0.15417545 -0.2621795 -0.29989442 0.32180375 -0.41841117
0.38595283 -0.1475045 0.45702425 -0.3817931 0.047648877 -0.06319391 -0.18404594 -0.2427836
-0.6114861 0.33116284 -0.36713916 0.04114515 0.20428963 -0.03744415 -0.45432743 0.088400275
0.44802612 0.5466468 0.16760898 0.23865716 0.0755109 0.4832261 0.34888488 0.0076496205
0.315784 0.33649483 -0.03545117 0.18176247 -0.17535713 -0.4310448 -0.19021009 -0.22780454
0.61289847 -0.031549416 -0.3102443 0.4326422 0.3508725 0.06678902 -0.29162598 0.4894125
-0.22699256 -0.63838273 -0.09839603 0.3658969 -0.10558123 0.43108892 0.027953053 0.280373
-0.5052897 -0.51569456 0.37994277 -0.38928688 0.37258807 -0.496515 -0.49974433 0.44967887
0.16077758 0.20370314 0.25479856 -0.5778071 0.017333586 0.45957533 0.532742 -0.28708327
0.21090299 -0.4519594 0.52726144 -0.0805099 -0.12145219 0.26920745 -0.20530036 0.17260288
-0.09151221 0.45962092 0.32597217 0.06770476 0.23485506 0.46415782 0.09260659 0.4498988
-0.25498527 0.466233 -0.047130313 -0.17673431 0.1310527 -0.015742186 0.290441 0.51997304
0.41856664 -0.019472567 0.46561253 0.50827587 -0.626191 -0.5311422 -0.59812313 0.37033275
0.14122424 0.21159153 0.15274239 0.12932703 -0.018867759 -0.4985033 -0.15626991 0.046467323
0.51461744 -0.14925379 -0.50545675 -0.3916898 0.33936253 -0.16230842 -0.4787895 0.06550427
-0.7061309 -0.39740625 0.30459762 -0.07037645 0.15904896 -0.048762057 0.4431112 0.12810336
-0.021822063 -0.30688214 0.35095903 -0.3256656 -0.3282491 0.1331375 -0.21840912 -0.037268396
-0.01407023 0.38782203 0.55571043 -0.4848405 0.3925355 0.4193957 -0.33494058 -0.34092048
0.47973502 -0.09894969 -0.4708899 -0.23173147 0.42017952 0.32151362 -0.15439777 0.17784119
0.1889346 0.28835356 0.29448426 0.408188 0.39449453 0.45707667 0.29699704 -0.5294838
00000000: bd6d 1a3e feab f03e f7f1 8b3e ae2b b3be
00000010: 4f73 1fbf b742 17bf 6c79 fabe e356 f13e
00000020: 9c27 dabe b303 d93e 2e7d 3cbf e074 813e
00000030: 70f0 cc3e 69e7 283e cff1 c6be 6321 05bf
00000040: 326e 8a3e ee53 3dbf d1a9 f43e cf9e d63d
00000050: fbf6 a53a 3160 0bbf 2c64 033e 8403 9d3a
00000060: e039 60b9 346a c53d c845 013f 7663 0f3e
00000070: 1b99 22bf 5b46 bebe 438b 853e d629 c5be
00000080: 6be1 523e dc03 91be 7596 17bf 3ec1 f63d
00000090: 1577 023f 9313 913e 7d93 f9bd 1695 0a3f
000000a0: f78e e13e f87b 033f 9e20 3a3e 086c 03bf
000000b0: 3a80 c03d 2f5a 04bf 658c 023f e465 253e
000000c0: 83eb c03e d47f ff3e 7a3f 49be cc7b 2a3f
000000d0: 6bc9 153e f333 3c3e edef 56be 8baf 863e
000000e0: 550d 05be 3eb1 d43e b3e3 0d3f 644f ecbe
000000f0: 38f1 d9be c5e7 f9be 5a76 bfbe 4306 0abf
00000100: 6320 c03e 2f95 55be b43c 15bd 1b5b 833e
00000110: baa5 c3be 808b bd3d c94d fe3d f002 ebbe
00000120: 4e2e 1a3f 0c77 1c3f 6d7c 11be ef5a c2bd
00000130: ac0b ea3d b76b 24bd 65a3 9d3e c437 183e
00000140: eee3 ae3d 8167 c43e 1d6c c63d 564f 98be
00000150: 0dd1 64be 6c7a ce3e 07a6 853e 1d54 cabd
00000160: 78eb a1bd fb08 1cbe 0d70 00be 7ba9 b3be
00000170: f4f6 be3e 665b ba3e a02c c5be 0f41 9dbd
00000180: ca3f 18bf 7505 edbd 073f 8d3e 2be0 1d3e
00000190: 643c 86be c38b 99be 76c3 a43e fd39 d6be
000001a0: 9c9b c53e 6b0b 17be 15ff e93e 637a c3be
000001b0: 782b 433d cf6b 81bd 8a76 3cbe 449c 78be
000001c0: 5a8a 1cbf 2d8e a93e aaf9 bbbe d187 283d
000001d0: 4d31 513e 095f 19bd 9b9d e8be 340b b53d
000001e0: ae63 e53e 0bf1 0b3f b0a1 2b3e 8b62 743e
000001f0: 75a5 9a3d 6969 f73e 0aa1 b23e aba9 fa3b
00000200: 71ae a13e 0d49 ac3e 3f35 11bd f11f 3a3e
00000210: d290 33be e7b1 dcbe 6fc6 42be 9845 69be
00000220: eae6 1c3f f639 01bd 57d8 9ebe 4783 dd3e
00000230: 8fa5 b33e afc8 883d 0050 95be 4694 fa3e
00000240: bd70 68be 0d6d 23bf dc83 c9bd d756 bb3e
00000250: f93a d8bd b0b7 dc3e cdfd e43c 0d8d 8f3e
00000260: aa5a 01bf 8f04 04bf dc87 c23e 9c50 c7be
00000270: ddc3 be3e 3737 febe 7dde ffbe 4f3c e63e
00000280: e1a2 243e 8e97 503e f574 823e 2beb 13bf
00000290: 2aff 8d3c 754d eb3e c861 083f 94fc 92be
000002a0: f4f6 573e 3967 e7be 9bfa 063f 60e2 a4bd
000002b0: edbb f8bd 8fd5 893e 423a 52be cfbe 303e
000002c0: c16a bbbd 6f53 eb3e d3e5 a63e cba8 8a3d
000002d0: d87d 703e 18a6 ed3e 86a8 bd3d 2359 e63e
000002e0: 6e8d 82be 17b6 ee3e b70b 41bd d7f9 34be
000002f0: ae32 063e c2f5 80bc afb4 943e f41c 053f
00000300: 5e4e d63e ef84 9fbc c464 ee3e 5e1e 023f
00000310: 0e4e 20bf eff8 07bf 991e 19bf 419c bd3e
00000320: 169d 103e 73ab 583e 8068 1c3e 4e6e 043e
00000330: 8f90 9abc d33b ffbe 3805 20be 8554 3e3d
00000340: f8bd 033f fcd5 18be 9d65 01bf 918b c8be
00000350: edc0 ad3e 2e34 26be e623 f5be 1a27 863d
00000360: ffc4 34bf d578 cbbe 38f4 9b3e 8721 90bd
00000370: bbdd 223e b9ba 47bd 79df e23e 872d 033e
00000380: 2fc4 b2bc a81f 9dbe e7b0 b33e a4bd a6be
00000390: 4410 a8be 3255 083e a4a6 5fbe bfa6 18bd
000003a0: d286 66bc 9c90 c63e 0a43 0e3f 043d f8be
000003b0: 6afa c83e 08bb d63e 557d abbe 218d aebe
000003c0: d49f f53e 23a6 cabd 7b18 f1be 044b 6dbe
000003d0: c521 d73e 6f9d a43e 731a 1ebe 001c 363e
000003e0: 1278 413e 14a3 933e a4c6 963e 04fe d03e
000003f0: 30fb c93e f405 ea3e ff0f 983e 408c 07bf

feature_exact.op_attention_blocks.0.attention_3.a f4 [64, 1]
0.40301362 0.43766502 -0.14170963 0.14493962 -0.46196437 0.07784215 0.38362455 0.07879726
-0.3296249 -0.076502986 -0.08680109 -0.26194397 -0.34065568 -0.17642802 0.28577173 -0.36546454
-0.034110643 0.07925982 0.031795528 -0.3052268 -0.3865397 -0.13710482 0.4222712 0.37429518
0.11606911 -0.3783715 0.39388952 0.10870175 -0.071527615 -0.36310273 0.07815375 0.41298693
0.34843293 0.12841174 -0.0059421705 0.1593227 -0.2751017 0.0027411175 -0.5073535 -0.095808685
-0.14339317 -0.19080402 -0.61986583 -0.22609338 0.27872604 -0.011198082 -0.15805501 -0.018827563
0.55197704 -0.09258383 0.063746065 -0.3714497 0.25752902 -0.113482095 -0.097732805 -0.25278255
-0.30431637 -0.29255465 -0.06588971 -0.25142184 -0.45519558 -0.08777746 0.35619983 0.06549388
00000000: cd57 ce3e a115 e03e 541c 11be 0d6b 143e
00000010: 9886 ecbe b56b 9f3d 706a c43e 7560 a13d
00000020: 98c4 a8be 99ad 9cbd c5c4 b1bd 851d 86be
00000030: 6c6a aebe 8ca9 34be ac50 923e 2b1e bbbe
00000040: 9ab7 0bbd f952 a23d 073c 023d b046 9cbe
00000050: 88e8 c5be 3565 0cbe ee33 d83e 9ea3 bf3e
00000060: a4b5 ed3d e9b9 c1be e3ab c93e 069f de3d
00000070: 127d 92bd 9ae8 b9be 130f a03d 0673 d33e
00000080: cd65 b23e 5e7e 033e 8ab6 c2bb 7d25 233e
00000090: 21da 8cbe 52a4 333b ebe1 01bf 5837 c4bd
000000a0: a9d5 12be 2162 43be 87af 1ebf 0685 67be
000000b0: 2eb5 8e3e 2978 37bc 2cd9 21be 433c 9abc
000000c0: 5e4e 0d3f 979c bdbd 4c8d 823d a82e bebe
000000d0: d8da 833e 4d69 e8bd 2328 c8bd b76c 81be
000000e0: 5bcf 9bbe b9c9 95be 2ff1 86bd 5dba 80be
000000f0: 650f e9be abc4 b3bd d35f b63e a821 863d

feature_exact.op_attention_blocks.1.attention_0.W f4 [128, 8]
0.009805142 -0.16997932 -0.12341855 0.21758705 0.10601555 0.21734105 -0.050354052 0.19447982
0.0005709589 -0.31911522 0.20436831 0.089622326 -0.12681128 0.14246722 0.25965658 -0.03815138
-0.15570702 0.049550638 0.31825024 -0.106908694 0.103999734 0.33650452 0.06301742 -0.09120974
0.03634337 -0.26981354 0.1321648 0.13070345 -0.06981891 0.0636458 0.072710864 -0.06512123
0.088514656 -0.19329818 -0.08671724 -0.10711871 0.07466815 -0.091736 0.28593266 0.17514172
-0.030590048 -0.08785513 0.1851319 -0.23843503 -0.04039417 -0.10182893 -0.13345776 -0.035333302
-0.24034189 -0.2505715 -0.058071073 -0.18642077 -0.23569508 0.10803005 -0.22937313 0.26853907
-0.0075645205 -0.31003144 -0.0558154 0.07735341 -0.12568697 0.17288253 0.023763398 0.031332955
-0.15278983 0.25870767 0.18084882 0.21095571 0.104552545 0.329777 0.17885417 -0.20154247
-0.14302222 -0.25712553 -0.2815375 0.19068912 -0.22966886 -0.24054898 0.23373604 0.029487861
0.17606246 0.26833567 0.34129056 0.22702715 -0.22221905 0.11647654 -0.061356094 0.27038324
0.087756194 0.15738606 -0.056797147 0.13959704 0.31243122 0.25452906 -0.24952687 0.13683178
0.28412536 -0.19468534 0.029929228 -0.22344744 0.18394673 0.09706937 0.01743616 -0.012507592
-0.025323512 -0.15138951 0.27613553 -0.046441913 0.17566586 0.18584557 0.07137165 -0.20810552
0.36501405 0.06723403 -0.07097164 0.35039848 -0.0103552155 0.08742393 0.30971658 -0.038500514
0.10262853 -0.26061186 -0.059148937 0.15864219 -0.13359356 0.12635522 0.09615765 0.19135797
0.25266767 -0.23014848 -0.13564841 -0.121972755 0.15840219 -0.18582305 -0.23964581 -0.26391113
0.056912296 -0.01025383 0.27942577 -0.012446508 -0.07760644 0.3154968 -0.2415384 0.06965311
0.048240088 0.20924748 -0.10170002 -0.1516333 -0.26399013 0.017521266 0.29520178 -0.07918507
0.2288807 0.29285976 -0.064151235 -0.21417646 -0.2470845 0.29811618 0.10351423 0.17432266
0.04048436 0.058371123 -0.21864596 0.094486415 0.0530563 -0.1342939 -0.012133028 0.21578164
-0.12999965 -0.24011083 0.23280229 0.3645161 0.26397586 0.011002762 0.05451301 0.26329502
-0.09955717 -0.12886432 0.0084731495 0.21484825 -0.37663347 0.120047376 0.028917532 0.06855776
-0.07614945 0.01107889 -0.111402124 -0.33684286 0.2689297 -0.06871942 -0.23351127 -0.23365527
0.2832198 0.31325343 -0.0029019846 0.20218593 0.24665335 0.1717108 -0.19469133 0.07105192
-0.05037378 0.2571238 0.3056806 -0.2562263 -0.22599617 0.266486 0.14244884 0.24308223
0.0901425 -0.07735384 0.11227307 0.08489916 0.01263421 0.044881143 -0.25890175 0.11367842
0.27357838 -0.33789173 -0.34010407 0.20103173 0.19270533 -0.189453 -0.20549738 -0.14207616
0.16891813 -0.2205012 -0.17311192 0.10000671 -0.0867745 -0.23124653 0.2551022 -0.10454617
-0.057043385 -0.07944197 0.08461082 -0.27299294 -0.14639294 0.1517858 0.30150405 0.0914204
-0.30064952 -0.12600075 -0.3180782 -0.2995355 -0.043426275 -0.25503707 -0.021783223 0.106250346
0.0027735983 0.24563377 0.09832668 0.1399783 -0.07338425 -0.1346568 -0.43634552 -0.011204383
00000000: bfa5 203c 0f0f 2ebe ddc2 fcbd 24cf 5e3e
00000010: ae1e d93d a78e 5e3e 0d40 4ebd b825 473e
00000020: 67ac 153a 1263 a3be ed45 513e e98b b73d
00000030: d1da 01be ede2 113e b5f1 843e 9f44 1cbd
00000040: a971 1fbe 9cf5 4a3d b2f1 a23e f2f2 dabd
00000050: d0fd d43d 524a ac3e 470f 813d 2ccc babd
00000060: c9dc 143d 0025 8abe 3656 073e 20d7 053e
00000070: 37fd 8ebd bb58 823d 6fe9 943d 485e 85bd
00000080: 2c47 b53d f5ef 45be cf98 b1bd 0e61 dbbd
00000090: 9deb 983d 15e0 bbbd c465 923e 5a58 333e
000000a0: fb97 fabc 64ed b3bd 3793 3d3e 5028 74be
000000b0: 5b74 25bd b08b d0bd 27a9 08be a7b9 10bd
000000c0: 2f1c 76be e84a 80be efdb 6dbd 16e5 3ebe
000000d0: 0d5a 71be dc3e dd3d cae0 6abe f47d 893e
000000e0: ccdf f7bb 71bc 9ebe b09e 64bd 776b 9e3d
000000f0: 16b4 00be 1e08 313e 75ab c23c fc56 003d
00000100: f074 1cbe 5575 843e 6f30 393e c604 583e
00000110: a51f d63d 88d8 a83e 8c25 373e 2661 4ebe
00000120: 6b74 12be f5a5 83be af25 90be 0244 433e
00000130: 502e 6bbe 7952 76be 8058 6f3e 8790 f13c
00000140: b849 343e 4b63 893e a3bd ae3e ce79 683e
00000150: 648d 63be 418b ee3d 8750 7bbd ac6f 8a3e
00000160: 85b9 b33d d029 213e 20a4 68bd 87f2 0e3e
00000170: fcf6 9f3e a251 823e f983 7fbe a11d 0c3e
00000180: e178 913e 985b 47be 242e f53c 68cf 64be
00000190: 885c 3c3e 4ecc c63d 47d6 8e3c a5ec 4cbc
000001a0: 4173 cfbc da05 1bbe a361 8d3e e039 3ebd
000001b0: c0e1 333e 4d4e 3e3e 4d2b 923d 9d19 55be
000001c0: 1fe3 ba3e ffb1 893d 9459 91bd 6e67 b33e
000001d0: eca8 29bc 510b b33d 2c93 9e3e b7b2 1dbd
000001e0: e82e d23d eb6e 85be 2846 72bd 1973 223e
000001f0: c0cc 08be 4363 013e 4dee c43d 58f3 433e
00000200: a85d 813e 0bac 6bbe 6be7 0abe dacc f9bd
00000210: 2f34 223e 6648 3ebe b665 75be 5c1f 87be
00000220: de1c 693d aeff 27bc e510 8f3e 70ec 4bbc
00000230: 20f0 9ebd cc88 a13e d855 77be 4aa6 8e3d
00000240: 6697 453d f944 563e 1a48 d0bd c345 1bbe
00000250: b729 87be c288 8f3c b024 973e c82b a2bd
00000260: b45f 6a3e b7f1 953e b961 83bd 1351 5bbe
00000270: b803 7dbe afa2 983e 45ff d33d a481 323e
00000280: eed2 253d 8f16 6f3d bae4 5fbe 1882 c13d
00000290: 9051 593d 5784 09be 9cc9 46bc ddf5 5c3e
000002a0: a11e 05be 9ddf 75be b963 6e3e dba1 ba3e
000002b0: d827 873e ee44 343c 0949 5f3d 9bce 863e
000002c0: a1e4 cbbd 02f5 03be f7d2 0a3c 2e01 5c3e
000002d0: 1ad6 c0be 66db f53d 76e4 ec3c 0368 8c3d
000002e0: 3ef4 9bbd 3c84 353c cc26 e4bd ab76 acbe
000002f0: 27b1 893e c4bc 8cbd 941d 6fbe 5443 6fbe
00000300: 3002 913e c162 a03e 392f 3ebb d409 4f3e
00000310: b292 7c3e f5d4 2f3e 2a5d 47be ab83 913d
00000320: bd54 4ebd bba5 833e 2b82 9c3e 1830 83be
00000330: 8a6b 67be da70 883e 1cde 113e 8cea 783e
00000340: a29c b83d b16b 9ebd 6cef e53d 9cdf ad3d
00000350: b8ff 4e3c 4ad5 373d c58e 84be 3bd0 e83d
00000360: 7712 8c3e 2500 adbe 1f22 aebe 43db 4d3e
00000370: 8c54 453e f8ff 41be e86d 52be 6a7c 11be
00000380: e0f8 2c3e 11cb 61be 4044 31be 51d0 cc3d
00000390: d4b6 b1bd e4cb 6cbe c19c 823e 4d1c d6bd
000003a0: 53a6 69bd 79b2 a2bd 7048 ad3d bbc5 8bbe
000003b0: 08e8 15be bd6d 1b3e bd5e 9a3e 9e3a bb3d
000003c0: bcee 99be 5706 01be 25db a2be b85c 99be
000003d0: c0df 31bd 3894 82be bb72 b2bc c899 d93d
000003e0: 42c5 353b 6b87 7b3e 805f c93d 7956 0f3e
000003f0: 7b4a 96bd 79e3 09be ae68 dfbe 9792 37bc

feature_exact.op_attention_blocks.1.attention_0.a f4 [16, 1]
0.45351502 -0.29061782 0.09497171 -0.8465983 0.26035696 -0.15754241 -0.86215955 0.9066632
0.80487055 0.49770734 -0.48652384 0.5021071 0.23935321 -0.3054988 0.43765166 -0.079706505
00000000: 1f33 e83e dccb 94be 8780 c23d abba 58bf
00000010: 824d 853e cc52 21be 7db6 5cbf 141b 683f
00000020: ff0b 4e3f 7fd3 fe3e a719 f9be 178a 003f
00000030: 0219 753e 576a 9cbe e113 e03e 2a3d a3bd

feature_exact.op_attention_blocks.1.attention_1.W f4 [128, 8]
-0.2772585 -0.16328251 -0.27192983 0.12262073 -0.32425812 -0.11478202 -0.048776887 0.16980712
0.13173692 -0.10670477 -0.31046674 -0.13587591 0.042490598 -0.10941257 0.08802604 -0.07397501
0.087349184 -0.022485148 -0.18597196 0.029243693 0.26603347 0.22754012 -0.13155732 0.21935281
0.03388148 -0.15871708 0.41769344 0.0050449474 -0.29808697 0.25354353 -0.27444822 -0.047437187
-0.15835011 0.18016438 -0.11454468 0.2583085 -0.05609423 -0.24370787 -0.11175952 -0.14741486
0.20178486 -0.034568503 -0.17716089 0.12312326 -0.18566033 0.008224717 0.090555765 0.067187235
-0.29233456 -0.27910691 0.03994909 -0.27989066 -0.21234189 0.1511702 -0.2798846 -0.07755098
-0.045289893 -0.3157732 0.19376874 0.025021093 0.28986374 0.29093513 0.41432762 -0.013674689
-0.0020059152 0.07713091 0.27955577 0.0915801 -0.21598276 -0.18487045 0.19777459 0.2729391
-0.019538548 -0.22059384 -0.2933408 -0.027003858 -0.11326099 0.10368384 0.3556036 0.29964074
-0.115712926 0.11063748 0.19524518 -0.34092233 0.044685934 0.16179135 -0.1297139 -0.16350926
-0.27297825 0.14102662 0.07326126 0.08327237 -0.07832376 0.20083746 -0.06570519 0.026664384
-0.048380725 -0.2977804 0.28887233 0.052839268 -0.1703519 0.016156739 -0.0016416713 -0.30951992
-0.31674924 -0.11121324 0.30893874 -0.044120245 0.11965605 0.18837921 -0.24873665 -0.12981398
0.1468724 -0.33798268 -0.09932918 0.19094527 -0.36507636 0.05696969 0.19389662 0.088071905
0.14880925 0.056467935 0.26537964 0.029543312 -0.1273339 -0.2661097 -0.060868252 0.31037205
-0.17200315 0.1639295 -0.17534982 -0.087497406 0.18728691 0.26696295 -0.26503205 0.21434046
0.13598897 -0.016553506 0.3635642 -0.22977245 0.125522 0.3450468 0.28599817 -0.102760926
0.28196472 0.04222251 0.13379447 0.16854978 0.17186643 0.063099004 0.050536297 -0.077530526
-0.25690728 -0.25237083 0.12976503 -0.15412366 0.13103689 0.018962527 -0.23575076 -0.19345814
0.22365932 0.19740868 0.041376032 0.14148761 0.018627496 0.23577502 -0.0021844024 -0.13511436
0.22617029 0.15273903 -0.15953636 0.32469204 -0.03346069 0.31020373 0.25222063 0.18239321
0.13167381 0.15603612 0.09724284 0.19515456 -0.14299442 -0.18702717 0.0383574 0.11844778
-0.25184515 -0.014008762 0.3634212 -0.14655522 -0.25173578 0.1415456 0.15196292 0.20943181
-0.22615682 0.11468827 0.037126005 -0.10368723 -0.2144169 -0.17056495 -0.024522202 -0.064807184
-0.02880869 0.18821838 0.16943583 -0.20183633 0.26935568 0.24757674 0.027775418 0.18668734
0.070475936 0.1674825 -0.05500919 0.04789755 -0.010112714 -0.06299713 0.09335111 0.006054893
-0.16568777 0.035023954 -0.27484903 -0.16469213 -0.074799515 0.065366894 -0.15796714 0.34875855
-0.216234 -0.059763126 -0.20459448 0.12197306 0.19717216 -0.32315934 0.09493181 0.19752552
-0.2384622 0.13692471 0.10725356 0.16686915 -0.18058772 0.16487114 -0.088684835 -0.24107677
-0.29126072 -0.28327933 0.042455833 -0.33530527 0.082628295 0.19236146 -0.2416948 0.11668588
-0.19408678 -0.08857165 -0.22378461 -0.27459705 0.20655634 0.22376925 -0.44002938 -0.28360254
00000000: d3f4 8dbe 8833 27be 633a 8bbe 9420 fb3d
00000010: 2905 a6be d612 ebbd 46ca 47bd ebe1 2d3e
00000020: 0be6 063e 0888 dabd 7ff5 9ebe 0e23 0bbe
00000030: 9f0a 2e3d b313 e0bd ff46 b43d 3680 97bd
00000040: 21e4 b23d c632 b8bc 6f6f 3ebe 7890 ef3c
00000050: 8a35 883e 4700 693e f6b6 06be 069e 603e
00000060: 4fc7 0a3d bb86 22be eadb d53e 1650 a53b
00000070: db9e 98be 75d0 813e 7a84 8cbe 7f4d 42bd
00000080: 8826 22be 037d 383e 6796 eabd 0341 843e
00000090: 10c3 65bd 8e8e 79be 2de2 e4bd ecf3 16be
000000a0: b1a0 4e3e b497 0dbd aa69 35be 0c28 fc3d
000000b0: be1d 3ebe f7c0 063c 4d75 b93d 7699 893d
000000c0: e0ac 95be 1ae7 8ebe a8a1 233d d44d 8fbe
000000d0: 2770 59be 5ccc 1a3e 094d 8fbe 0cd3 9ebd
000000e0: e581 39bd 06ad a1be 506b 463e 09f9 cc3c
000000f0: 0569 943e 73f5 943e c022 d43e ce0b 60bc
00000100: ac75 03bb cff6 9d3d ef21 8f3e 598e bb3d
00000110: 962a 5dbe ae4e 3dbe 6c85 4a3e acbe 8b3e
00000120: 4e0f a0bc 5ae3 61be c430 96be 3237 ddbc
00000130: 61f5 e7bd 3158 d43d ad11 b63e 836a 993e
00000140: e6fa ecbd e795 e23d 5aee 473e 5f8d aebe
00000150: 9908 373d a2ac 253e b8d3 04be f96e 27be
00000160: cec3 8bbe 4869 103e 000a 963d b48a aa3d
00000170: 3568 a0bd 56a8 4d3e 7190 86bd 446f da3c
00000180: de2a 46bd ac76 98be 13e7 933e fd6d 583d
00000190: ba70 2ebe 235b 843c 592d d7ba 6579 9ebe
000001a0: f52c a2be c4c3 e3bd 382d 9e3e 6eb7 34bd
000001b0: 3b0e f53d 7be6 403e d2b4 7ebe f5ed 04be
000001c0: b865 163e 110c adbe 196d cbbd 2887 433e
000001d0: 4aeb babe 0d59 693d d68c 463e 0b5f b43d
000001e0: 7461 183e ec4a 673d d7df 873e d104 f23c
000001f0: d163 02be 883f 88be fd50 79bd 16e9 9e3e
00000200: 9821 30be 23dd 273e e78e 33be d731 b3bd
00000210: 24c8 3f3e 5eaf 883e 48b2 87be 117c 5b3e
00000220: b140 0b3e 389b 87bc 1625 ba3e 7849 6bbe
00000230: d788 003e f9a9 b03e 5a6e 923e 5274 d2bd
00000240: ae5d 903e 83f1 2c3d 6b01 093e 5098 2c3e
00000250: c1fd 2f3e 0d3a 813d 26ff 4e3d 53c8 9ebd
00000260: 5a89 83be c036 81be 20e1 043e 98d2 1dbe
00000270: 892e 063e 4d57 9b3c a668 71be e419 46be
00000280: f306 653e 8025 4a3e ea79 293d 21e2 103e
00000290: b198 983c 026f 713e 3128 0fbb 6b5b 0abe
000002a0: 2f99 673e 9f67 1c3e 805d 23be 093e a63e
000002b0: 140e 09bd 06d3 9e3e 1023 813e 49c5 3a3e
000002c0: 80d5 063e efc7 1f3e 4127 c73d 99d6 473e
000002d0: 216d 12be 0d84 3fbe a61c 1d3d c094 f23d
000002e0: d9f1 80be 0285 65bc 5812 ba3e 9212 16be
000002f0: 83e3 80be 54f1 103e 2b9c 1b3e 4b75 563e
00000300: a795 67be afe1 ea3d 7011 183d f859 d4bd
00000310: 1b90 5bbe 94a8 2ebe c9e2 c8bc a1b9 84bd
00000320: 3400 ecbc 52bc 403e 9680 2d3e 2fae 4ebe
00000330: fde8 893e c284 7d3e 4689 e33c f72a 3f3e
00000340: b055 903d 8880 2b3e 5151 61bd 3930 443d
00000350: ccaf 25bc a404 81bd de2e bf3d 2068 c63b
00000360: 0eaa 29be 4775 0f3d 03b9 8cbe 0ea5 28be
00000370: 7d30 99bd 14df 853d 23c2 21be 7b90 b23e
00000380: 726c 5dbe 2eca 74bd 3781 51be 03cd f93d
00000390: 80e7 493e 2475 a5be 9c6b c23d 2144 4a3e
000003a0: 6f2f 74be fe35 0c3e c1a7 db3d bfdf 2a3e
000003b0: fdeb 38be fbd3 283e 65a0 b5bd d4dc 76be
000003c0: 2020 95be fd09 91be 2be6 2d3d 22ad abbe
000003d0: 0639 a93d 67fa 443e d77e 77be 02f9 ee3d
000003e0: afbe 46be 0e65 b5bd cb27 65be fc97 8cbe
000003f0: 8183 533e c423 653e 884b e1be 5a34 91be

feature_exact.op_attention_blocks.1.attention_1.a f4 [16, 1]
0.52232206 -0.44440982 -0.8769118 0.4542728 -0.2848415 0.16028099 0.48805052 -0.76016784
0.7829854 -0.19836332 -0.69223934 0.5989277 0.44913778 0.8215389 0.5963758 -0.72081995
00000000: e6b6 053f af89 e3be 4b7d 60bf 7296 e83e
00000010: bfd6 91be b320 243e c2e1 f93e 5c9a 42bf
00000020: bb71 483f c11f 4bbe 9936 31bf 5353 193f
00000030: 63f5 e53e 6050 523f 16ac 183f a887 38bf

feature_exact.op_attention_blocks.1.attention_2.W f4 [128, 8]
-0.065296285 -0.15229326 -0.08537266 -0.13038334 0.07732615 0.048654802 -0.07876513 -0.2609881
0.27942297 -0.24946694 -0.047757357 0.2819483 -0.0064354423 -0.25299627 0.04673968 0.29905322
0.21987711 -0.2657814 0.23937005 0.05204842 0.05837285 0.24491967 -0.10443727 -0.08428556
0.33339763 -0.378313 0.30405945 0.24199131 0.15204032 -0.2770629 -0.011346648 0.0003428358
0.18156858 -0.20843148 -0.29627857 0.15499035 0.2525041 -0.018359158 0.26428738 -0.17205761
0.09434676 -0.06993478 0.30388936 0.05176473 0.23237155 0.22194901 0.3701477 0.099370755
0.27097467 -0.28302684 0.097252116 0.16442515 -0.06565813 0.26599097 -0.23376673 -0.20037632
0.033482883 -0.27581748 -0.23260602 0.09746123 -0.04175925 0.09958895 0.071295574 0.04386628
-0.2511248 -0.04875913 0.27891165 -0.12718873 -0.12723072 0.08325733 0.06269067 -0.1012295
-0.1161531 0.14647867 -0.025402492 -0.056328937 0.23885529 0.11574773 0.28651688 -0.059433505
0.09571069 -0.00521623 0.27106047 -0.25409964 -0.22736603 -0.28211182 -0.06970737 -0.13622977
-0.048572626 0.3028963 0.11964008 0.015623841 -0.17083496 0.16527082 -0.08541327 0.021499285
0.31047267 -0.14721718 -0.30586904 0.2902801 -0.022091057 0.0454805 0.29361364 0.026302315
-0.1193344 -0.32772446 0.11341101 0.21726546 0.18468936 -0.24794137 0.19128117 0.109865114
0.07626112 -0.04644184 0.22402237 -0.21788208 -0.27783278 0.22840326 0.1076683 -0.2872544
-0.049917378 -0.1628952 -0.21821113 -0.14262249 -0.012736142 0.065420456 0.113429554 0.28165522
0.30414706 -0.19111949 0.14367379 -0.03692391 -0.142658 0.08720276 -0.24965522 0.15710084
-0.00026408557 -0.22192419 0.2475053 -0.14246644 -0.08882116 0.046786442 -0.031300858 -0.28655177
0.2798784 0.105950266 0.2970082 0.09319856 -0.20533702 -0.07047529 0.020628564 -0.17308557
0.31639767 -0.06771294 0.17958069 -0.26116365 -0.023660105 -0.07626016 0.34285793 0.119536355
0.17461905 0.2615668 -0.09902798 0.017204829 0.22712694 0.17163111 -0.062258713 -0.25048402
0.1365244 -0.27295637 0.051271494 -0.03031849 0.11116097 -0.19835147 0.2519137 0.32668152
-0.13453843 -0.11184097 -0.05631965 -0.1206785 -0.27272245 0.1885016 -0.011390345 0.19179414
0.08140093 0.110774435 0.19841735 -0.12225989 0.026549544 0.014458503 -0.06437592 -0.23467857
-0.11918809 0.03461107 0.12095176 -0.19180402 -0.1880104 0.11047214 -0.10073889 -0.092596896
0.31473923 -0.2965898 -0.043671146 0.19233423 0.21557684 0.09090172 -0.045372743 -0.13089728
0.092830844 -0.13487482 -0.16450036 -0.18765596 -0.118984774 0.2409734 0.26769468 0.12896004
-0.28304246 0.14683819 0.02877005 -0.00063410867 -0.4126949 -0.07967749 -0.084225126 0.052041303
-0.1593277 0.06938683 -0.21359521 0.0025912568 -0.20661217 0.070893645 -0.03461906 -0.2718643
0.26487106 -0.06339312 0.058385868 0.07356364 0.2465542 -0.24594808 0.04415407 0.009477286
-0.24336958 -0.29934072 -0.27287608 0.25727743 -0.18109775 0.21223739 -0.09728479 0.28655985
0.16664016 -0.023020767 -0.14080176 0.110724196 0.14433761 0.030957881 -0.209475 0.03304213
00000000: 0fba 85bd c4f2 1bbe dcd7 aebd 3683 05be
00000010: 2c5d 9e3d 424a 473d 9d4f a1bd 3ba0 85be
00000020: 8710 8f3e 4374 7fbe 389d 43bd 875b 903e
00000030: 67e0 d2bb ba88 81be 1b72 3f3d 811d 993e
00000040: 7727 613e 8014 88be 6c1d 753e b930 553d
00000050: 5f18 6f3d 39cc 7a3e 35e3 d5bd e89d acbd
00000060: 18b3 aa3e 3eb2 c1be aead 9b3e 92cc 773e
00000070: 75b0 1b3e 30db 8dbe 4be7 39bc a4be b339
00000080: 1ded 393e 106f 55be d3b1 97be cab5 1e3e
00000090: 3848 813e f265 96bc ad50 873e df2f 30be
000000a0: e038 c13d f739 8fbd 6397 9b3e 4107 543d
000000b0: cff2 6d3e 9a46 633e 0084 bd3e e582 cb3d
000000c0: 31bd 8a3e e5e8 90be 1e2c c73d 115f 283e
000000d0: c577 86bd f82f 883e 8c60 6fbe 732f 4dbe
000000e0: 5925 093d f337 8dbe 4630 6ebe c199 c73d
000000f0: bf0b 2bbd 4bf5 cb3d 6a03 923d 21ad 333d
00000100: 6e93 80be a7b7 47bd 82cd 8e3e c33d 02be
00000110: c548 02be d282 aa3d f763 803d 6951 cfbd
00000120: ade1 edbd 81fe 153e e318 d0bc 2cb9 66bd
00000130: 7b96 743e 250d ed3d 57b2 923e 8c70 73bd
00000140: f703 c43d e9ec aabb 70c8 8a3e 5919 82be
00000150: a4d2 68be f670 90be bdc2 8ebd d17f 0bbe
00000160: 17f4 46bd 3915 9b3e dc05 f53d 24fb 7f3c
00000170: 5cef 2ebe c13c 293e 27ed aebd 451f b03c
00000180: 46f6 9e3e 1ac0 16be de9a 9cbe 989f 943e
00000190: 4ef8 b4bc c349 3a3d 8754 963e f477 d73c
000001a0: 9865 f4bd 80cb a7be 0844 e83d d67a 5e3e
000001b0: 351f 3d3e 58e4 7dbe 36df 433e f600 e13d
000001c0: ca2e 9c3d cc39 3ebd 1f66 653e 7b1c 5fbe
000001d0: 1940 8ebe 8be2 693e 3381 dc3d 0213 93be
000001e0: 2a76 4cbd 00ce 26be bd72 5fbe a10b 12be
000001f0: 40ab 50bc 29fb 853d c14d e83d 1d35 903e
00000200: 2ab9 9b3e d4b4 43be 391f 133e 873d 17bd
00000210: f014 12be 5c97 b23d 9ea5 7fbe 0bdf 203e
00000220: f774 8ab9 1840 63be 0872 7d3e b9e2 11be
00000230: dee7 b5bd 24a3 3f3d 5435 00bd eab6 92be
00000240: 394c 8f3e 74fc d83d 7511 983e e3de be3d
00000250: de43 52be 5955 90bd 3cfd a83c 583d 31be
00000260: e0fe a13e 15ad 8abd 00e4 373e 3eb7 85be
00000270: d6d2 c1bc 492e 9cbd 138b af3e 7acf f43d
00000280: 56cf 323e 15ec 853e 2ecf cabd 24f1 8c3c
00000290: f793 683e 11c0 2f3e fe02 7fbd 713f 80be
000002a0: 0dcd 0b3e f0c0 8bbe 0f02 523d 7b5e f8bc
000002b0: 5da8 e33d a61c 4bbe d5fa 803e cd42 a73e
000002c0: 71c4 09be e10c e5bd 6faf 66bd 4a26 f7bd
000002d0: 47a2 8bbe 9006 413e 929e 3abc af65 443e
000002e0: 88b5 a63d b5dd e23d eb2d 4b3e 6563 fabd
000002f0: 6e7e d93c 5be3 6c3c 86d7 83bd 944f 70be
00000300: e318 f4bd 56c4 0d3d 8eb5 f73d 4668 44be
00000310: cc85 40be 383f e23d 3150 cebd 71a3 bdbd
00000320: 8025 a13e 9eda 97be 84e0 32bd 44f3 443e
00000330: 2dc0 5c3e ae2a ba3d c5d8 39bd f009 06be
00000340: 191e be3d a01c 0abe c872 28be e228 40be
00000350: 4aae f3bd bbc1 763e 470f 893e 1a0e 043e
00000360: f1ea 90be c05c 163e 2baf eb3c 503a 26ba
00000370: bf4c d3be f42d a3bd 397e acbd 4329 553d
00000380: cd26 23be af1a 8e3d b4b8 5abe 13d2 293b
00000390: 2492 53be b030 913d b7cc 0dbd cc31 8bbe
000003a0: 2e9d 873e 41d4 81bd 0526 6f3d 89a8 963d
000003b0: b478 7c3e d0d9 7bbe e6da 343d 9e46 1b3c
000003c0: e035 79be 3043 99be 6ab6 8bbe deb9 833e
000003d0: b071 39be c254 593e 3f3d c7bd f9b7 923e
000003e0: b8a3 2a3e 0c96 bcbc 562e 10be 5ec3 e23d
000003f0: 3dcd 133e 629b fd3c 9d80 56be 2f57 073d
