trained_network/SD1/20x10.pth (torch, 136969 bytes, 50 tensors)

feature_exact.op_attention_blocks.0.attention_0.W f4 [10, 32]
000000 9e 4b ee be 20 d3 20 bf f0 cc 1a 3f 80 cf fd 3e
       -0.46542066 -0.6282215 0.6046896 0.49572372
000010 7f 90 13 bf 25 31 c3 3e aa f9 d3 3e 89 dd 5e 3e
       -0.5764236 0.38123432 0.41401416 0.21764196
000020 25 43 17 3f 94 40 de be f4 7c 93 3e 8c 73 0e 3f
       0.5908683 -0.43408644 0.2880627 0.5564506
000030 84 9c e6 3e 90 3a a3 3e 54 0e 91 be c1 47 43 3d
       0.45041287 0.31880617 -0.28331244 0.04767585
000040 1b 6e a2 3d 5a 1a 10 be 4a bb b6 bd fd c1 14 3f
       0.07931157 -0.14072552 -0.08922441 0.581085
000050 d7 25 66 be 61 1f db bd 9d 41 a2 be 1a ef 80 3e
       -0.22475372 -0.106993444 -0.31690684 0.2518242
000060 af 66 91 be 03 13 d5 3e 1a cf 08 3e b3 74 58 be
       -0.28398654 0.41616067 0.13360253 -0.21138267
000070 33 53 00 be d6 f0 95 be 44 d1 67 be 89 97 87 3e
       -0.12531738 -0.29285306 -0.22638422 0.264828
000080 c7 ac 98 3e 23 83 e0 3e 94 bc b4 3e d8 d1 01 3f
       0.2981932 0.4385005 0.35300124 0.5071082
000090 29 32 c3 3e fa c1 a4 bd 34 f3 c2 3e ea a4 d3 be
       0.38124207 -0.080448106 0.38076174 -0.41336757
0000a0 4c 0d cd 3e 3f ce 5f 3e 92 00 01 3f ad ec 2e 3e
       0.40049207 0.2185602 0.50391495 0.17082472
0000b0 a2 92 19 bf 23 9e 8f 3e c1 0f fb be 3d 2f de 3e
       -0.5998937 0.28050336 -0.49035457 0.43395415
0000c0 2c 2c dc be 9d 5d 80 3e fa f7 e1 be 16 ee 0b bf
       -0.4300245 0.2507142 -0.44134504 -0.54660165
0000d0 0d 33 a8 be 6e 3c ed be 2e 53 e7 be 3d 84 30 bd
       -0.3285145 -0.46335167 -0.4518065 -0.043094862
0000e0 74 62 74 be b4 17 b5 be f1 95 a2 bd d7 03 fd 3e
       -0.23865682 -0.35369647 -0.07938755 0.49416992
0000f0 c7 a2 47 3e 99 5b 58 be cd 66 c4 3e 18 f1 b9 be
       0.19495688 -0.21128692 0.3835968 -0.36316752
000100 29 60 f4 be 2b 4a c3 3e 6a d9 72 3e 8e 21 b3 3d
       -0.47729614 0.38142523 0.2371575 0.087466344
000110 24 f0 59 3e 52 93 de be a5 45 ec 3e 5e 14 23 be
       0.21283013 -0.4347177 0.46146885 -0.15925738
000120 87 6a f0 3e 03 02 6b bd 63 bc 57 be a1 5f fd 3d
       0.46956274 -0.057374965 -0.21067958 0.123717554
000130 aa 31 14 be 01 e5 ed 3e ba e2 36 3d 72 30 00 bf
       -0.1447207 0.4646378 0.044649817 -0.5007392
000140 d5 84 f8 3e 3f 46 b0 3d 30 2c 96 be 7f 94 d8 3e
       0.48538843 0.086071484 -0.29330587 0.42300794
000150 10 36 3c be e8 0b 27 3d 46 80 d4 3e 10 56 01 bf
       -0.18379998 0.04078284 0.41504115 -0.50521946
000160 7f 9e 92 be ff 74 83 3d ce cd db be 09 39 81 3e
       -0.28636548 0.064187996 -0.42930454 0.25238827
000170 65 67 1e bf f0 b5 b1 3d 6b ee a6 3d 77 d6 1b 3e
       -0.6187652 0.0867728 0.08150943 0.1521853
000180 81 d1 b3 be f2 10 d1 bd 23 86 d1 3d 22 8b 9a 3d
       -0.35120776 -0.1020831 0.10230663 0.07546069
000190 41 a8 46 bd d6 1f 63 3d bc 9d 65 bd 71 cd 46 3e
       -0.048500303 0.055450283 -0.05605863 0.19414307
0001a0 12 30 cf 3e 6b 33 c2 3e 20 75 f8 be 90 eb 81 3d
       0.40466362 0.37929854 -0.4852686 0.06343758
0001b0 0a 03 d6 3e 68 1e d1 3e 81 b4 63 be 2e 24 df 3e
       0.41799194 0.4084351 -0.22236826 0.4358229
0001c0 2d 46 c7 be c4 d4 b4 bb 78 eb 0d be ed 33 97 3e
       -0.38920727 -0.0055185277 -0.13859355 0.29531804
0001d0 1c 08 b2 be 52 d9 c6 be 6b 7b 53 3e e7 6b aa be
       -0.34771812 -0.38837677 0.20652549 -0.33285448
0001e0 67 19 02 3f dd 1e fb be 97 51 4b be f8 d3 0c be
       0.5082001 -0.49046984 -0.19855343 -0.13752735
0001f0 64 b9 82 3d 57 0c cb 3d 63 24 9a 3e f7 81 83 bc
       0.06383017 0.09914463 0.30105886 -0.016053183
000200 a9 25 d8 be 2f 5a 7e be 29 32 e3 3d 2c b5 07 bf
       -0.42216232 -0.2483909 0.11093552 -0.5301082
000210 41 a8 10 3f 64 20 92 3e fc fa 27 be 7a e1 d7 b9
       0.56506735 0.28540337 -0.16404337 -0.0004117599
000220 8f ad d3 3e 22 8b 4e be f4 a9 85 3e e7 f6 fd 3e
       0.41343352 -0.20170262 0.26106226 0.49602434
000230 a3 51 06 bf b5 7c 6d be 32 46 68 3e 16 30 2a 3d
       -0.5246832 -0.23192103 0.22683027 0.041549765
000240 c3 e0 a0 be 99 f1 5d 3e 2b 96 77 be d3 7e 56 be
       -0.3142148 0.21674193 -0.24178378 -0.20946817
000250 8a 9e 05 3e d3 73 bb bd 7f 2d cd bb 79 c9 a5 3e
       0.13048759 -0.09152951 -0.006261527 0.32380274
000260 80 01 f1 bc 8d 7c 8d 3e 6f 9f fa be 7e ae 20 3e
       -0.02941966 0.27634087 -0.48949763 0.15691563
000270 92 a8 cd 3e 57 3c d8 be f4 8b 2d be 05 a8 b2 be
       0.4016767 -0.42233536 -0.16947919 -0.34893814
000280 70 9e 9b bd c5 4c 27 3d c7 8b cb be 84 1b 84 3e
       -0.07598579 0.040844698 -0.3975508 0.25802243
000290 79 f9 43 3e d4 ad 1a be 3d 01 49 3e aa 3c 89 be
       0.19138135 -0.15105373 0.19629379 -0.26804096
0002a0 58 a2 01 be 66 7e 8d 3d 6d 78 0a be a8 6f ee 3e
       -0.12659585 0.06908874 -0.13522501 0.46569562
0002b0 ea 2f a6 be e6 2d fc 3d e7 1e bd be 64 cb aa be
       -0.3245843 0.12313442 -0.3693764 -0.333583
0002c0 97 5a b0 be ad 4b be 3e c9 4e 0c bf ef b8 a4 be
       -0.34444115 0.3716711 -0.54807717 -0.32172343
0002d0 4b 96 f6 3e d1 33 20 3e e5 0d 2a 3c ff 5f 73 3e
       0.4816154 0.15644766 0.010379289 0.23767088
0002e0 04 ad 0d bf 9d df 01 3e 34 8d fd be 48 85 87 be
       -0.55342126 0.12682958 -0.49521792 -0.26468873
0002f0 aa 9b 87 be 03 38 aa be 3e 50 12 be 53 9c 33 3e
       -0.2648595 -0.3324586 -0.14288422 0.17540102
000300 76 8a 0a 3e b0 79 e0 be c4 4f 36 3e 9a c1 e4 3e
       0.13529381 -0.4384284 0.17803866 0.44678956
000310 d2 a5 d0 be 54 32 2d 3d 6e 79 34 3e bd 51 50 be
       -0.4075151 0.042284325 0.17624447 -0.2034368
000320 d9 85 71 be e9 01 33 bc 59 d8 6b 3e 14 e6 fa 3e
       -0.23586215 -0.010925748 0.23031749 0.4900366
000330 08 c5 20 be 4c bf 8f 3e b8 ac f7 3d b0 e8 fc be
       -0.15700161 0.28075635 0.1209349 -0.49396276
000340 eb 37 e8 be 19 f2 0e 3f 4a 35 06 3f 3b ab 9a be
       -0.45355162 0.5583816 0.5242506 -0.30208763
000350 e9 a9 4e be e9 d8 89 3e 77 7c fb be 6c bf 8f be
       -0.20182003 0.26923302 -0.49118397 -0.2807573
000360 49 d6 c7 bc 82 af 50 be 1a 75 d9 be b9 ab d0 3d
       -0.024394171 -0.20379451 -0.42472154 0.101890035
000370 4f 7b 04 be bf 32 5b 3e b5 af 93 3e 15 7a cf be
       -0.12937663 0.21406077 0.2884499 -0.4052283
000380 0c a1 ac 3e 9b 38 ce be 5d 2d df 3e 26 5e a9 be
       0.3371662 -0.40277562 0.43589297 -0.33079642
000390 0c 23 d6 be d8 68 08 bf c2 ec e7 3e e5 6d 12 3e
       -0.41823614 -0.5328498 0.4529782 0.14299734
0003a0 21 f5 0d 3e 5d 83 06 3e ea 30 36 3d be 87 08 bf
       0.1386304 0.13136049 0.04448024 -0.53332126
0003b0 44 f4 d1 3e ca fd ed be 8c fe 85 bc 1c c3 e4 3e
       0.41006672 -0.46482688 -0.016356729 0.44680107
0003c0 5f 9a 75 3e e9 e1 da be 6f 42 a2 be 73 0f 3d be
       0.23984669 -0.4275048 -0.3169131 -0.18462925
0003d0 2f f2 a1 be 6f 2a 77 3e d9 bb fd bd 60 1c 51 bc
       -0.31630084 0.24137281 -0.12389345 -0.012763113
0003e0 ae b7 ce 3e 4a 42 de be 23 41 7c 3d e2 ac 80 be
       0.4037451 -0.4340995 0.061585557 -0.251319
0003f0 f6 48 f9 bd 9e 7b d1 be 5d 0f 9f 3e 16 4b 0d 3e
       -0.12172119 -0.40914625 0.3106641 0.13798174

feature_exact.op_attention_blocks.0.attention_0.a f4 [64, 1]
000000 18 1c 11 3e 1a ed 2b 3f 9a b6 97 3e 09 94 90 be
       0.14170873 0.67158663 0.296315 -0.28237942
000010 2f 88 ce bb 19 5a 03 bf f4 b7 66 be dc ed 87 3e
       -0.0063028554 -0.51309353 -0.2253111 0.2654866
000020 99 88 62 3e 36 e5 f0 3e 4b d0 80 bd e8 e0 89 3c
       0.2212242 0.47049874 -0.06289729 0.016830876
000030 32 5b 80 be 1c f3 95 3d c6 36 8b 3c 8e 12 aa 3e
       -0.25069577 0.0732176 0.016993891 0.3321728
000040 0a 16 2c 3d 97 8f 80 be 5b 3c 40 3e f7 0b eb be
       0.042013206 -0.2510955 0.18773024 -0.45907566
000050 ab 92 57 3e d3 e0 3c 3e a4 e6 e7 3e dd 0f de be
       0.21052043 0.18445139 0.45293152 -0.43371478
000060 e4 95 9e be d6 97 47 3e 49 95 ac be b6 e7 b9 be
       -0.30973732 0.19491515 -0.33707646 -0.36309594
000070 4b fe a9 3e 7b 7d 44 be 77 79 b8 3e 81 11 41 3e
       0.33201823 -0.19188492 0.3603017 0.18854333
000080 bf 3e aa 3e 76 89 ca bc 2e 90 07 3e ac dd 01 3f
       0.33250996 -0.02472375 0.13238594 0.5072887
000090 12 13 cd be 9f 73 00 3e 95 49 ae 3d a9 20 ba 3a
       -0.40053612 0.12544106 0.085101284 0.0014200407
0000a0 f5 37 9c 3e 06 46 93 3e 92 68 08 3e af 64 fc bd
       0.30511442 0.2876436 0.1332114 -0.12323891
0000b0 89 9c 20 3f 57 1c 8e 3e 84 ba 24 be 0d ca 01 be
       0.62738854 0.27755997 -0.16086775 -0.12674733
0000c0 1a 4b c2 3e 48 98 9d 3b 8d 51 00 3f 74 fc f7 3e
       0.37947923 0.004809413 0.50124437 0.48434794
0000d0 0d 41 25 3d a3 a4 fe 3e ed 16 cc 3d 37 ff 31 bd
       0.04034524 0.49734983 0.0996531 -0.043456282
0000e0 dc 3a bc be 18 02 83 bd 2a ba ae 3e d2 89 43 be
       -0.36763656 -0.06396884 0.34126407 -0.19095543
0000f0 db e0 df 3e 8e 71 6c be 2d bc dd bd 69 6c 87 be
       0.4372624 -0.23090193 -0.10826907 -0.26449898

feature_exact.op_attention_blocks.0.attention_1.W f4 [10, 32]
000000 05 4e 4b be d9 e3 12 3f 6f 60 13 bf 40 a5 ae bd
       -0.19853981 0.5737892 -0.5756902 -0.08527613
000010 f5 5d 56 bb f7 4f a2 3e 6a 76 a0 be fe 24 0d 3f
       -0.0032709811 0.31701633 -0.31340343 0.5513457
000020 ba 4e 06 3f ad 27 87 3e 32 b5 c5 3e b6 f7 e8 be
       0.5246388 0.26397458 0.38614804 -0.45501488
000030 33 d8 67 be cd 81 b7 3e 91 c1 06 3f 16 ae c8 3e
       -0.22641067 0.35841218 0.5263911 0.39195317
000040 fe 96 2b be 6c db e4 bd 25 a9 bc 3e ea e9 df be
       -0.16756818 -0.11174664 0.36847797 -0.4373315
000050 e7 86 82 3e 9c 7b 2e 3d 7d 98 e1 3e 64 e4 91 3d
       0.25493547 0.04259835 0.44061652 0.0712364
000060 1a 64 08 3f 09 67 21 bf 82 0f ba 3e bb a9 28 be
       0.5327774 -0.63047844 0.36339957 -0.16470997
000070 0d 1c 2e 3e 81 da 82 be d5 44 0c 3e b4 52 12 bf
       0.17002888 -0.2555733 0.13698132 -0.57157445
000080 a3 50 45 bc cc f9 fa 3e c9 48 d4 be 01 1f 81 bd
       -0.012043151 0.49018705 -0.4146178 -0.06304742
000090 09 21 a0 be 9a 88 f2 3d 40 a0 e8 bd 92 d6 08 3f
       -0.31275204 0.11842461 -0.1135869 0.5345241
0000a0 2f 91 6e bd db 9d 9d bd 31 cf d4 be a8 38 ea bd
       -0.058243927 -0.07696124 -0.41564324 -0.114365876
0000b0 84 ea 02 bf a3 14 aa bd 16 32 e1 bc e3 70 0d bf
       -0.5113909 -0.083047174 -0.027489703 -0.55250376
0000c0 cd 40 d7 3e 1f dc b2 3e 7b 1f e3 3e 8d 9e 21 3f
       0.42041627 0.34933564 0.44359955 0.63132554
0000d0 13 69 a7 3d a2 79 c5 be d2 2b 23 be a3 ee c1 3e
       0.08174338 -0.3856936 -0.15934685 0.37877378
0000e0 3b a4 00 be fc c6 95 be b4 bf 9c be ca de 91 be
       -0.12562649 -0.29253376 -0.30615008 -0.28490287
0000f0 ac f7 b7 bc d7 7b 97 3e 74 6c 3b bd 43 6b d5 be
       -0.022456966 0.2958667 -0.045757726 -0.41683397
000100 e7 f1 d1 bd 1c 71 53 3e 2e e4 bb bd 1b ef 15 3f
       -0.10251217 0.20648617 -0.09174381 0.5856797
000110 31 1e 5c 3e 8a d4 98 bd c1 bd dc bd f3 42 fc 3d
       0.21495892 -0.074624136 -0.1077838 0.12317457
000120 81 b0 07 3f 00 a1 5c 3d f2 3b 6a 3e 00 81 9a 3e
       0.530037 0.05386448 0.2287443 0.30176544
000130 f5 52 e8 be 26 14 c0 bc 71 d0 2b bd 7a 03 da be
       -0.4537579 -0.023447108 -0.041946832 -0.42580777
000140 95 85 dc bd 17 49 9c 3e 50 74 9e be ca ce 36 3e
       -0.10767666 0.30524513 -0.30948114 0.17852321
000150 27 13 3f be 5b 2f f8 3e 9b 03 f4 3e c1 18 9d 3e
       -0.1865965 0.4847363 0.47659 0.30682948
000160 fd 47 f8 be 7f 0a f1 be 6b 40 85 3e 5a a1 f8 bc
       -0.48492423 -0.4707832 0.2602571 -0.030350376
000170 e2 01 df 3d 20 7b 4d 3e 5b b8 22 3e 5e 17 e2 ba
       0.10889031 0.200665 0.15890639 -0.0017249396
000180 f3 9c 53 3d c1 d0 17 be 14 d6 6b 3e ad 3a d2 3d
       0.05166335 -0.14825727 0.23030883 0.10265098
000190 b4 5d 1d bd d1 20 89 3e 5c ac bb be 18 51 21 be
       -0.03841944 0.2678285 -0.36654937 -0.15753591
0001a0 f8 d1 c1 3c 34 75 b8 3e 3f 65 d2 be 62 d1 8c 3e
       0.023659691 0.3602692 -0.4109287 0.27503496
0001b0 fc 46 a3 3d db 17 f5 3e 59 1e e1 3c 88 e7 f6 bd
       0.079725236 0.47869763 0.027480291 -0.1205588
0001c0 2d c8 aa 3e 61 53 8f 3d 94 78 ca be 21 4e 96 be
       0.33355847 0.06998325 -0.3954512 -0.29356483
0001d0 85 21 ba 3d cf 82 cb be 17 33 c2 be 98 f1 6a 3e
       0.090884246 -0.39748237 -0.37929603 0.22943723
0001e0 e5 0c bd be b2 4f 83 3c 05 c4 e4 be 94 ca 97 3e
       -0.369239 0.016029213 -0.446808 0.29646742
0001f0 f4 b0 be be a4 37 9b 3d fa 6d 46 bd e5 12 0e 3d
       -0.3724438 0.07578972 -0.048444726 0.034685988
000200 cd da 9f be 11 7e 44 be 45 df b0 3e 47 49 05 3f
       -0.3122162 -0.19188716 0.3454534 0.5206494
000210 4e a9 97 3e 39 5a f1 3e 5f a3 09 3f 7b 34 ce be
       0.29621357 0.47139147 0.5376491 -0.40274414
000220 48 e3 a6 be f1 d4 92 3e bb 18 18 be 22 bf 79 be
       -0.32595277 0.28678086 -0.14853184 -0.24389318
000230 a9 0f 89 3e 9e 46 91 3b 90 3a 0a 3d c8 0c 15 3f
       0.2676976 0.004433467 0.033747256 0.5822263
000240 9f 2b d8 bd 19 d1 d0 bd 37 6b f0 be 74 fc 71 be
       -0.10555195 -0.10196132 -0.46956798 -0.2363146
000250 d3 8a 05 bf 79 8a b0 be de c9 cc 3d 19 32 00 3d
       -0.52164954 -0.34480646 0.099994406 0.031297777
000260 8e 59 e9 3e d2 a7 a4 3e 6d e1 74 3e 3b f0 93 be
       0.45576137 0.32159287 0.23914118 -0.2889422
000270 97 14 ec be 85 75 8c 3e 2b f2 ff 3d 14 96 d1 3e
       -0.4610946 0.2743341 0.12497362 0.40934813
000280 97 2e 14 3e 19 bf e3 3e 12 da 98 3e 4f d2 aa 3c
       0.14470898 0.44481733 0.29853874 0.020852236
000290 1e 01 ad 3c b0 33 50 bd 9e 3b 2e 3e 9e 3c b6 be
       0.021118697 -0.050830543 0.1701493 -0.35593122
0002a0 5d 18 fe be 7d 93 85 be 86 61 91 3e aa 6b 80 3e
       -0.49627963 -0.26089087 0.28394717 0.2508214
0002b0 3b f1 0c 3e e0 43 b6 3e b3 9a 0a 3f a8 2d b5 bd
       0.13763897 0.3559866 0.541423 -0.08846599
0002c0 f6 18 36 bd 1d 58 2f 3e 6a eb 87 3e fa 5a 3b be
       -0.0444574 0.17123456 0.26546794 -0.18296424
0002d0 b3 a4 75 be 33 80 80 bd d9 69 2f 3e 66 ea 69 bc
       -0.23988609 -0.06274452 0.17130221 -0.014277076
0002e0 9b 78 ec bd fd ed 0a be 34 d1 80 3e 8e 91 e4 3e
       -0.11546441 -0.13567348 0.2515961 0.446423
0002f0 49 4f 6d be 89 77 e7 3e be 19 e9 3e ca f8 11 be
       -0.23174776 0.45208386 0.45527452 -0.14255062
000300 23 3d c9 be 49 27 c4 3e c8 2c 4a be 86 7e 0f bf
       -0.39304456 0.38311222 -0.19743645 -0.56052434
000310 f9 c4 e1 be 66 85 94 3e 32 c3 14 bf 41 9e 92 bd
       -0.4409559 0.29008025 -0.58110344 -0.07159091
000320 e7 eb 0c 3f 54 34 d3 bd 29 3d 63 3e 44 26 e7 be
       0.5504746 -0.10312715 0.221913 -0.45146382
000330 97 29 84 3e 53 0f 4b 3e 2a bf ed be 61 bd 8b be
       0.2581298 0.19830064 -0.4643491 -0.27292922
000340 66 24 b7 be 0d 11 f6 3e 8b 7d 89 be d0 31 c5 be
       -0.35769957 0.48059884 -0.26853594 -0.38514566
000350 4c 8f e8 3e 57 b3 62 be 9e c9 9d 3e 6c ce fa 3e
       0.45421827 -0.22138725 0.30817884 0.48985612
000360 57 b0 cc 3e d6 71 ed be 39 c4 95 3d a8 fe a8 bc
       0.39978287 -0.46375912 0.07312817 -0.020629242
000370 8d 9c 24 3e f2 e8 27 3f 95 d1 ac be 9e e7 47 be
       0.16075344 0.6558982 -0.33753648 -0.19521949
000380 e7 e6 98 bd 75 90 64 3e e8 ef f7 3e 47 cf 9f be
       -0.07465916 0.22320731 0.4842522 -0.31212828
000390 42 8a 00 3d db 5a 0c be ac 67 a5 3e a0 14 85 be
       0.031381853 -0.13706534 0.32305658 -0.25992298
0003a0 ab b7 c4 be 6b ae 49 bc 70 16 07 be cf 23 9d be
       -0.38421378 -0.012309651 -0.13192153 -0.30691382
0003b0 4e 3d da 3e 7a 9b 97 3e b4 fb ae 3c 77 84 1d 3f
       0.42624897 0.29610807 0.021360256 0.6153025
0003c0 0f ac 2c 3e f6 a5 f6 3d 80 8a 12 3e 36 e5 d1 3e
       0.1686251 0.12043373 0.14310646 0.40995187
0003d0 8f 3b ca be 33 3f aa be 4c 6c a0 3e 44 55 a6 be
       -0.39498565 -0.33251342 0.31332624 -0.32486928
0003e0 d9 77 91 3e 70 ad ce 3e 16 2f e6 3e af b5 a4 3e
       0.2841175 0.40366697 0.449578 0.32169864
0003f0 3b ef e8 be 53 f7 b4 bd 4a 77 a5 be c4 7b 87 3d
       -0.45495018 -0.08836236 -0.32317573 0.06615403

feature_exact.op_attention_blocks.0.attention_1.a f4 [64, 1]
000000 ef 76 30 3e 0a 19 bd 3e 28 61 fa bb cb ec b1 3e
       0.1723287 0.36933166 -0.0076409765 0.3475097
000010 70 a3 a8 be fe 97 57 3e 4d 01 12 3e 58 fd b3 bd
       -0.32937193 0.21054074 0.14258309 -0.08788556
000020 6b 89 8f bd 6d b5 11 3e 66 ba f0 3d ec 53 6e be
       -0.07008632 0.14229365 0.11754303 -0.23274201
000030 3f d8 b9 3e 6c bd b1 bd 60 71 64 be 8f 79 18 3e
       0.36297795 -0.086787075 -0.22308874 0.14890121
000040 e1 f8 2c 3e fa 51 98 3e 48 55 17 be 8a a4 ac 3c
       0.16891815 0.29750043 -0.14778626 0.021074552
000050 2e 1f e5 3e 57 21 29 3e f0 89 5a 3e 37 28 38 bc
       0.4475035 0.16516624 0.21341681 -0.011240057
000060 28 3e 82 bd d8 80 cf bb 88 06 27 3d ae 0c aa 3d
       -0.063595116 -0.006332498 0.040777713 0.083032
000070 55 70 90 bd 55 46 b9 3e 67 59 a2 be 0c eb 37 be
       -0.07052676 0.36186472 -0.31708834 -0.17960757
000080 08 03 87 3b 94 d9 87 3d 32 c3 fa be c1 19 1d be
       0.0041202344 0.066332966 -0.48977047 -0.15341856
000090 47 50 a4 3e eb fd 5c be 34 90 91 be 98 90 00 3f
       0.32092497 -0.21581237 -0.2843033 0.5022063
0000a0 f6 b2 80 3e eb 7b 0e 3e 19 8a 8b 3e b6 92 01 bf
       0.25136536 0.13914458 0.27253798 -0.5061449
0000b0 29 32 1b 3e 35 bc 73 be f5 29 a6 bd 59 63 47 be
       0.15155853 -0.23802264 -0.081134714 -0.19471492
0000c0 27 b8 5e 3e fd e5 a7 be dd 7c b7 3e 14 21 55 bd
       0.21749936 -0.32792655 0.3583745 -0.0520335
0000d0 5b 95 a9 3e 15 d3 0b be 6d 18 ad 3e 80 16 d8 be
       0.33121762 -0.1365474 0.33807698 -0.42204666
0000e0 67 fd 36 3e bb 5f 9b be 81 66 e4 3d cd ab 7e 3e
       0.17870103 -0.30346474 0.111523636 0.24870224
0000f0 80 fa 82 be d8 dd 9b 3e ee e5 bb 3d 55 fd 99 be
       -0.2558174 0.3044269 0.09174715 -0.3007609

feature_exact.op_attention_blocks.0.attention_2.W f4 [10, 32]
000000 69 1c 96 3c b4 65 23 bf 03 c7 7c be 31 13 e8 3e
       0.018324094 -0.6382706 -0.24685292 0.45327142
000010 94 7b 22 be 9a 71 08 3f 63 62 85 be 15 75 b3 3d
       -0.15867454 0.5329834 -0.26051626 0.08762566
000020 c5 d2 25 3e 71 4d 84 bd 09 df 11 3f 6c 44 9e 3e
       0.16193683 -0.06460083 0.5698095 0.30911577
000030 a8 b7 b1 3e 53 ce ba 3e c8 54 1c 3c 1f 25 77 be
       0.3471043 0.36485538 0.009541698 -0.24135254
000040 24 29 b5 be c5 22 b8 3e c1 9b 3f 3e fd 40 dc 3e
       -0.3538295 0.35964027 0.18711759 0.43018332
000050 fe c5 58 be cd 1a e6 3e a6 e5 a5 bd a2 5f ce 3e
       -0.21169278 0.44942322 -0.081004426 0.40307337
000060 ea ef d6 be 91 af 02 bf c1 b5 b7 bd 3e 92 7e be
       -0.41979915 -0.51049143 -0.08970214 -0.24860474
000070 25 ed 25 3e fe ef c0 be 91 ee 8c 3e 5e 57 b6 3e
       0.16203745 -0.376831 0.27525762 0.3561353
000080 53 73 64 be db a9 c2 bd ce b3 87 bd 4d e5 b2 3e
       -0.22309618 -0.095050536 -0.06626092 0.34940568
000090 1f 44 db be e2 39 4b 3e f5 34 dd bd 85 f5 1d bf
       -0.4282541 0.198463 -0.108011164 -0.6170276
0000a0 d7 2a 79 3e 34 91 a7 be 4f b6 8a 3e d7 7b 61 3e
       0.24332748 -0.3272797 0.27092215 0.22019897
0000b0 c8 f3 ed be 31 d4 a1 be 2b b3 89 3e 52 76 03 3f
       -0.46475053 -0.31607202 0.26894507 0.5135242
0000c0 4e 80 f4 3e 2b d1 b1 be 05 2b 06 be dd d2 04 3e
       0.4775414 -0.34729895 -0.13102348 0.12971063
0000d0 a3 d0 00 bf 87 de ef bd da a9 f6 be 95 fb 62 3e
       -0.50318354 -0.117123656 -0.4817646 0.22166283
0000e0 55 5c 2b bf df 91 10 be 15 0a 2f be 0d 8b b5 3e
       -0.6693776 -0.14118145 -0.1709369 0.3545765
0000f0 ae 9c 64 3e fa 09 3a be 76 c2 07 bf 54 e3 02 3e
       0.22325394 -0.18167868 -0.530311 0.12782031
000100 95 57 c9 3e 8d 6c 17 bd 35 51 9b 3e 45 f6 47 be
       0.39324632 -0.036968756 0.30335394 -0.19527538
000110 4b ef c3 3b 66 84 10 3f 48 98 d6 be 8c a7 45 3e
       0.0059794537 0.56452024 -0.41913056 0.19302195
000120 28 f9 a6 3e ee 2b a7 3d ee df a0 be 08 09 14 be
       0.32611966 0.08162676 -0.31420845 -0.1445657
000130 c0 36 9a 3e 0d 69 0f bf 5d 6b ed 3d c7 69 17 3e
       0.30119896 -0.5601967 0.115927435 0.14786445
000140 33 86 cc be f3 e3 07 3f 61 3d 0a bf 77 30 8b 3e
       -0.39946136 0.530822 -0.53999907 0.27185413
000150 f4 05 f4 bd 53 6c 24 bf ff fc b3 3e da 85 b2 3d
       -0.11915198 -0.6422779 0.35153958 0.087169364
000160 b8 15 97 3d 6c a4 ac be 13 66 17 3c 69 30 51 be
       0.073771894 -0.33719194 0.009240645 -0.20428623
000170 6c 18 8d be 1a 85 c5 3e ed e9 4a bc 09 6b 12 3f
       -0.27557695 0.3857811 -0.012384874 0.5719457
000180 f8 53 fb be 64 a5 e2 3e 05 6c d7 be ee 97 9c be
       -0.490875 0.44266808 -0.420746 -0.30584663
000190 90 15 2c 3d 3e aa 96 3e 64 44 86 3e eb 89 86 3d
       0.04201275 0.2942676 0.26224053 0.065692745
0001a0 9f 15 02 3f 06 29 e5 3e 24 66 bb be 2e 28 15 3e
       0.5081424 0.4475786 -0.36601365 0.14566109
0001b0 f6 b4 83 3e bb ac 52 be 31 16 6b be 02 7b a6 3d
       0.25724 -0.20573704 -0.22957684 0.08128931
0001c0 a5 fd 05 be 82 20 70 be e0 01 80 3e 72 eb b9 3e
       -0.13085039 -0.23449901 0.2500143 0.36312443
0001d0 f2 7b d2 bd 4e 4c 3d 3e 2d 74 6c bd d1 4b 1b bd
       -0.10277547 0.18486139 -0.05772798 -0.0379141
0001e0 ee a8 37 3d 0c b5 cf 3d 38 2b 05 bf 00 c1 c9 3e
       0.04483884 0.10141954 -0.5201907 0.3940506
0001f0 ed 14 04 3f 03 ac d2 3e 05 90 de be 75 bb d0 3e
       0.5159443 0.4114686 -0.43469253 0.40768018
000200 66 40 c8 be a2 72 1c be bb 5a 6b be 5a 6a f0 be
       -0.39111632 -0.15278104 -0.2298383 -0.4695614
000210 c8 dc 57 3e 7e e8 3c be ff 0b 52 3e dc 74 ed 3e
       0.21080315 -0.18448064 0.20512389 0.4637822
000220 7a 5b fa 3e e5 d9 7d 3e 9e ac ac bd b3 e8 bd 3e
       0.48897916 0.24790151 -0.084313616 0.37091598
000230 3a 5d 4f 3e 83 9a f8 3e af ba c6 be 51 cf 65 be
       0.20250407 0.48555383 -0.38814303 -0.22442366
000240 17 8a be be 3e 95 74 3e 75 61 42 bf 0f 4b dd 3e
       -0.3721473 0.23885056 -0.7592996 0.43221328
000250 15 6f 90 be eb 3e fb be 00 1a dc 3d b2 21 05 3f
       -0.2820975 -0.4907144 0.107471466 0.5200454
000260 89 fd 15 3e c3 2b 9a 3e e4 45 a8 3e 2b 7e 8d 3e
       0.14647497 0.30111513 0.32865822 0.2763532
000270 07 6d 06 3f f9 63 eb bd 66 e8 07 bf 50 f4 be 3e
       0.5251011 -0.11493678 -0.53088987 0.3729577
000280 b9 89 03 bf cb 65 49 be b3 83 23 be e8 1b f2 be
       -0.51382023 -0.19667737 -0.15968208 -0.47286916
000290 79 5b b6 3e 94 a0 bc 3e 2e a7 a9 be c0 f9 02 3f
       0.35616663 0.3684126 -0.3313536 0.5116234
0002a0 7f c7 1f bf c8 7a 13 bf 36 29 d7 be ff c5 15 bf
       -0.6241378 -0.57609224 -0.4202363 -0.58505243
0002b0 29 7b d1 be be 0d 4d 3e e2 e9 c0 3e e9 2b 15 be
       -0.40914276 0.20024773 0.37678438 -0.14567532
0002c0 32 47 ea be ec e0 89 3d 06 b7 91 be dd a7 ff be
       -0.45757443 0.067323536 -0.28459948 -0.49932757
0002d0 b1 d3 0f 3f 0c ed 52 3e 42 09 1b bd d5 92 3a 3e
       0.5618239 0.20598239 -0.037850626 0.18220074
0002e0 58 9a 94 3e bf 1f 18 3e 52 6a db bd d4 b6 b2 be
       0.29024005 0.1485586 -0.10713638 -0.34905112
0002f0 bc 01 33 bc 5b d2 92 be c1 d4 5c 3d 6d 45 06 bf
       -0.0109257065 -0.28676113 0.053913835 -0.52449685
000300 6e 87 10 bf b6 b0 9f bd b5 00 77 3e 5f 76 c3 bd
       -0.5645665 -0.07797377 0.24121363 -0.09544062
000310 eb b3 42 3d 36 32 3f 3f 98 ab 8c bd bb 2d 8e be
       0.047534864 0.7468599 -0.068686664 -0.27769265
000320 b5 12 a5 be f8 ee 37 3d ee 8d e8 3d ef 4f 4a be
       -0.32240835 0.044905633 0.11355196 -0.19757055
000330 17 c8 0e bf c6 15 c5 be b7 49 c7 bd 4b 52 fd 3e
       -0.5577406 -0.38493174 -0.09730857 0.49476847
000340 73 b4 27 3f ff b5 6b 3e b4 21 42 3e f3 9f 88 be
       0.6550972 0.23018645 0.18958169 -0.26684532
000350 45 30 91 be 47 6e 90 3d 23 eb e7 bd 4e 0e 26 be
       -0.2835714 0.07052284 -0.11324146 -0.16216394
000360 bc f8 bc bd da 50 03 3e 20 9f f1 3c dc 7f 9c be
       -0.0922713 0.12823811 0.029494822 -0.305663
000370 31 5b 8c be 9a e0 93 be df 19 15 bf 7b ea 90 3c
       -0.27413324 -0.28882295 -0.582426 0.017689934
000380 bb 85 ab 3d 5c f8 93 be 76 c5 ad 3e 56 e3 58 3e
       0.083751164 -0.2890042 0.33939713 0.21180472
000390 2b 77 9f 3e 8d f2 d3 bd b3 f0 08 be 33 98 d8 3e
       0.31145605 -0.10348997 -0.1337307 0.4230362
0003a0 2b 5d f0 3e 9c f8 c8 3e 97 51 11 bf 57 9c a7 bd
       0.46946082 0.39252174 -0.5676512 -0.08184116
0003b0 9b 44 4e bc ec f8 df 3e fe be d1 bb 13 d4 90 be
       -0.012589599 0.437446 -0.006400942 -0.282868
0003c0 82 d8 e4 3e c2 bf 4a be a9 4c ae be d3 e6 be 3e
       0.44696432 -0.19799712 -0.34042862 0.3728548
0003d0 af 77 08 be df ef 37 ba 1b e3 aa bc 7f 8e 53 3e
       -0.13326906 -0.00070166396 -0.020860245 0.20659827
0003e0 34 ac b9 be 3d 79 13 3e cd a5 ab 3e dc 5e a6 3d
       -0.36264193 0.14401717 0.33524933 0.08123562
0003f0 d6 4b 2a 3d 84 33 9c 3e db 71 32 3e 16 0e 1c bd
       0.04157623 0.30508053 0.17426245 -0.03809937

feature_exact.op_attention_blocks.0.attention_2.a f4 [64, 1]
000000 fd 7b 36 3e eb 01 4f be 7d 65 fd be 3d 80 4c 3e
       0.17820735 -0.20215575 -0.49491492 0.19970794
000010 2d 2c dc 3e e3 c4 f0 3c 07 c3 5a 3c d9 77 d1 3e
       0.43002453 0.029390758 0.013352162 0.4091175
000020 60 7d 0f 3e ea 00 90 be 5a 0c 1a be e3 d7 0c 3d
       0.1401267 -0.28125697 -0.15043774 0.034385573
000030 0e 6d c4 3c 64 02 d1 3d 1b 0c 61 be 78 21 f2 bd
       0.023977783 0.10205534 -0.21977274 -0.1182279
000040 8a 00 e0 bd 20 17 63 3e aa 46 fe 3d 05 ae 1e be
       -0.10937603 0.2217679 0.12415822 -0.1549607
000050 1d cf 69 be 0f eb 57 3e 64 9e 8e 3e 7e 29 98 3d
       -0.22832914 0.21085761 0.27855217 0.07429789
000060 3f 4f 76 3e 13 19 f3 3d 54 4d 88 3c 6f d6 4f 3c
       0.24053667 0.11870017 0.016638435 0.012685402
000070 01 d1 8a 3e a4 43 21 3a 2e 3a b7 3e 28 d2 50 be
       0.27112582 0.0006151742 0.35786575 -0.20392668
000080 9b 3b eb 3e b1 0b c6 3e 58 55 91 be b7 b8 ac be
       0.45943913 0.38680795 -0.28385425 -0.33734676
000090 f3 6e 7a 3e 0a ef be be a1 a9 ec 3d fe 49 7a be
       0.24456386 -0.37291747 0.11555792 -0.24442288
0000a0 68 29 9d 3e 23 35 e8 3e 63 3a 2b 3d 43 06 ae 3e
       0.30695653 0.4535304 0.04180373 0.33989152
0000b0 b5 a8 27 3d 70 50 6f be 1b 55 1c 3d c9 fd 33 3e
       0.040932376 -0.23370528 0.0381671 0.1757728
0000c0 13 bc 2c 3d 93 8f 31 3e ea d1 bb bc 18 d1 ad bd
       0.04217155 0.17339925 -0.022927243 -0.08487147
0000d0 b8 fd 9f be dd ae 13 bf 3c 20 3f 3e 9a bc 52 bc
       -0.3124826 -0.57688695 0.1866464 -0.012862349
0000e0 2c ac a7 be 1e 44 bf bd fb 52 68 3e df 82 a7 3d
       -0.32748544 -0.09339164 0.22687905 0.081792586
0000f0 9b d2 c9 be 4c 20 75 3e 52 61 13 3e 78 70 7c 3e
       -0.39418492 0.23938102 0.14392594 0.24652278

feature_exact.op_attention_blocks.0.attention_3.W f4 [10, 32]
000000 23 2a b1 3d 4a 68 04 3f 1d 9d c5 3e 13 6e 84 be
       0.08650615 0.5172163 0.3859643 -0.2586523
000010 e9 8c d8 be 4b 06 d8 be e4 fb f2 be 34 d6 01 3f
       -0.42295006 -0.421923 -0.47457802 0.50717473
000020 2a 39 fb be 0b 93 d5 3e b9 32 22 bf 69 58 7f 3e
       -0.4906705 0.41713747 -0.63358647 0.2493607
000030 54 5c bd 3e fd 5a 3d 3e 89 02 a2 be 9a f9 e9 be
       0.36984503 0.1849174 -0.3164256 -0.45698243
000040 cf dc a4 3e 7c a8 40 bf bf 61 13 3f b4 13 5a 3e
       0.32199714 -0.75257087 0.57571024 0.21296579
000050 b5 fc b0 3d ce e8 ee be f9 a3 4f 3d 09 af 86 bc
       0.0864195 -0.4666199 0.050693486 -0.016440885
000060 70 37 58 3c 13 16 83 3e ad be 0a 3f 7d b3 e9 3d
       0.013196811 0.2560278 0.541972 0.11411188
000070 12 ac 16 bf 54 43 13 bf 98 49 4a 3e f7 5d 03 bf
       -0.5885631 -0.5752461 0.19754636 -0.51315254
000080 06 ff 3c 3e 31 41 95 be b7 68 1f bf 55 d4 93 3d
       0.18456659 -0.291513 -0.6226916 0.072182335
000090 aa e3 1e 3f 73 7a 83 3e 8f 1c 62 bc a7 3a 1a 3f
       0.6206614 0.2567936 -0.013800754 0.60245746
0000a0 57 9a 0d 3f 1d 47 14 3f 02 df b4 3e e4 1b c8 be
       0.5531363 0.5792101 0.3532639 -0.3908378
0000b0 a0 fd 76 3d 80 e6 11 bf d7 92 f7 3e e9 52 17 3e
       0.06030047 -0.5699234 0.48354217 0.14777721
0000c0 9a a6 14 3e 07 dd 10 3f ec fe af be 0d dd 5b 3f
       0.14516678 0.5658726 -0.34374177 0.8588417
0000d0 7a 07 e5 bb 63 04 23 3e 1f f5 2a be 77 25 bd 3e
       -0.0069894167 0.15919642 -0.16695069 0.36942646
0000e0 f8 b2 5c bd bb e9 fc 3e 42 5e 26 3f 5b bd ab be
       -0.053881615 0.49397072 0.64987576 -0.33542904
0000f0 98 02 9a be 65 84 ef be 73 f8 ff be 23 36 26 bf
       -0.30080104 -0.46780697 -0.4999424 -0.64926356
000100 80 13 c2 3e 5b b2 68 be 50 6f 0e bd 54 6f 9b 3e
       0.37905502 -0.22724287 -0.034774125 0.30358374
000110 9f a2 ad be 64 f3 37 3e 0b 81 7b 3d b0 dc f3 be
       -0.33913133 0.1796394 0.06140236 -0.4762931
000120 84 2e 1f 3f 9e 90 1c 3f 06 41 12 be 2e 64 7a 3d
       0.6218035 0.6115817 -0.14282617 0.061130695
000130 6c 4c 0c 3e 46 7b 8f bc 8d 64 92 3e 87 42 4f 3e
       0.13701028 -0.017514836 0.2859234 0.20240222
000140 3e ad 87 3d 52 45 00 3f b1 21 48 3d 48 2c 9d be
       0.0662484 0.50105774 0.048860256 -0.30697846
000150 c4 da a3 be b5 9f de 3e 77 15 88 3e df 2e 10 be
       -0.32002842 0.43481222 0.26578876 -0.1408038
000160 13 76 e9 bd d4 7e 14 be 57 9b 43 be 76 3b ad be
       -0.11399474 -0.14501506 -0.19102226 -0.33834428
000170 80 c8 aa 3e 34 6f b3 3e f9 d1 d6 be 18 79 0e be
       0.33356094 0.3504578 -0.4195707 -0.13913381
000180 8b 7a 22 bf a0 33 07 be f5 33 7b 3e 7e 17 7b 3e
       -0.63468236 -0.13203287 0.24531539 0.2452068
000190 4f 22 ab be 47 80 27 be 6b 39 9d 3e 0d 19 c4 be
       -0.33424613 -0.16357528 0.3070787 -0.38300362
0001a0 86 6b e3 3e f9 81 5e be 8a 7d e3 3e 91 4b ca be
       0.4441797 -0.21729268 0.44431716 -0.39510778
0001b0 ef 50 81 3d 6f b6 ad bd 31 96 91 be 11 28 82 be
       0.06314265 -0.08482062 -0.284349 -0.25421193
0001c0 c9 ce 16 bf 18 c9 84 3e 7f eb d0 be 22 9e 31 3b
       -0.5890928 0.25934672 -0.4080467 0.002710231
0001d0 cd 7c a1 3e e6 8c eb 3d 36 93 e2 be 9f 32 9d 3d
       0.31540528 0.115014836 -0.44252938 0.07675671
0001e0 ad a6 cf 3e 20 9e 26 3f f8 69 0f 3e 5e 9c 6b 3e
       0.4055685 0.6508503 0.14005268 0.23008868
0001f0 4c 98 bd 3d e2 6d dd 3e 04 1c d6 3e 98 d5 29 bd
       0.09257564 0.43247896 0.4181825 -0.041463464
000200 24 33 a0 3e 4e d1 9a 3e 5b 48 1e bd 7b a4 77 3e
       0.31289017 0.30237812 -0.038643222 0.24183838
000210 9a c8 12 be bf 13 9f be 4f 38 81 be ca db 7c be
       -0.14334336 -0.31069753 -0.25238273 -0.24693218
000220 de 96 24 3f af 30 04 bd e0 98 99 be 0d 02 16 3f
       0.64292705 -0.03227299 -0.29999447 0.5859688
000230 b6 64 c1 3e d2 90 bb 3d bf d3 a5 be 6f 1d 0c 3f
       0.3777215 0.09158482 -0.32388112 0.5473241
000240 79 d6 77 be af 1d 07 bf bc 24 18 be 86 74 b9 3e
       -0.24202909 -0.5277967 -0.14857763 0.36221713
000250 44 22 40 be ce 65 f8 3e c3 52 f3 3c 0f 2c 82 3e
       -0.18763071 0.4851517 0.02970255 0.2542424
000260 4b 80 0a bf 27 90 f8 be be 0d 9e 3e a1 b7 c5 be
       -0.5410201 -0.4854748 0.3086986 -0.3861666
000270 b2 f5 b1 3e 22 51 05 bf 20 e4 07 bf a2 8a c1 3e
       0.34757763 -0.52076924 -0.53082466 0.3780108
000280 64 b1 43 3e 7c ad b9 3d 9a f7 7b 3e c1 57 0b bf
       0.19110638 0.09066293 0.24606171 -0.54430777
000290 31 db 93 bd dc 13 01 3f b8 1d e3 3e 09 e5 30 bf
       -0.07219542 0.5042093 0.4435861 -0.6909948
0002a0 1b 49 ef 3d ef 0d 1c bf d4 df cb 3e ef f9 5e be
       0.11683866 -0.6095876 0.39819205 -0.2177503
0002b0 bf 1f d4 3b 0d 06 bf 3e f3 7d a4 be 5c 82 79 3e
       0.006473511 0.37309304 -0.32127342 0.24366134
0002c0 08 1f 8e 3d 07 8b c4 3e 1d 35 c6 3e 5c 63 aa bd
       0.069395125 0.3838732 0.38712397 -0.083197325
0002d0 ec 26 c2 3e 07 0b 03 3f 1b ee 1d 3d 27 e9 c3 3e
       0.3792032 0.511887 0.038557153 0.3826382
0002e0 46 93 d5 be 90 a0 d2 3e 12 f5 86 be 47 77 ae be
       -0.41713923 0.41138124 -0.2635885 -0.34075376
0002f0 9a 06 56 3d 73 0d eb bc bf 41 c5 3e 15 e2 df 3e
       0.05225239 -0.028692937 0.38526723 0.43727174
000300 45 2a 9f 3e 94 a9 12 bd 3b 1a f4 3e 24 f2 01 3f
       0.31086937 -0.035806254 0.47676262 0.507601
000310 86 a9 de be 36 98 c4 be 83 81 14 bf f5 6a c7 3e
       -0.4348871 -0.38397378 -0.5801012 0.3894879
000320 95 03 92 3d 04 4b 3c 3e d3 38 25 3e be 8d 0f 3e
       0.071295895 0.18387991 0.16134958 0.14018914
000330 65 89 37 bd fc 9c c7 be 38 aa f7 bd 63 09 1e 3d
       -0.044808764 -0.38986957 -0.120930135 0.03858317
000340 87 ef f6 3e 20 81 26 be 3f d4 d1 be eb dd 92 be
       0.4822962 -0.16260195 -0.40982243 -0.28684935
000350 b4 95 b7 3e ed b1 32 3c 6a e9 ea be a9 7a 75 3d
       0.35856402 0.010906679 -0.45881206 0.05993143
000360 b2 26 2d bf 67 36 56 be 18 32 c4 3e 59 ff b4 bd
       -0.6763717 -0.2091919 0.38319468 -0.08837766
000370 92 c8 b3 3e d1 26 35 be 69 70 f1 3e 88 24 b6 3d
       0.3511396 -0.17690589 0.47156075 0.088936865
000380 f3 b9 01 bd 69 d2 f1 be 6b f2 a6 3e 2c ad ce be
       -0.031671476 -0.47230843 0.32606825 -0.40366495
000390 e9 83 e3 be 95 4f 78 3d e8 3e 91 be 7c 98 10 3d
       -0.44436577 0.06062277 -0.28368306 0.03530167
0003a0 05 ce 9c bd e2 29 af 3e ba aa f6 3e 24 c4 f7 be
       -0.076564826 0.34211642 0.4817713 -0.4839183
0003b0 4c c9 f5 3e e8 94 e6 3e f4 a4 d5 be b8 4a cf be
       0.4800514 0.4503548 -0.41727412 -0.40486693
0003c0 15 c5 d2 3e 9c f1 15 be 16 a3 d1 be 11 0e b0 be
       0.41165987 -0.14642948 -0.40944737 -0.34385732
0003d0 dd d8 8c 3e bc e2 9a 3e 04 87 2b be 5d 9e 70 3e
       0.27509204 0.3025111 -0.16750723 0.23497911
0003e0 35 73 7c 3e d3 90 68 3e 5d 36 84 3e fe dc cc 3e
       0.24653323 0.22711496 0.25822726 0.40012354
0003f0 d0 0c c1 3e 9e 9b f0 3e 8f 26 a1 3e f7 8c 12 bf
       0.37705088 0.46993726 0.3147473 -0.57246345

feature_exact.op_attention_blocks.0.attention_3.a f4 [64, 1]
000000 3d e8 86 3e 3a 03 bb 3e 94 d0 6d be b1 3d 6c 3d
       0.2634906 0.365259 -0.23224097 0.05767602
000010 03 8f 8b be a9 df 17 3e 8a d4 b1 3e b4 42 36 3e
       -0.27257547 0.14831413 0.34732467 0.17798883
000020 cf 80 fe be d5 9d be bd 39 c1 94 bd 58 49 bb be
       -0.49707648 -0.09307448 -0.07263417 -0.36579394
000030 f2 f4 9d be c4 76 35 be f6 68 b9 3e 80 7c a8 be
       -0.3085094 -0.17721087 0.3621289 -0.32907486
000040 f3 66 0d 3c 0b d4 f7 3d b1 f6 75 3c 4e 87 a4 be
       0.008630502 0.12100991 0.015012429 -0.3213448
000050 ef 23 d9 be bc e2 6a be 5e 39 ca 3e 56 85 74 3e
       -0.42410228 -0.22938055 0.39496893 0.23878989
000060 59 8c 73 3e c1 10 ed be b8 65 81 3e c3 3a 93 3e
       0.23784007 -0.46301845 0.25272918 0.2875577
000070 ec d1 4c be 9e d7 b8 be 13 b4 1e 3c 2f 71 b2 3e
       -0.20001954 -0.36102003 0.009686488 0.34851977
000080 6e 3a b7 3e b2 b9 69 3e 41 49 8e 3e ed 7a 43 3b
       0.35786766 0.22824743 0.27790263 0.0029827908
000090 4a 28 e4 be eb 26 b1 3d a8 80 ab be 36 1e 89 be
       -0.44561988 0.08650001 -0.33496594 -0.26780862
0000a0 e1 a6 09 be c4 68 cf be 87 1d 01 bf e0 41 77 be
       -0.13442566 -0.40509617 -0.5043568 -0.24146223
0000b0 20 9d 72 3e df 8e 70 3e fe 8d cb be 03 08 78 39
       0.23692751 0.23492001 -0.3975677 0.00023654108
0000c0 eb 74 e8 3e 1c 53 f0 bd c5 8c 9d 3e da 14 20 bf
       0.454017 -0.11734602 0.3077146 -0.62531817
0000d0 a5 8f e2 3e f4 89 8e bd 7d 2c 11 3d 9a 91 5f be
       0.44250217 -0.06959906 0.035442818 -0.21832886
0000e0 f2 0a ab be d3 72 50 be 05 f9 87 be d3 78 91 be
       -0.33406788 -0.20356302 -0.26557174 -0.28412494
0000f0 da 13 8d be 69 cc 8f 3d af b9 f8 3e 21 68 82 3e
       -0.27554208 0.0702141 0.48579165 0.2547007

feature_exact.op_attention_blocks.1.attention_0.W f4 [128, 8]
000000 16 8d d6 3d 0b c7 66 be f4 57 1d be 4c 36 51 3e
       0.10476129 -0.22536866 -0.15365583 0.20430869
000010 09 8b c8 3d 9a 3f 44 3e 1c 15 27 3d 6f ea 91 3e
       0.09792144 0.19164887 0.040791616 0.2849917
000020 b1 bb 9c 3d ff 97 c0 be 2e f8 36 3e e5 12 14 3d
       0.07652987 -0.37615964 0.1786811 0.03615083
000030 67 2c 3e be a7 f7 05 3e e8 df 52 3e 06 48 e1 3d
       -0.18571626 0.13082753 0.20593226 0.110000655
000040 86 49 25 be f1 1f 07 3d df d7 a1 3e 31 19 1f be
       -0.16141328 0.032989446 0.3161001 -0.15536954
000050 50 f9 04 3e bd 9b a8 3e 3e 2b 1c 3d 74 71 81 bd
       0.1298573 0.3293132 0.038127176 -0.063204676
000060 7d d3 03 3d c1 60 85 be b6 76 1e 3e a5 b6 f7 3d
       0.032184113 -0.2605038 0.15474972 0.120953836
000070 9c 47 5a bd 79 a1 4c 3d a2 b7 01 3d df 07 08 bc
       -0.05329095 0.04995868 0.031669267 -0.008302658
000080 07 8d 1f 3e 67 88 45 be 4f 46 13 be 8d 60 ab bd
       0.15581141 -0.19290315 -0.1438229 -0.08368025
000090 bb ca f0 3c bb 40 a0 bd 40 96 a8 3e a5 1e 49 3e
       0.029393544 -0.07824846 0.32927132 0.19640596
0000a0 d1 d2 cb bc f9 02 0e be 94 44 5b 3e f9 dd 71 be
       -0.024880799 -0.13868321 0.21412879 -0.23619832
0000b0 bf d2 fa bc cd 03 85 bd d7 c6 c0 bd fc 28 85 bc
       -0.03061807 -0.064948656 -0.09412926 -0.016254894
0000c0 b0 d4 8b be ee 86 6f be c7 6b 75 bd 33 33 85 be
       -0.27310705 -0.23391315 -0.059917238 -0.26015624
0000d0 c6 70 3d be 91 23 d4 3d 8b cc 91 be 16 14 87 3e
       -0.18500051 0.10358346 -0.28476366 0.26382512
0000e0 cc 0c 9f 3c a1 5b 93 be 51 05 24 3d a1 37 94 3d
       0.019415282 -0.28780845 0.040044133 0.07237173
0000f0 b1 dd ca bd 81 de 71 3e b1 1d c6 bc 67 50 8c 3d
       -0.099055655 0.23620035 -0.02418408 0.06851273
000100 b0 50 0d be 76 ed 8b 3e e7 fc fc 3d 4f dd 4b 3e
       -0.13800311 0.27329606 0.12352925 0.19908641
000110 96 b6 36 3e d6 1b 35 3e 25 f4 79 3e 8a 4c 1e be
       0.17843089 0.176864 0.2440954 -0.15458885
000120 10 0d 00 be c1 7d 95 be 3e a1 93 be 3e 80 2c 3e
       -0.12504983 -0.29197505 -0.28833956 0.16845796
000130 1d f3 92 be 23 84 a6 be 56 44 e4 3d f3 97 0d 3e
       -0.28701106 -0.32522687 0.111458465 0.13827495
000140 fb 8b 7d 3e c0 da 8e 3e e9 96 8c 3e 8f e8 06 3e
       0.2476043 0.27901268 0.27458885 0.13174652
000150 dc 33 52 be 6c f3 00 3e 0c ff e3 bd 72 99 a7 3e
       -0.20527595 0.12592858 -0.11132631 0.32734257
000160 e7 ee dc 3d 97 e0 11 3e 2f 0e b1 3b 92 32 46 3e
       0.107877545 0.1424583 0.005403302 0.19355229
000170 69 b2 b5 3e f4 eb 8b 3e 42 f0 6a be b1 a4 49 3e
       0.3548768 0.27328455 -0.22943214 0.19691731
000180 0c 3e 9a 3e a6 0b 5a be 35 6c ca 3d 01 5f 55 be
       0.30125463 -0.21293506 0.0988392 -0.20837022
000190 a6 3a 28 3e 1a 30 c3 3d 8f f6 e7 3b 16 ee eb 3c
       0.16428623 0.09530659 0.0070789526 0.028800052
0001a0 60 f7 3e bc 50 f4 4c be 9e e3 cb 3e e8 0a da bc
       -0.0116556585 -0.20015073 0.39822096 -0.026616529
0001b0 8c 18 41 3e c2 e7 87 3e 3e 37 95 3d 96 ab eb bd
       0.1885702 0.26544005 0.07285927 -0.11507337
0001c0 3b 95 8e 3e e9 a1 0e 3e 4e 04 09 bd d2 e8 b2 3e
       0.2784823 0.13928951 -0.03345137 0.34943253
0001d0 1d 67 d7 3d de 26 80 3e 7d 0a 9a 3e 27 6c 6e be
       0.10517714 0.25029653 0.30086127 -0.23283444
0001e0 bc 19 27 3e 7d 64 71 be b8 22 d2 bd 6c da 3a 3e
       0.1631841 -0.2357349 -0.10260528 0.18247384
0001f0 8b ba f6 bd e0 8c e7 3d 00 a5 87 3d 55 63 80 3e
       -0.12047299 0.11306167 0.06623268 0.25075784
000200 13 c5 82 3e ee 79 46 be fa af ac bd f2 85 4e be
       0.2554098 -0.1938245 -0.08432002 -0.20168284
000210 db 61 54 3e 7c 06 8d bd 12 68 8a be c7 b2 a0 be
       0.20740454 -0.068860024 -0.27032524 -0.31386396
000220 20 2a 9e 3d da 6f 07 3a c0 06 92 3e eb a0 c6 3c
       0.077228785 0.00051665085 0.28520775 0.024246654
000230 7f e1 89 3c 87 4b b1 3e 50 6d 8c be dd b9 09 3e
       0.016831158 0.34627935 -0.2742715 0.13449807
000240 34 3f 5c 3d d9 39 44 3e b4 5f 07 3b 38 79 bc bd
       0.053771213 0.19162692 0.0020656409 -0.09202808
000250 fe 2d 75 be cb 83 47 3c 8c 67 7d 3e 56 b9 ac bd
       -0.23943326 0.012177418 0.24746531 -0.084337875
000260 ea f7 2b 3e 87 f2 a1 3e 2e 02 29 3d 13 60 1a bd
       0.1679379 0.31630346 0.041261844 -0.03768928
000270 d6 45 47 be 21 e2 89 3e 2e 73 05 3e 67 c2 1a 3e
       -0.19460234 0.26930335 0.13032219 0.15113221
000280 4b 72 63 3b 63 18 4c 3d 46 2d 52 be 43 a5 99 3d
       0.0034705575 0.049827944 -0.20525083 0.07502224
000290 7f 83 a4 bd 28 81 aa bd 5e 91 20 bd 45 1b ec 3d
       -0.080328934 -0.08325416 -0.039201133 0.11528639
0002a0 e8 cc 08 be 39 53 57 be e7 27 9c 3e 8d ef b3 3e
       -0.13359416 -0.2102784 0.30499193 0.351437
0002b0 72 4c 85 3e f8 59 88 bd 1f 67 ad 3c 60 b7 7d 3e
       0.26034886 -0.06657785 0.021167336 0.24776983
0002c0 a1 41 0c be 7f 88 c2 bd 19 b0 12 3d be e2 8d 3e
       -0.1369691 -0.09498691 0.03581247 0.27712053
0002d0 8a bf 94 be 8a 7e 64 3d a2 e8 1b 3d 63 81 0c 3d
       -0.29052383 0.05578474 0.038063653 0.03430308
0002e0 bd 51 77 bc df 42 99 bb ba a0 03 be 03 9c c1 be
       -0.0150951715 -0.004677161 -0.12854281 -0.3781434
0002f0 db a8 7b 3e a8 3c 71 bd 7e 13 2e be a4 8c 0c be
       0.24576132 -0.058895737 -0.16999623 -0.13725525
000300 7f 7c 7b 3e 21 4c 9d 3e 48 b6 2f bd d3 4a 6c 3e
       0.2455921 0.30722144 -0.042898446 0.23075418
000310 be bf b2 3e 75 1a 7b 3e c8 8c 57 be 52 97 13 3d
       0.34911913 0.24521811 -0.21049798 0.036032982
000320 7c 11 75 bd 64 41 9c 3e 79 43 b4 3e 99 d8 31 be
       -0.059831128 0.3051864 0.35207728 -0.17367782
000330 85 02 2a be 65 20 6d 3e 22 1c 2f 3e 1c e6 76 3e
       -0.16602524 0.23156889 0.17100576 0.24111217
000340 cc 1a f6 3d 15 5c 8e bd 62 d0 12 3e 01 ef 51 3d
       0.1201683 -0.06951157 0.14337304 0.051253323
000350 03 ef 56 bb 24 27 59 3d ec c9 96 be a5 51 2a 3e
       -0.003279627 0.053015843 -0.2945093 0.16632707
000360 32 dc 93 3e a6 55 a3 be d9 84 93 be e8 7c dc 3d
       0.28878933 -0.31901282 -0.28812292 0.107660115
000370 a9 87 6f 3e 85 0d 2e be ca b6 57 be b5 22 2e be
       0.23391594 -0.16997345 -0.21065822 -0.17005427
000380 58 1e 5e 3e 9b 3f 7a be 1e 0e 60 be 5b 59 e0 3c
       0.21691263 -0.24438326 -0.21880385 0.027386358
000390 b1 b2 1d be 31 83 6f be 7d 45 2f 3e 8d e4 dd bc
       -0.15400197 -0.2338989 0.17116351 -0.02708652
0003a0 9c 6e 8c bc f7 c3 ba bd 32 ab 67 3d d3 0d 91 be
       -0.017142586 -0.091194086 0.05655975 -0.2833086
0003b0 5b a2 b1 bd de 64 4f 3e 43 68 a1 3e f5 58 9a 3d
       -0.08673545 0.20253322 0.31524858 0.075364985
0003c0 92 d2 79 be fe 9f 19 be c9 c1 de be 0e b5 c1 be
       -0.24396732 -0.15002438 -0.4350722 -0.37833446
0003d0 22 2d 2c 3d 40 af 42 be 9d 67 59 bd ac 8d 3b 3e
       0.04203523 -0.19012165 -0.05307733 0.18315762
0003e0 bb 59 e1 bc 6a 4e 80 3e b5 7d 77 3e 46 65 ef 3d
       -0.027508607 0.25059825 0.24169047 0.11689238
0003f0 34 d4 d8 bd 43 aa 0e bd e1 1d 6e be 30 7a 6f be
       -0.105873495 -0.034830343 -0.23253585 -0.23386455

feature_exact.op_attention_blocks.1.attention_0.a f4 [16, 1]
000000 4f ed 93 3e e3 0c f1 be 78 27 18 be 72 ad 3e bf
       0.2889199 -0.47080144 -0.14858806 -0.74483407
000010 95 8f 2b 3e e3 e8 65 be 39 8e 6b bf 5b 6e 5d 3f
       0.16753991 -0.2245212 -0.9201389 0.86496514
000020 aa d4 4e 3f de 80 d7 3e c5 1a 04 bf 67 8e 0f 3f
       0.8079325 0.42090505 -0.5160335 0.56076664
000030 92 fc 7b 3e 28 4a 86 be a6 01 fe 3e 11 93 55 bd
       0.24608067 -0.26228452 0.49610633 -0.052142207

feature_exact.op_attention_blocks.1.attention_1.W f4 [128, 8]
000000 54 1f 46 be 70 92 6e be e5 6f c7 be da dd 28 3e
       -0.19347888 -0.23298049 -0.38952556 0.1649088
000010 67 ce 8e be 96 2f 85 bd 92 92 8e 3d b5 72 46 3e
       -0.27891847 -0.06503217 0.0696155 0.19379695
000020 3a ce 72 3e 2e 4f 35 be 9e da c2 be d6 81 d0 bd
       0.23711482 -0.17705986 -0.38057417 -0.10181014
000030 35 57 0e bd a3 fd f2 bd d7 a1 b9 3d 3a 7d ad 3d
       -0.034751136 -0.118647836 0.090640716 0.08471151
000040 82 ae 27 3e dc 16 c1 bd d2 a1 86 be 3c 09 52 3d
       0.16375163 -0.09428188 -0.26295334 0.051278338
000050 22 fe 90 3e 2a 22 63 3e c2 3a c3 bd b5 42 63 3e
       0.28318888 0.22181001 -0.095326915 0.22193415
000060 85 59 02 3e 6c 32 3b be 8e ab 8d 3e 91 b0 09 3e
       0.12729461 -0.18280953 0.27669948 0.13446261
000070 c8 de 99 be 01 8b 58 3e b7 c7 76 be 73 fb da 3b
       -0.3005278 0.21146776 -0.24099623 0.006682807
000080 9f bd 4a be a4 07 32 3e 55 a5 de bd 25 a3 43 3e
       -0.19798897 0.17385727 -0.10871378 0.19105203
000090 36 65 63 bd a8 55 06 be f0 d3 37 be 11 2a f8 bd
       -0.055516444 -0.13118613 -0.17951941 -0.121173985
0000a0 a1 8c a7 3e fb 79 e0 bd 8f f8 6a be 03 5e ac 3e
       0.3272448 -0.10960766 -0.2294638 0.33665475
0000b0 69 b3 2a be 34 83 a0 3b a5 6d 36 3e 6e 1e b9 3d
       -0.16670002 0.004898453 0.17815264 0.09039007
0000c0 94 53 88 be 2d c6 ad be ec ef ef bd 50 f9 98 be
       -0.26626265 -0.3394026 -0.11715683 -0.2987771
0000d0 40 f3 54 be 1c 97 18 3e da 98 99 be f1 66 a9 bd
       -0.20795918 0.14901394 -0.2999943 -0.08271588
0000e0 2f 7e f8 bc 54 66 87 be 53 7e 21 3e 6a 81 85 3d
       -0.030333607 -0.26445258 0.15770845 0.065188244
0000f0 04 ab a8 3e f2 df 88 3e cb 68 d1 3e 39 a5 2a 3d
       0.32942975 0.26733357 0.40900263 0.041661475
000100 bc a8 c3 3d 39 7d d4 bc ab e1 4e 3e d5 ec 3f 3e
       0.09553668 -0.025938617 0.20203273 0.18742688
000110 04 6a 3c be 56 03 57 be 1c 2d ae 3e d2 bc 76 3e
       -0.18399817 -0.20997366 0.3401879 0.24095467
000120 c8 60 b0 3c d8 f6 79 be a5 1c a5 be 9f e6 b0 39
       0.021530524 -0.2441057 -0.32248417 0.00033741162
000130 a5 ae 23 be cc 31 97 3d 98 c8 95 3e d9 81 cb 3e
       -0.1598459 0.07382545 0.29254603 0.39747503
000140 04 45 2e 3d ad 82 ba 3d 23 11 06 3d b2 09 cb be
       0.042546287 0.09106956 0.032731187 -0.39655834
000150 b4 4f 82 3d 64 fd 20 3e 02 bc b4 bd 93 6f 06 be
       0.063628584 0.15721661 -0.08824922 -0.131285
000160 1e 65 44 be df 58 97 3d f3 cf 10 bd 31 3e 89 3e
       -0.19179198 0.07389998 -0.035354566 0.2680526
000170 63 bd 59 bd ce e9 38 3e 73 54 83 3d d0 0d 6d 3d
       -0.05315913 0.1805794 0.06412592 0.0578745
000180 60 e4 a2 bc e6 ac 98 be 85 c5 71 3e 94 ca f3 3d
       -0.019884288 -0.2981941 0.23610504 0.11903873
000190 48 a0 40 be f3 f5 bf bc a1 74 b0 3c d5 78 85 be
       -0.18811142 -0.023432707 0.021539988 -0.2606875
0001a0 a7 bb 59 be 84 ce 67 be 21 d7 4d 3e 88 a7 eb 3d
       -0.2126299 -0.22637373 0.20101596 0.115065634
0001b0 23 63 ff 3d 34 89 25 3e 95 30 00 be 2f c9 84 bd
       0.12470081 0.1616562 -0.12518533 -0.06483685
0001c0 fa 55 85 3c 68 00 6b be 9d e6 34 bd 69 c7 58 3e
       0.016276348 -0.22949374 -0.044165242 0.21169819
0001d0 5b bc 5a be e1 bb 25 3e fe 3f 53 3e ba e5 c1 bd
       -0.21360914 0.16184951 0.2062988 -0.09467645
0001e0 c9 8a 3c 3e fa a3 39 3c c9 57 4a 3e c8 b1 1c 3e
       0.18412317 0.011330599 0.1976005 0.15302193
0001f0 f7 cb d7 bd 2e 71 01 be d8 44 a3 bd 33 0d a5 3e
       -0.1053695 -0.12640831 -0.07972115 0.32236633
000200 1b e7 42 be 29 ca 7a 3e ca 29 46 be d8 52 2b be
       -0.19033472 0.2449118 -0.19351879 -0.16730821
000210 ce 7b 9c 3e b7 2b aa 3e c7 fb 9b be c8 9e 45 3e
       0.30563205 0.33236477 -0.30465528 0.19298851
000220 55 d8 1a 3e 63 11 71 bc 34 34 aa 3e e7 bd ff bd
       0.15121587 -0.014713618 0.33242953 -0.12487393
000230 9a b6 25 3e 42 2c b6 3e c8 38 a6 3e 55 57 5d bd
       0.16182938 0.3558064 0.32465196 -0.054038364
000240 8f 3a a8 3e f9 37 1a 3d 2f 3b 0d 3e 62 f7 85 3e
       0.32857177 0.037651036 0.13792108 0.261653
000250 47 d2 35 3e 3e 64 de 3c 76 9e 82 3d 68 70 80 bd
       0.17755996 0.027147409 0.0637788 -0.0627144
000260 80 1f 88 be e7 b6 80 be 92 fe e7 3d 14 af dc 3c
       -0.26586533 -0.25139543 0.11327852 0.026938953
000270 d1 1d 2b 3e b5 c8 89 3c fd fa 2b be 1b db 44 be
       0.16710593 0.016819337 -0.16794963 -0.19224207
000280 0d 5d 06 3e 1d b0 68 3e fc 11 56 3d a5 80 c2 3d
       0.13121434 0.22723432 0.052263245 0.09497193
000290 0f 07 8c bd 87 40 3d 3e cf e4 9a bd 7b f3 56 be
       -0.06837284 0.18481646 -0.07563173 -0.20991318
0002a0 6b 45 5d 3e be 98 4e 3e 25 6b 20 be 3d e2 ae 3e
       0.21608512 0.20175454 -0.15665872 0.3415698
0002b0 5d 9e 3e bd b4 d1 55 3e 67 51 89 3e 0a 3b 2b 3e
       -0.046537746 0.20880777 0.26819918 0.1672174
0002c0 44 3f a9 3d be 28 6a 3e 47 75 36 3e 00 5c 80 3e
       0.0826402 0.22867104 0.17818175 0.2507019
0002d0 b0 30 e6 bd b6 e9 4d be 3b 58 74 3d b1 92 ab 3d
       -0.11239755 -0.20108685 0.059654456 0.083775885
0002e0 3b 45 38 be 7f ce 8e bd 47 1e 93 3e 53 04 09 be
       -0.1799516 -0.0697298 0.28734037 -0.13380556
0002f0 0f 5d 86 be 34 7a 05 3e 4d e8 38 3e 8e d7 82 3e
       -0.26242873 0.13034898 0.18057366 0.2555508
000300 ac 6f 8b be ba 24 30 3e 5e cb 54 3d 00 df aa bd
       -0.27233636 0.1720151 0.05195176 -0.08343315
000310 85 18 f7 bd 9a ad 43 3d c1 d0 53 3c b3 fe dd bd
       -0.120652236 0.04777298 0.012928189 -0.10839596
000320 aa 8d 01 bd a4 54 65 3e 30 89 13 3e cc 27 96 bd
       -0.031629242 0.22395569 0.14407802 -0.073318094
000330 80 23 9f 3e 07 42 6a 3e cb 29 71 3d 29 08 23 3e
       0.31081772 0.2287675 0.058877748 0.15921082
000340 b5 07 0e 3e eb c8 1a 3e f9 09 e1 bd 7f 13 fa 3d
       0.13870127 0.15115707 -0.1098823 0.1221075
000350 2c 40 80 3d 10 c1 10 bc 5b a8 e5 3d fe cb dc 3c
       0.0626224 -0.008835092 0.11213752 0.02695274
000360 60 47 16 be 1b 7c 47 3d 94 72 54 be f0 c8 5d be
       -0.14675665 0.04870234 -0.20746833 -0.21658683
000370 2d 77 95 bc dd 06 24 3e 27 11 2d be ce 3e 92 3e
       -0.018245304 0.16018243 -0.16901074 0.2856354
000380 eb 0b 42 be 9c 66 94 bd 3e 0b 59 be d8 a7 77 3d
       -0.18949859 -0.07246134 -0.21195695 0.060462803
000390 28 72 37 3e 56 1e 87 be e6 0c fa bb e8 1c 96 3e
       0.17914641 -0.26390332 -0.007630932 0.2931893
0003a0 da 8d e9 bd 8f 69 0c 3e d6 70 e0 3c de ad 8c 3e
       -0.11404009 0.13712142 0.027397554 0.274764
0003b0 95 3f 15 be 6a ca 2d 3e 71 c1 c8 3b 40 17 7f be
       -0.14575036 0.16971746 0.0061265756 -0.24911213
0003c0 13 f5 84 be 63 66 b0 be df 90 4a bc 56 34 ae be
       -0.25968227 -0.34453115 -0.0123636415 -0.34024304
0003d0 8f c9 0d 3e 6e ad ae 3e fa 9c 85 be df 7d 04 3e
       0.1384642 0.3411669 -0.26096326 0.12938641
0003e0 41 b2 89 be 9c 87 ad bd 92 49 8b bd c0 fa 99 be
       -0.2689381 -0.08473131 -0.06801142 -0.3007412
0003f0 8d 9d 42 3e 8c 6e a9 3e f4 08 95 be b0 01 f2 be
       0.19005413 0.33092153 -0.29108393 -0.47266912

feature_exact.op_attention_blocks.1.attention_1.a f4 [16, 1]
000000 b1 9d c0 3e 1f 3e b6 be 4b 3d 78 bf 93 65 cd 3e
       0.3762031 -0.3559427 -0.96968526 0.40116557
000010 65 d4 c3 be af 86 4b 3e 88 da d7 3e 12 8e 31 bf
       -0.38247982 0.19875596 0.42158914 -0.6935741
000020 0d 94 41 3f ad a9 52 be e1 0d 31 bf b7 2b 76 3f
       0.7561653 -0.20572539 -0.691618 0.96160454
000030 96 a4 03 3f a7 1f 5d 3f e2 88 37 3f 0d 9e 10 bf
       0.51423013 0.8637642 0.7169324 -0.56491166
