trained_network/SD1/20x5.pth (torch, 136969 bytes, 50 tensors)

feature_exact.op_attention_blocks.0.attention_0.W f4 [10, 32]
000000 b8 77 df be 29 9f 21 bf 88 5f 0f 3f 32 45 f1 3e
       -0.43646026 -0.63133484 0.56005144 0.47123104
000010 af 50 11 bf 94 e7 b9 3e b3 79 ec 3e ae 36 7f 3e
       -0.5676374 0.36309493 0.461866 0.24923202
000020 08 97 12 3f 1d b0 99 be 76 11 b2 3e 11 4b 06 3f
       0.57261705 -0.30017176 0.34778947 0.5245829
000030 80 3f dd 3e c0 16 70 3e 8d 65 d2 be 52 87 82 3e
       0.4321251 0.23446178 -0.41093102 0.25493866
000040 04 d9 dc 3d fe 7e 36 be cd 65 c8 bd 93 3e 09 3f
       0.1078358 -0.17821881 -0.09785042 0.53611106
000050 c1 b6 0b bf 6a 98 ec bd 13 b8 8e be cd b7 d1 3e
       -0.54575735 -0.11552508 -0.27874812 0.4096054
000060 30 f7 80 be 33 a2 d8 3e b7 ef a5 3d 46 3d 68 be
       -0.2518859 0.42311248 0.081023626 -0.22679624
000070 3f 17 84 bd d3 7c 39 be 56 a5 46 be 82 c8 8c 3e
       -0.06449746 -0.18114023 -0.19399008 0.27496725
000080 2f 75 67 3e 73 bd 96 3e 7f 8b d4 3e 40 e0 11 3f
       0.22603296 0.29441413 0.41512677 0.56982803
000090 48 f3 d2 3e 29 3c 61 be 85 e7 ed 3e a9 77 e9 be
       0.41201234 -0.21995606 0.46465698 -0.45599106
0000a0 dd 81 ed 3e 28 22 2f 3d 53 86 fb 3e 99 9a aa 3d
       0.4638814 0.042757183 0.4912592 0.083302684
0000b0 4c 81 fe be 4e 3e d5 3e 8f c4 e9 be 4b 7e bb 3e
       -0.4970802 0.41649097 -0.45657775 0.3661979
0000c0 7b a3 af be 25 03 9d 3d f0 9b d9 be 2d da f9 be
       -0.34304413 0.076666154 -0.42501783 -0.48799267
0000d0 f7 60 6f be bd 5c f9 be 8f 33 c2 be 44 51 ad 3d
       -0.23376833 -0.48703566 -0.3792996 0.08462766
0000e0 c3 92 68 be 28 8e d6 be 37 ad 9e bd 43 52 f9 3e
       -0.22712235 -0.41905332 -0.07747882 0.48695573
0000f0 02 bb 91 3e 19 a7 41 be 50 93 da 3e 88 3e 87 be
       0.28462988 -0.18911399 0.42690516 -0.26414895
000100 3a f7 de be 0a 2f e7 3e 2c a4 62 3e 1b 49 25 3e
       -0.43547994 0.45153075 0.22132939 0.16141169
000110 13 d5 46 3e a9 98 a3 be bf d7 b9 3e 13 d4 8d be
       0.19417219 -0.31952408 0.36297414 -0.27700862
000120 f8 f3 fb 3e 22 0e 1e bd 83 9d a9 bd 54 43 16 bd
       0.4920957 -0.038587697 -0.08281996 -0.036685303
000130 45 ed e2 bd be ed 14 3f 40 73 db 3d 37 99 16 bf
       -0.11080412 0.58175266 0.107153416 -0.5882754
000140 74 b2 13 3f 89 40 80 3e ed ba 62 be 76 73 05 3f
       0.5769417 0.25049236 -0.22141619 0.52129304
000150 e8 8e d3 bd aa 7b 92 3d 65 1b d1 3e a0 f7 f7 be
       -0.103299916 0.07152493 0.40841213 -0.4843111
000160 f5 08 a7 be 69 d0 c7 3c c8 51 b8 be 68 49 a8 3e
       -0.3262402 0.02439137 -0.35999894 0.32868505
000170 ab cb 00 bf a5 3b 8e 3d 90 26 85 bd 99 0b d7 3d
       -0.5031077 0.0694497 -0.06501496 0.10500259
000180 95 d6 f0 be f3 ad 1d bd 53 13 11 3e d3 f6 0b 3d
       -0.47038713 -0.03849597 0.14167528 0.034170937
000190 38 f7 28 bd e2 d7 81 bd 18 64 32 be 76 cd db 3d
       -0.04125139 -0.063400045 -0.17420995 0.10732548
0001a0 4c 29 e0 3e 90 85 ad 3e 81 97 da be 62 70 b9 3d
       0.43781507 0.33890963 -0.42693713 0.090546384
0001b0 f3 16 b2 3e 3a b7 9a 3e 2e ae 9b be 35 b2 e7 3e
       0.34783134 0.30217916 -0.30406326 0.4525315
0001c0 0b a8 e7 be ee d5 05 bd 8c ee 33 be 35 51 49 3e
       -0.45245394 -0.032674722 -0.17571467 0.19659884
0001d0 e6 dc ac be e7 2f d0 be 45 d5 91 3e 25 13 c4 be
       -0.33762282 -0.40661547 0.28483024 -0.38295856
0001e0 a7 b8 0b 3f e4 4b dc be 26 82 6d be 13 ca 0e be
       0.5457863 -0.4302665 -0.23194179 -0.13944273
0001f0 80 b8 f5 bb f0 d9 76 3d 16 c8 99 3e bb eb 80 3c
       -0.0074988008 0.060266435 0.30035466 0.015737405
000200 a9 7c cd be 33 53 1a be c3 ca c9 3d f6 85 f2 be
       -0.4013417 -0.150708 0.09853127 -0.4736783
000210 eb 2b 0e 3f 7d 53 b6 3e 09 8f 92 be a7 31 f1 bd
       0.55535764 0.35610572 -0.28624752 -0.117770486
000220 8d 70 d9 3e 80 c1 49 be 92 cc be 3e 9f 58 ba 3e
       0.42468682 -0.1970272 0.3726545 0.36395738
000230 c4 9e 01 bf 4d cc 23 be c3 de 8d 3e 12 cc ea bc
       -0.5063288 -0.15995903 0.27709016 -0.028661761
000240 a4 76 84 be 44 50 b7 3e 70 61 32 be 2b b0 09 be
       -0.25871766 0.35803425 -0.17419982 -0.13446109
000250 cc fe 4f 3e a7 ae 83 bd 3d ce 45 bc 11 6d 9d 3e
       0.20312041 -0.06429797 -0.012073097 0.30747274
000260 b1 b8 5e bd 99 cb 7d 3e 7a 5b dd be 8b ee 69 3e
       -0.054375354 0.24784698 -0.43233854 0.22844903
000270 f6 69 fa 3e df 08 e0 be 41 a9 a4 be 1e 99 c5 be
       0.48908967 -0.43756768 -0.3216038 -0.38593382
000280 5d 27 79 bd 50 7f 2b 3e 16 24 a2 be e0 48 8d 3e
       -0.060828555 0.16747785 -0.31668156 0.27594662
000290 ed a2 8e 3e c4 b6 9d bd f4 77 85 3e d0 2f 6f be
       0.27858678 -0.077008754 0.2606808 -0.23358083
0002a0 14 eb 29 be 8e 00 c1 3d 4e 3c 29 bd 2d ad f0 3e
       -0.16593581 0.09423934 -0.041317277 0.47007123
0002b0 c8 f2 99 be 0f f1 ec 3d 41 a9 77 be ce ec cb be
       -0.3006804 0.11569416 -0.24185659 -0.39829105
0002c0 be 1e a6 be 95 03 f1 3e de 2b 04 bf 49 f2 74 be
       -0.3244533 0.47073045 -0.51629436 -0.2392055
0002d0 e4 4a 1b 3f 83 d4 94 3e 6c 76 31 bc 11 38 48 3e
       0.6066115 0.29068384 -0.010831457 0.19552638
0002e0 63 16 0c bf e1 55 24 3e 62 6b e9 be 08 fd 88 be
       -0.5472166 0.16048385 -0.4558974 -0.26755548
0002f0 74 f2 91 be ac ae c8 be 3a 00 d2 bd 6e 1f f9 3d
       -0.2850529 -0.39195764 -0.102539495 0.12164198
000300 2a 0f 63 3e 1d 91 dd be f2 bf 94 3d 16 e8 d4 3e
       0.22173753 -0.43274775 0.07263173 0.41583318
000310 77 1b d7 be f3 d7 88 3d 5d c7 47 3e ab b3 12 be
       -0.42013142 0.06681814 0.19509645 -0.1432635
000320 c7 de 90 be ea 57 2c 3e b6 c8 8b 3e 0f 11 d5 3e
       -0.28294966 0.16830412 0.27301568 0.41614577
000330 67 f5 29 be ad c4 9a 3e 19 12 34 3d d6 b1 a7 be
       -0.1659752 0.30228177 0.04396257 -0.32752866
000340 7a 45 db be 0c 39 f8 3e a3 01 03 3f df d7 a5 be
       -0.42826444 0.48481023 0.5117437 -0.3239126
000350 ef d0 c1 be f8 7d 87 3e bb 05 06 bf 90 b3 94 bd
       -0.37854716 0.26463294 -0.52352494 -0.07260811
000360 9c 70 81 3d 69 cb 38 be 4c 77 ea be b6 9a 2f 3e
       0.06320307 -0.18046345 -0.4579414 0.17148861
000370 1a f8 41 bc 3f 9f c3 3e 9a 36 b1 3e 4e 9c ef be
       -0.011838937 0.38207433 0.3461197 -0.4679894
000380 4c d4 c8 3e 7b 71 d7 be 7b dc bf 3e d3 0e 8a be
       0.3922447 -0.42078766 0.374729 -0.26964435
000390 69 d7 02 bf 61 65 15 bf ca 42 8c 3e 60 39 07 3e
       -0.5110994 -0.58357817 0.27394706 0.1320548
0003a0 32 c8 60 3e f6 a1 30 3e ce ea 0c 3e f4 49 05 bf
       0.21951368 0.17249283 0.13761446 -0.5206597
0003b0 e6 fb d5 3e 97 27 b1 be f8 c6 51 bd e1 c9 f9 3e
       0.41793746 -0.34600517 -0.051215142 0.48786834
0003c0 b0 ed 77 3e 9e 4a bf be c8 d6 92 be 91 32 3a be
       0.24211764 -0.37361616 -0.2867949 -0.18183352
0003d0 c3 b3 73 be cf 1e 92 3e 1d b0 45 bd 10 4e 09 be
       -0.23799042 0.2853913 -0.048263658 -0.13408685
0003e0 c6 54 cd 3e da 7b d3 be 27 b0 d3 3d 6e 32 c5 be
       0.4010374 -0.4130543 0.10336333 -0.38515037
0003f0 99 b6 d6 bd 65 86 e9 be bc 9b b8 3e c2 5b 12 3e
       -0.104840465 -0.45610347 0.36056316 0.14292815

feature_exact.op_attention_blocks.0.attention_0.a f4 [64, 1]
000000 89 0d 5c 3e cc 1a cf 3e 66 8e b0 3e a4 43 8c be
       0.21489538 0.40450132 0.3448364 -0.27395356
000010 f3 21 62 be 03 94 05 bf 6e 4a 39 be 41 55 96 3e
       -0.22083263 -0.5217897 -0.18094799 0.2936192
000020 2d 81 82 3e 8d 12 ed 3e c1 61 04 be c5 ab e7 bd
       0.25489178 0.46303216 -0.12927915 -0.11312059
000030 fe d9 71 bd 3b 9d 8a bc 29 2f eb bd 9e bc e4 3e
       -0.059045784 -0.016920676 -0.114836045 0.44675153
000040 ac 64 00 be 0f 15 d3 be 07 73 30 3e b5 5a d4 be
       -0.12538403 -0.41227004 0.1723138 -0.41475454
000050 e3 61 73 3e c7 b6 10 3e 00 98 bf 3e a5 78 d3 be
       0.2376781 0.14132224 0.37420654 -0.41302982
000060 65 90 28 be 2f 15 5d 3d 71 be 8d be 50 13 d3 be
       -0.16461332 0.05397528 -0.27684358 -0.41225672
000070 cf 85 77 3e b0 36 8b be 58 7d dd 3e a6 87 c8 3e
       0.24172138 -0.2719016 0.43259692 0.39165992
000080 aa 72 a8 3e 95 d5 11 3d 18 10 1d 3e 62 07 e5 3e
       0.32899982 0.03560408 0.1533817 0.44732195
000090 b9 2a 49 be f5 85 9b 3d e8 e9 28 3e 67 14 97 bd
       -0.19645204 0.0759391 0.16495478 -0.07376938
0000a0 ed 05 9a 3e 17 10 a4 3e 90 15 57 3e c8 10 98 bd
       0.30082646 0.32043526 0.21004319 -0.07425076
0000b0 d2 b7 e1 3e 8d 12 85 3e a9 ab 23 be c4 4b 40 be
       0.44085556 0.25990716 -0.15983452 -0.18778902
0000c0 96 cf fe 3e 2a 91 d0 3d 0f ca 93 3e 8a aa d4 3e
       0.4976775 0.10183938 0.28865096 0.4153636
0000d0 7f d0 93 3d a8 bf bc 3e 23 57 64 3d 06 cf 7f bc
       0.07217502 0.36864972 0.055747163 -0.015613323
0000e0 0e dc e2 be 20 a7 c7 bc 9b 05 8d 3e 89 05 10 be
       -0.44308513 -0.024371684 0.2754334 -0.14064611
0000f0 1b 04 ea 3e 35 87 4c be 43 09 cf bc 1e 9d a4 be
       0.45706257 -0.19973452 -0.025272971 -0.3215112

feature_exact.op_attention_blocks.0.attention_1.W f4 [10, 32]
000000 e9 07 3f be 64 e4 06 3f 4b 24 a5 be 94 5e f6 bd
       -0.18655361 0.52692246 -0.32254252 -0.12029758
000010 75 8d 94 bd 65 59 b4 3e f0 3b 64 be ae 0e ff 3e
       -0.07253543 0.35224453 -0.2228849 0.49815887
000020 91 22 f8 3e 4d d9 73 3e 98 cd 2b 3e eb ae 96 be
       0.48463872 0.23813362 0.16777647 -0.29430327
000030 2f 30 4e be 55 24 ed 3e 2f 8a 1a 3f 0e 5c d2 3e
       -0.20135568 0.46316782 0.603671 0.41085857
000040 bd 46 69 be c3 a7 6a bd 7d df 5d 3e 11 1e f9 be
       -0.22780891 -0.057288896 0.21667285 -0.4865575
000050 8e ad 85 3e c0 6e 9e 3d 4c 3b 8b 3e d9 37 ec 3d
       0.26108974 0.07735968 0.27193677 0.115340896
000060 ff e7 0f 3f b7 18 0f bf 99 f7 81 3e 16 8a 73 be
       0.5621337 -0.55897087 0.25384215 -0.23783144
000070 f0 41 56 3e 8f 22 d5 be 16 ca 37 3e d3 46 ee be
       0.2092359 -0.4162793 0.17948183 -0.4653841
000080 08 03 b4 3d 81 96 e0 3e 27 4f f1 be a1 a4 f2 bc
       0.08789641 0.43864825 -0.471307 -0.029619517
000090 8b 25 9a be bc 3f fe 3d 30 d1 3a be e6 ca 23 3f
       -0.30106768 0.124145 -0.18243861 0.63981473
0000a0 d8 2b 93 be 17 37 c8 bd 2f 4a ed be 8c 53 65 be
       -0.28744388 -0.097761326 -0.4634566 -0.22395152
0000b0 72 a5 b6 be 38 35 ad bd b5 ed 58 3e 6d db 1a bf
       -0.356731 -0.08457416 0.21184428 -0.6049107
0000c0 c9 1a aa 3e 2c d3 9b 3e bc 90 9b 3e c1 16 37 3f
       0.3322356 0.3043455 0.3038386 0.71519095
0000d0 ee 59 3e 3c a1 90 a0 be 63 cd 86 bd 68 8a 7f 3e
       0.011618121 -0.31360343 -0.06582143 0.24955142
0000e0 33 71 41 be 60 b7 c2 be 14 87 7c be a4 c1 df be
       -0.18890838 -0.3803053 -0.24660903 -0.43702424
0000f0 60 c5 8e bc 45 5c 3a 3e 56 60 ee bd f1 25 e4 be
       -0.0174281 0.1819926 -0.11639468 -0.44560197
000100 2c 51 40 bd a7 03 a7 3e 53 98 18 be ea 5c 0f 3f
       -0.04695241 0.32619974 -0.14901857 0.5600115
000110 34 25 11 3e 2d be 33 bd 03 ee ac bd f8 cc ca 3d
       0.14174348 -0.043882538 -0.08443835 0.09902376
000120 88 61 e0 3e 23 8a 8e 3d 5f da 14 3d fa 55 8a 3e
       0.4382441 0.06959941 0.036341067 0.2701872
000130 61 63 fe be 3c 6d e9 3c 51 9b 2f bc a1 52 fc be
       -0.49685195 0.02849447 -0.010718183 -0.4928179
000140 9c 8b 42 be 23 10 b4 3e 89 59 bf be 2e a5 3d 3e
       -0.18998569 0.3516856 -0.37372997 0.18520042
000150 14 15 3f be 58 ed 01 3f 03 82 03 3f 7e 4d 96 3e
       -0.18660384 0.5075278 0.5137026 0.29355997
000160 f8 88 ba be a2 50 0b bf d7 74 72 3e 26 04 e3 bd
       -0.36432624 -0.5441991 0.23677383 -0.110847756
000170 69 d1 1c 3e 94 a5 34 3e 98 93 07 3e 8b 35 d3 3d
       0.15314259 0.17641288 0.13239896 0.10312947
000180 d1 44 8b 3c ff d6 e8 bd a6 c3 0d 3e 3d 27 d2 3d
       0.017000588 -0.11369132 0.13844165 0.1026139
000190 63 7f 26 3e b7 07 9d 3e db f8 de be c0 8e a2 bd
       0.16259532 0.30669948 -0.43549237 -0.07937384
0001a0 b5 49 1c bd 90 4e b8 3e 4f 62 ab be be ca 5a 3e
       -0.03815623 0.35997438 -0.3347344 0.21366403
0001b0 94 94 e6 3c 63 c3 03 3f 6b b5 a2 3d 41 60 a1 bd
       0.02814702 0.5147001 0.07944759 -0.07879687
0001c0 1f 10 e7 3e 7d 05 34 3c 59 cb be be 52 3d 18 be
       0.45129487 0.010987637 -0.37264517 -0.14867142
0001d0 01 e6 6b 3e be 07 d7 be 01 ce bc be 0a c1 30 3e
       0.23036958 -0.41998094 -0.36875919 0.17261139
0001e0 ba 87 c4 be ce c3 09 be 7e df fe be 44 54 b6 3e
       -0.383848 -0.134536 -0.49779886 0.35611165
0001f0 a8 24 ac be 1a c0 cb 3d 8a 46 2f 3e 6b a1 a2 bd
       -0.33621716 0.0994875 0.17116752 -0.07940944
000200 79 01 8e be 07 c0 90 bd 6d 30 8f 3e 43 be 00 3f
       -0.277355 -0.07067876 0.27966633 0.50290316
000210 6b 8c 7a 3e f5 5e 00 3f 74 6a 10 3f 6a df cf be
       0.24467628 0.5014489 0.56412435 -0.4060014
000220 16 cc d9 be df 79 a5 3e 0f ae a6 be c8 1c 92 be
       -0.42538518 0.32319543 -0.3255467 -0.28537583
000230 84 bd 7f 3e 86 1c 94 3d b1 42 93 3d 69 c4 07 3f
       0.24974638 0.07232003 0.07190455 0.53034073
000240 46 2e 26 be bf c6 84 bd 95 66 01 bf e6 a1 63 be
       -0.1622859 -0.0648322 -0.5054715 -0.22229728
000250 a9 ce 03 bf 7d e5 a7 be d1 a9 10 3e aa 70 89 b9
       -0.51487213 -0.32792273 0.1412728 -0.00026214618
000260 b3 a1 12 3f dc 25 51 3e 3b c0 70 3e f9 5f bd be
       0.57277983 0.20424598 0.2351083 -0.36987284
000270 73 7e e0 be 4d e9 87 3e 1f 62 00 3e ef fa ee 3e
       -0.43846473 0.26545182 0.1253743 0.46675822
000280 a1 32 3a 3e e6 b1 fe 3e 46 be 57 3e 1a 03 84 3d
       0.18183376 0.497451 0.21068677 0.06445904
000290 77 57 9c 3d 04 67 1c be c0 ab 68 3e bc 39 b1 be
       0.0763387 -0.15273672 0.22721767 -0.3461436
0002a0 87 2d eb be 28 de 91 be 7c 7c 8c 3e e9 dd 45 3e
       -0.45933172 -0.28489804 0.27438724 0.19322933
0002b0 74 2a 37 3e 9f 85 97 3e 83 8f c6 3e e5 ed 3a be
       0.17887288 0.29594132 0.38781366 -0.18254812
0002c0 f5 e9 a2 bd 6e b5 54 3e 36 d1 05 3f b4 5a 2a be
       -0.0795478 0.20772335 0.52272356 -0.16636163
0002d0 71 8f 28 be ab 4b 05 be 55 6b 81 3e 4b 8b 7b bd
       -0.16460969 -0.13017146 0.252772 -0.061412137
0002e0 e7 ce 97 bb 9b b0 33 3d d0 02 99 3e ea 2a 03 3f
       -0.004632819 0.043869596 0.29884958 0.51237357
0002f0 c8 aa 85 be 97 88 22 3f 13 a3 04 3f 66 96 5e be
       -0.26106858 0.6348967 0.5181133 -0.2173706
000300 5d fd c5 be 63 ff c8 3e 4c b8 92 be 8c 91 26 bf
       -0.38669863 0.39257345 -0.28656232 -0.65065837
000310 b0 8c de be fd 1d af 3e 77 d3 10 bf 84 f2 f6 bc
       -0.4346671 0.34202567 -0.5657267 -0.030144937
000320 1e 1f fc 3e c1 ef f8 bd e7 5c da 3d eb 84 d3 be
       0.4924249 -0.121551044 0.10662251 -0.41312346
000330 9e 3f ad 3e e4 83 88 3e b9 6b 00 bf 3f c5 6c be
       0.338376 0.26663125 -0.5016437 -0.23122118
000340 f7 a3 82 be 99 90 02 3f d2 cc 95 be 51 e3 c9 be
       -0.2551572 0.5100189 -0.29257828 -0.3943124
000350 cb 5a 0a 3f 68 28 a3 be 4d 65 85 3e 86 43 e8 3e
       0.5404479 -0.31866765 0.2605385 0.45364016
000360 2a 64 f2 3e 3d 71 ec be 61 c9 39 bd c9 39 80 bd
       0.47342044 -0.46180144 -0.045358066 -0.06261022
000370 8b d9 60 3e 40 4a 06 3f 78 74 70 be c3 57 91 bd
       0.21957986 0.52457047 -0.2348193 -0.07096817
000380 3f 32 8a bd 66 13 cd 3e 9b a6 9b 3e 80 f5 b0 be
       -0.06747865 0.40053862 0.30400547 -0.34562302
000390 4e 3b 63 3c 69 5f 38 be 44 59 7a 3e ab 18 71 be
       0.01386912 -0.18005146 0.24448115 -0.23544566
0003a0 9d ff a1 be 59 39 7d 3b de 3e 85 bd 51 c9 ba be
       -0.3164033 0.0038638918 -0.065061316 -0.36481717
0003b0 3e 3d ee 3e 24 06 9d 3e b7 49 63 bc c7 90 0c 3f
       0.465311 0.30668747 -0.013872555 0.5490841
0003c0 ec c8 8e 3e 90 27 30 3e 47 39 6b 3e c8 64 aa 3e
       0.27887666 0.17202592 0.22971068 0.33280015
0003d0 2d a5 68 be 59 63 b0 be fb 8d f7 3e 83 ff 9e be
       -0.2271926 -0.34450796 0.4835051 -0.31054315
0003e0 0f d4 96 3e f5 58 c4 3e 6e b3 cd 3e 90 e2 92 3e
       0.29458663 0.3834912 0.40175956 0.28688478
0003f0 9f 8e d8 be af 4f 5d 3c 66 78 df be 18 ea d6 3d
       -0.4229631 0.013507768 -0.43646544 0.104938686

feature_exact.op_attention_blocks.0.attention_1.a f4 [64, 1]
000000 fd 1e 1d 3e 1e 72 a9 3e cf f1 4c 3d 87 a1 cd 3e
       0.15343852 0.33094877 0.050035294 0.40162298
000010 6f 89 88 be 74 20 4e bd e4 41 c3 3e 12 bb da bd
       -0.26667354 -0.05032392 0.38136208 -0.10680212
000020 f4 97 86 be d9 2d 00 be c4 49 59 3e e6 ba b3 be
       -0.26287806 -0.1251749 0.21219546 -0.3510353
000030 64 06 f2 3e 3a 7f 36 be e5 c9 cb be c4 3b 8e 3d
       0.472705 -0.1782197 -0.3980247 0.06944993
000040 21 f7 46 3e ad 1f e3 3d 01 73 a6 3d c6 d7 30 3e
       0.1943021 0.11090026 0.08127404 0.17269811
000050 9d 9d 88 3e 66 51 02 3e b2 14 33 3e 7e 41 2e be
       0.2668275 0.12726364 0.17488363 -0.17017171
000060 d9 2b 76 bd 97 64 62 3e fa b4 4a 3e ca 3e f6 3d
       -0.06010041 0.22108684 0.197956 0.12023695
000070 47 ac 3d be e2 3f 89 3e 16 44 73 be 11 97 a6 bd
       -0.1852275 0.2680655 -0.23756441 -0.081342824
000080 65 b8 5e 3d a9 34 bf 3c 43 5f cd be 11 f7 8e bd
       0.05437507 0.02334054 -0.4011174 -0.06980718
000090 94 09 b3 3e 56 66 67 be d3 52 95 be a8 00 b9 3e
       0.34968245 -0.22597632 -0.29164752 0.36133313
0000a0 8c 92 04 3e dc 53 d9 3d af 36 2b 3e 82 f3 b4 be
       0.12946528 0.10611698 0.16720079 -0.35342032
0000b0 6a 3f bf 3d 2f 92 6f be dc 0f c6 bd e0 42 c3 be
       0.09338267 -0.23395608 -0.09670994 -0.3813696
0000c0 37 7d b4 3e f5 47 8c be 49 13 9e 3e 42 30 11 bb
       0.3525178 -0.2739865 0.30874088 -0.0022154008
0000d0 32 45 95 3e 41 11 a3 be e9 d4 a7 3e 0b 1d c9 be
       0.29154354 -0.318491 0.32779625 -0.3927997
0000e0 cd a2 78 bc 9b 6e 86 be ee 6f f6 3b c0 d5 b3 3e
       -0.0151755335 -0.2625626 0.0075206673 0.35124016
0000f0 c7 05 bf be ef 9f c2 3e 27 4a fd 3d 5f 3c 86 be
       -0.37309095 0.38012645 0.12367659 -0.26217934

feature_exact.op_attention_blocks.0.attention_2.W f4 [10, 32]
000000 90 c9 31 3d bd 2f 2e bf 5c 4b 80 be f1 77 15 3f
       0.043405116 -0.6804159 -0.25057495 0.5838614
000010 db 25 47 be 5c 90 1b 3f c4 86 76 be 20 34 35 3e
       -0.19448034 0.6076715 -0.24074847 0.17695665
000020 3a ec 88 3d 69 7e 87 bc 9c 21 00 3f 0e 8e a0 3e
       0.06685682 -0.01653977 0.50051284 0.3135838
000030 10 dc d6 3e 81 4d ec 3e 5b be 32 3e 17 80 58 be
       0.4196477 0.4615288 0.17455427 -0.21142612
000040 57 34 02 bf 5e f5 9d 3e 9f ec 96 3e 91 ea bb 3e
       -0.50861114 0.30851263 0.29477403 0.36702397
000050 f0 31 94 be 20 f7 cf 3e 8e 22 04 be 05 73 0d 3f
       -0.2894435 0.4061823 -0.12903807 0.5525363
000060 a0 65 fb be 27 8e d0 be a8 71 2f be 17 36 65 be
       -0.4910097 -0.40733454 -0.171332 -0.22383915
000070 66 3b e3 3e 73 c0 69 be db 0f d0 3e b2 eb 8d 3e
       0.44381255 -0.2282732 0.40637097 0.27718884
000080 65 50 bd be 8b b0 08 be 44 94 1b be 97 fc d7 3e
       -0.369754 -0.13348596 -0.15193278 0.42184898
000090 ad 03 c1 be e1 5c 1b 3e 0d 3e 57 be 8c b3 38 bf
       -0.37698117 0.15172149 -0.21019764 -0.72148967
0000a0 3e 31 8d 3e 2b 57 e5 be c0 66 6a bd 97 3d 39 3e
       0.2757663 -0.44793066 -0.057226896 0.18089901
0000b0 3c e2 ce be 5b b0 c5 be 17 0d cd 3e db 7a b6 3e
       -0.40406978 -0.3861111 0.4004905 0.35640606
0000c0 24 4c ba 3e fe a8 8d be 20 f2 e6 3b 82 eb ae 3d
       0.36386216 -0.27667993 0.0070479065 0.08541013
0000d0 e2 57 0f bf 54 44 c7 3d 84 4a ed be dd e3 94 3e
       -0.55993474 0.097298294 -0.46345913 0.29080096
0000e0 3c 08 0e bf 36 d8 9c bd 46 7e 33 be 5d b0 a4 3e
       -0.55481315 -0.076584265 -0.17528638 0.32165805
0000f0 bf e9 d2 3e 72 aa b9 be f4 6b fd be 94 4b b6 bc
       0.4119396 -0.36262852 -0.49496424 -0.022252835
000100 82 84 b9 3e 52 91 c1 3c f2 ba 85 3e 5b 48 39 be
       0.36233908 0.023628864 0.2611919 -0.18094008
000110 8d 65 87 bc c0 13 06 3f be a4 da be 02 25 c9 3d
       -0.016527915 0.52373886 -0.42703813 0.09821512
000120 35 24 8f 3e 02 e1 dc 3d 78 4e c5 be 71 65 54 be
       0.2795731 0.10785104 -0.3853643 -0.20741822
000130 78 24 96 3e 8b 44 10 bf 8c 44 66 3e 64 fc 0e 3d
       0.29324698 -0.5635459 0.22487086 0.034908667
000140 c1 4a c6 be 9a 9f e2 3e ef 83 f9 be 39 d9 7e 3e
       -0.38728908 0.4426239 -0.4873347 0.24887551
000150 e6 c7 11 be 0b a9 03 bf 32 36 9c 3e fd 7c c3 3d
       -0.14236411 -0.51429814 0.30510098 0.09545324
000160 e8 55 16 3e a8 af 96 be 87 46 85 3d df c4 ff bd
       0.14681208 -0.2943089 0.06507593 -0.12488722
000170 df 29 54 be 90 3c 8b 3e 38 1f 75 bd 6e af 0c 3f
       -0.20719098 0.27194643 -0.059844226 0.54955184
000180 12 f2 eb be b3 27 03 3f 90 59 be be b4 77 9c be
       -0.46083122 0.5123245 -0.37177706 -0.30560076
000190 5e cc a3 3c d5 63 99 3e ef b6 76 3e bd 5d b1 bc
       0.01999491 0.29958978 0.24093221 -0.021651143
0001a0 39 24 cd 3e 1c 3e f8 3e 85 16 cf be 8e 85 9e 3d
       0.40066698 0.48484886 -0.4044687 0.07740317
0001b0 99 8a a1 3e b2 4e 3f be bc c6 91 bd 0a a1 9f 3d
       0.31551054 -0.18682364 -0.07117984 0.07794388
0001c0 56 15 06 be 08 65 8f be 9d 09 54 3e 7a 97 c0 3e
       -0.13094077 -0.28006768 0.20706792 0.37615567
0001d0 b7 05 cc bc bb 66 0b 3e fe cd 27 be 9d cf 62 bd
       -0.024905069 0.13613407 -0.16387174 -0.055373777
0001e0 1d d5 84 3d db 98 8e 3d 00 ce 0a bf b5 16 e0 3e
       0.06485961 0.069627486 -0.5422058 0.43767324
0001f0 86 75 f5 3e 29 40 d5 3e ca 5d 05 bf 2d 80 cc 3e
       0.47941226 0.41650513 -0.52096236 0.3994154
000200 ed 08 d0 be 95 d0 b8 bd 28 f4 81 be 5d 4a f3 be
       -0.4063181 -0.09024159 -0.2538159 -0.47517672
000210 27 d5 54 3e 7f cd 62 be ec e9 54 3e b3 77 b7 3e
       0.20784436 -0.22148703 0.20792359 0.3583351
000220 c0 fa de 3e 94 ac 91 3e dc 06 2b be 5d 80 a4 3e
       0.43550682 0.2845198 -0.16701835 0.32129183
000230 63 a5 65 3e 6f aa f9 3e 01 37 8b be 83 9b a9 be
       0.22426371 0.48762843 -0.27190402 -0.3312646
000240 a8 3a b5 be b2 97 1a 3e 8a 34 39 bf 32 83 d0 3e
       -0.35396314 0.1509693 -0.72345793 0.40725094
000250 97 0a 90 be 42 14 cc be 20 98 74 3d 78 1d 0d 3f
       -0.2813308 -0.39859205 0.05971539 0.5512309
000260 d5 59 5f 3e f5 63 ab 3e 19 96 bc 3e 1d 73 b0 3e
       0.21811612 0.334747 0.36833265 0.34462824
000270 bf ec 10 3f 85 a8 53 be 19 47 14 bf 60 9e c1 3e
       0.56611246 -0.20669754 -0.57920986 0.37816143
000280 96 15 bb be ff 61 8b be 26 2f ed bc e5 eb de be
       -0.36539906 -0.27223203 -0.028953146 -0.43539348
000290 8d 13 b0 3e 49 ee de 3e 1f 93 a3 be 24 22 27 3f
       0.34389916 0.43541172 -0.31948182 0.6528647
0002a0 c6 8e 0f bf 2b 37 10 bf f9 e0 6c be 1f b6 ef be
       -0.5607723 -0.5633418 -0.23132695 -0.46818635
0002b0 61 71 07 bf dc 96 64 3e ef 5a 8f 3e c9 11 19 bd
       -0.5290738 0.22323173 0.27999064 -0.037370477
0002c0 a2 38 c8 be 9c cc fa 3d e0 c8 23 be 2a 4e e1 be
       -0.39105707 0.122460574 -0.15994596 -0.44004947
0002d0 71 11 0a 3f 13 3d 79 3e 1a 96 07 bd eb 74 02 3e
       0.53932863 0.24339704 -0.033102132 0.12739913
0002e0 e2 40 94 3e 95 0c 6e 3e 45 08 8a bd 71 ab c7 be
       0.28955752 0.23246987 -0.067398585 -0.38997987
0002f0 c5 17 fc 3b 71 a9 9f be ca 0e d7 3b dd 68 fa be
       0.0076932632 -0.3118396 0.0065630423 -0.4890813
000300 45 8b fc be 7b e4 b9 bd 35 49 7f 3e 47 42 3c bd
       -0.49325004 -0.09076782 0.2493027 -0.045961645
000310 2e a4 bc bb 54 20 44 3f 85 0d 01 bd b2 40 8b be
       -0.0057568764 0.7661183 -0.031507034 -0.27197796
000320 9e bd ce be 45 d8 af 3d 23 51 0a 3e 70 6a 12 be
       -0.4037904 0.08586172 0.13507514 -0.14298415
000330 1a e2 df be b3 89 b1 be b9 41 60 bc a2 d8 0e 3f
       -0.4372719 -0.3467537 -0.0136875445 0.55799305
000340 ac 81 cf 3e b4 4a 45 3e db 57 5f 3e ff 3f 8f be
       0.4052862 0.19266778 0.21810858 -0.27978513
000350 b6 47 a5 be 09 fc 9d 3c c7 4e 0c be 08 fb 98 bd
       -0.32281274 0.019285219 -0.13701926 -0.074697554
000360 7a 0b b4 bd 1c ee 4b 3e 4a a0 29 bd 12 02 8b be
       -0.087912515 0.1991505 -0.04141263 -0.27150017
000370 35 8b e9 bd 20 37 54 be 7a 38 14 bf 7e e0 77 3c
       -0.11403505 -0.20724154 -0.57898676 0.015129207
000380 07 9b b7 3d 5b 09 a5 be d9 1a 6e 3e ab d6 62 3e
       0.08965116 -0.322337 0.23252429 0.22152202
000390 9f 87 86 3e 1b 1a ef bc ec 9f f8 bd 16 98 de 3e
       0.26275346 -0.029187253 -0.12139878 0.43475407
0003a0 58 6b c3 3e 35 a2 bd 3e 6e 9f e7 be 28 56 0c bd
       0.38167834 0.37037817 -0.45238823 -0.034261853
0003b0 4f 9d 60 bc 01 92 c4 3e ac 19 ac bd 8f c2 ac be
       -0.01370938 0.38392642 -0.08403334 -0.33742186
0003c0 ef 41 c2 3e 4f 1c 94 be 2e d8 e7 be 12 b6 bf 3e
       0.37940928 -0.28927848 -0.4528212 0.37443596
0003d0 6f 73 75 be ec b2 15 bc 30 1d c5 bd e3 88 ed 3d
       -0.23969816 -0.009136897 -0.09624708 0.11598375
0003e0 21 72 c7 be 52 9e e5 3d 23 3e 8d 3e 9c 6e 6e 3d
       -0.3895426 0.11211838 0.2758647 0.058210954
0003f0 55 99 a7 bc f3 f9 a6 3e d4 bc 91 3d dd a1 bb bd
       -0.020458857 0.3261257 0.07116094 -0.09161732

feature_exact.op_attention_blocks.0.attention_2.a f4 [64, 1]
000000 da 1c c3 3d f7 fd bd be fd 80 02 bf 8c b6 8b 3e
       0.095269874 -0.37107822 -0.5097807 0.2728771
000010 c5 e7 c8 3e 84 53 b0 3d 80 0c 34 be e9 51 bc 3e
       0.39239326 0.08609679 -0.17582893 0.36781242
000020 0b d1 26 3e 57 79 de be 0c 94 40 bb 72 44 c7 bd
       0.16290681 -0.4345195 -0.0029385118 -0.09729852
000030 d0 16 c5 bd dc ad 09 3e db 68 d9 bc 4a 6f c5 bb
       -0.09623492 0.13445228 -0.026539257 -0.0060252296
000040 bf d3 06 be b9 49 9c 3e 4b d4 4c 3e bb 63 0d be
       -0.13166712 0.30524996 0.20002858 -0.13807575
000050 b0 c6 92 be 28 9f 8f 3e c8 d9 dc 3d ec 99 ed 3d
       -0.28667212 0.28051114 0.10783726 0.11601624
000060 1f 07 31 3e da a5 1a 3e 0c 5e b8 3d f1 92 b0 3c
       0.17287873 0.1510233 0.09002313 0.021554442
000070 07 b1 98 3e 41 d4 8d bd ec db e8 3e ca 04 94 be
       0.2982256 -0.0692525 0.45480287 -0.28909904
000080 ae ae dc 3e 61 52 c2 3e 2f 61 80 be de a3 cf be
       0.4310202 0.37953475 -0.25074145 -0.40554708
000090 6b 21 a9 3e d5 d1 e3 be c7 cb e6 3d dd 52 ab be
       0.33033308 -0.44496027 0.11269336 -0.33461657
0000a0 24 8c a7 3e ef 98 d4 3e 3f c7 26 3d d5 f7 a0 3e
       0.32724106 0.4152293 0.04071736 0.3143908
0000b0 3d 21 77 3b f3 ff 8c be 42 15 4b 3d 13 a5 8b 3d
       0.003770902 -0.27539024 0.04958082 0.06818595
0000c0 92 71 28 3d 9b 09 33 3e 5b 73 e2 3c b7 4e 81 bd
       0.041123934 0.17484133 0.027642896 -0.06313842
0000d0 c5 ba ae be 37 58 fb be 81 2b 79 3e c6 56 09 bd
       -0.3412687 -0.4909074 0.24333002 -0.03353002
0000e0 0d 4a 0b be a2 83 92 bd 7f a7 e5 3e 3a c6 27 3d
       -0.13602467 -0.07154013 0.44854352 0.040960528
0000f0 b6 7c d1 be f2 ad 77 3e 95 f4 1f 3e 3f 40 71 3e
       -0.4091546 0.24187449 0.15620644 0.23559664

feature_exact.op_attention_blocks.0.attention_3.W f4 [10, 32]
000000 ea 90 97 3e 44 a1 10 3f 4d e4 cf 3e d3 2b 9d be
       0.29602748 0.5649607 0.40603867 -0.30697498
000010 1f 43 0e bf 85 09 fe be 45 f3 15 bf b4 41 11 3f
       -0.5557117 -0.49616638 -0.58574325 0.5674088
000020 a4 fe ed be e4 e2 e1 3e 0d ea 4a bf b9 09 8e 3e
       -0.46483338 0.44118416 -0.79263383 0.27741793
000030 a4 1a e7 3e a5 33 4f 3e a9 54 c2 be e4 8b 04 bf
       0.45137513 0.20234545 -0.37955216 -0.51775956
000040 00 35 d4 3e 5a 72 10 bf 01 f2 2b 3f 6c 1d 14 3e
       0.41446686 -0.56424487 0.67166144 0.14464349
000050 cc fa e2 ba 9b c2 d9 be 1f a4 fe 3b 92 2d 21 bc
       -0.0017317175 -0.42531285 0.0077710296 -0.009837525
000060 cb 3c d9 3c af fc 7a 3e bb 65 05 3f 9c 47 33 3e
       0.026518246 0.24510454 0.52108353 0.17507786
000070 51 9f 06 bf c4 40 0f bf c2 57 af 3e 9a 23 0b bf
       -0.5258685 -0.559582 0.3424664 -0.543512
000080 81 5d 48 3e 2e f5 b0 be 21 cb 32 bf b2 d4 23 3e
       0.19566919 -0.34562057 -0.698412 0.15999106
000090 d2 ec 00 3f 64 0b 76 3e 55 56 38 be ab 1e fb 3e
       0.5036136 0.24027783 -0.18001683 0.49046835
0000a0 b4 88 c1 3e 7a 00 f3 3e 4c ea 6e bc e8 31 13 bf
       0.3779961 0.474613 -0.014582228 -0.57498026
0000b0 94 10 0f 3e 3c e2 25 bf 56 5d c0 3e 8b 6a 1a 3e
       0.13971168 -0.6479833 0.3757121 0.15079705
0000c0 34 db f1 3e 4c 8f e1 3e 9e 53 98 be a4 c7 22 3f
       0.4723755 0.4405464 -0.29751295 0.6358588
0000d0 38 df 6e 3d 09 f7 9b 3e 32 9e 65 be 85 c0 87 3e
       0.058318347 0.3046191 -0.22423628 0.26514068
0000e0 81 a9 c2 bc 18 c0 ca 3e 76 c1 06 3f 7a 3a b8 be
       -0.023762466 0.3959968 0.5263895 -0.35982114
0000f0 73 18 ec be dd 7d 0c bf 4c 04 0f bf 89 d2 16 bf
       -0.46112403 -0.5487955 -0.5586593 -0.58915
000100 6e 80 cb 3e 9d 6c 8a be 7d d5 72 bd 26 11 86 3e
       0.39746422 -0.2703599 -0.05928563 0.26184958
000110 b8 7e b4 be c2 b0 6a 3e 62 cd dc bc 5c 08 15 bf
       -0.3525293 0.2291899 -0.026953403 -0.5821588
000120 34 b7 14 3f 5c 97 08 3f 2c 66 71 be 6a 1d 03 3d
       0.58092046 0.53355956 -0.23574132 0.032010473
000130 61 a2 87 3e 9b fd 18 bd 05 7a 90 3e a3 40 20 3e
       0.26491073 -0.037351232 0.28218094 0.15649657
000140 ce 42 37 3e 23 c9 01 3f f7 67 cb 3d 72 22 b3 be
       0.17896578 0.50697535 0.09931939 -0.34987217
000150 3f 24 79 be 83 57 06 3f 9b f7 6b 3e c9 1f 30 be
       -0.24330233 0.5247728 0.23043673 -0.17199625
000160 db af 0d be 37 46 3e be b3 b8 90 be f5 4e f9 be
       -0.13836615 -0.18581472 -0.28265914 -0.48693052
000170 33 2a 94 3e 1d 9a c0 3e e3 61 8b be 91 17 1f be
       0.28938445 0.3761758 -0.2722312 -0.15536334
000180 82 22 1d bf 09 63 eb bd 9f a8 26 3e 7c 58 d9 3d
       -0.6138078 -0.11493499 0.16275261 0.1061258
000190 07 57 9c be 55 77 a5 be 25 c9 95 3e 6e 3c c7 be
       -0.30535147 -0.32317606 0.29255024 -0.38913292
0001a0 67 76 ce 3e 8c 71 6e be 12 bd ed 3e 5f 3b d0 be
       0.4032471 -0.23285502 0.46433312 -0.40670297
0001b0 29 fe 24 3e d9 95 98 bd 94 5c 77 be b3 98 c1 be
       0.1611258 -0.07450456 -0.2415641 -0.37811813
0001c0 2d 88 03 bf 02 df b3 3e 4b b9 b5 be 40 38 98 3d
       -0.5137966 0.3513108 -0.3549293 0.07432604
0001d0 c1 c7 9b 3e ac 7c 23 3e eb ab f8 be ac 85 61 3e
       0.30425838 0.15965527 -0.48568663 0.22023648
0001e0 8b 67 bb 3e ba 78 11 3f cd b1 13 3e 85 d8 1a 3e
       0.36602435 0.5682484 0.14423294 0.15121658
0001f0 79 ad 34 3d 13 a8 e8 3e 48 bc e9 3e 9c 04 02 3d
       0.04411075 0.4544073 0.4565146 0.031742677
000200 ce f7 ae 3e 9e 8d 8d 3e 0f 8b 81 bd 48 8c 3f 3e
       0.34173435 0.27647108 -0.063253514 0.18705857
000210 bb 4c 19 be 27 31 93 be e3 fe ad be ec 03 b2 be
       -0.14970677 -0.28748438 -0.33983526 -0.34768617
000220 69 17 19 3f f5 f6 e9 bd f0 d6 c5 be ba cf 0e 3f
       0.59801346 -0.114240564 -0.38640547 0.55785716
000230 7f f4 02 3f 4b 53 a1 3d b3 9b a1 be 9a 63 f7 3e
       0.5115432 0.07877215 -0.31564102 0.48318177
000240 79 76 00 be af 68 02 bf 6a 84 f6 bd 13 39 a1 3e
       -0.12545194 -0.50940984 -0.12036975 0.31488857
000250 6f b4 f4 bd bb a5 0f 3f 82 99 dd 3b 78 60 5e 3e
       -0.119484775 0.5611226 0.0067626843 0.21716487
000260 dc 90 14 bf 11 31 0c bf 41 46 72 3e 7e 08 03 bf
       -0.5803354 -0.5476237 0.23659612 -0.51184833
000270 01 76 94 3e 80 28 fd be 32 50 c1 be a1 a3 c2 3e
       0.2899628 -0.49444962 -0.37756497 0.38015464
000280 f8 de 63 3e f6 d3 7e 3e 20 55 74 3e 31 44 fc be
       0.22253025 0.24885544 0.23860598 -0.49270776
000290 7a 40 da ba 71 52 19 3f 14 bc e3 3e c9 ac e8 be
       -0.0016651296 0.5989142 0.4447943 -0.45444325
0002a0 76 52 59 3e fa 41 0a bf 4d 2d 10 3f a8 f5 16 be
       0.21222863 -0.5400692 0.56319124 -0.14742148
0002b0 6a 4c 6a bd 1c 33 c5 3e 95 c3 74 be a7 f3 9b 3e
       -0.05720178 0.38515556 -0.23902734 0.3045933
0002c0 44 7b 9c bd f7 06 e5 3e e5 97 83 3e 48 a4 af 3c
       -0.076406986 0.44731876 0.25701824 0.02144064
0002d0 94 40 a3 3e f8 24 df 3e dc f4 1f 3e 26 31 ce 3e
       0.31885207 0.43582892 0.1562075 0.40271872
0002e0 88 de c1 be 13 ca ab 3e 13 dd 62 be 05 b1 96 be
       -0.3786509 0.33552608 -0.22154646 -0.2943193
0002f0 74 59 e1 3d 17 59 d4 bd 95 56 eb 3e cc 3a 11 3f
       0.1100339 -0.10368555 0.45964494 0.5673034
000300 1c 17 00 3f 84 de 19 3d 48 84 00 3f c8 2f 04 3f
       0.5003526 0.037565723 0.50201845 0.5163541
000310 05 77 06 bf 7e 43 e4 be d3 6f 20 bf 36 27 d4 3e
       -0.5252536 -0.44582742 -0.6267063 0.41436166
000320 7f 1e b9 3d 59 3f 53 3e 84 bb ae 3d 42 8b 19 3e
       0.0903902 0.20629634 0.085318595 0.14994529
000330 fd 75 44 bb f1 87 ec be c2 fd 1f be 19 2c 18 3c
       -0.0029977553 -0.46197465 -0.15624145 0.009287857
000340 fc 8c 16 3f 2e 61 b5 3b cb 9a 94 be 43 a5 99 be
       0.58808875 0.0055352664 -0.29024348 -0.30008897
000350 91 4f 97 3e 94 9a e8 3b 4a 05 0e bf 1a 99 31 3d
       0.29552892 0.0070985053 -0.5547682 0.0433589
000360 6c 0b 23 bf 33 b6 03 be 20 e1 99 3e d8 01 38 bd
       -0.63689303 -0.12862472 0.3005457 -0.044923633
000370 ee d7 84 3e 6f 0e 4d be a7 3c ed 3e c3 e2 6c ba
       0.2594599 -0.20025037 0.46335337 -0.00090364757
000380 34 c5 8f bd 8f f0 ce be b5 e5 9a 3e e6 b2 d5 be
       -0.070200354 -0.40417907 0.30253378 -0.4173805
000390 ea 87 d0 be 65 f9 4b 3d 24 6d 8a be ea 41 8e 3c
       -0.40728694 0.049798388 -0.27036393 0.017365415
0003a0 94 72 aa bd dc d0 cc 3e 78 54 fe 3e 3e 9b e2 be
       -0.08322635 0.40003097 0.4967382 -0.44259065
0003b0 bd 0a d8 3e 0f 37 c9 3e cb a7 ec be 66 7c d1 be
       0.42195693 0.3929982 -0.46221766 -0.4091522
0003c0 a7 5e dd 3e 24 ff 65 be 6a 58 09 bf 6b 42 b3 be
       0.43236277 -0.2246061 -0.53650534 -0.3501161
0003d0 ab ff b6 3e 72 d6 ad 3e e0 90 33 be 85 cf 7d 3e
       0.35741934 0.3395267 -0.17535734 0.24786194
0003e0 9a a8 1d 3e 81 c5 a2 3e dc 02 a7 3e 43 9b b6 3e
       0.15396348 0.3179131 0.3261937 0.3566533
0003f0 00 75 cd 3e 6e 9c fd 3e 46 27 94 3e 5b 1b 02 bf
       0.40128326 0.4953341 0.28936213 -0.5082299

feature_exact.op_attention_blocks.0.attention_3.a f4 [64, 1]
000000 3d 21 9a 3e fa 09 ae 3e 7d fb 96 be 19 94 38 3e
       0.30103484 0.33991987 -0.29488745 0.18025245
000010 80 6d 9a be 14 9b 35 3e b6 fc bd 3e 3a c1 77 3e
       -0.30161667 0.17734939 0.37106866 0.24194804
000020 f1 68 cf be 2f 3e 47 bd 06 d9 d3 3c 60 5a c1 be
       -0.4050975 -0.048643287 0.02586032 -0.37764263
000030 ac 84 94 be 54 37 9f be bd fe c5 3e ff b8 95 be
       -0.2900747 -0.310969 0.38670912 -0.29242703
000040 2c d0 ef 3d fb 57 82 3e dc be ad 3c 29 69 0e be
       0.117096275 0.2545775 0.021209173 -0.13907303
000050 e5 94 bf be 3b ad 25 be 16 a4 43 3e 14 32 04 3f
       -0.37418285 -0.16179363 0.19105563 0.51638913
000060 80 75 31 3e 1f 77 a7 be c7 20 fd 3e 88 2b 07 3e
       0.17329979 -0.3270807 0.4943907 0.132002
000070 bf b4 81 be f4 f2 fc be 4e 61 1c 3d d6 e3 85 3e
       -0.2533321 -0.4940411 0.038178734 0.26150388
000080 a9 03 f3 3e 4e 58 13 3e 1a c9 0c bc 6b 9f 16 3e
       0.4746373 0.14389154 -0.008592868 0.1470925
000090 65 16 be be 91 2f a0 3d a2 fd 01 bf 7d a5 5f be
       -0.3712646 0.078215726 -0.5077764 -0.21840473
0000a0 0f 84 8c 3c db ae 72 be e1 a3 14 bf 31 a1 0d be
       0.017152814 -0.23699515 -0.5806256 -0.13831021
0000b0 cd 2c d1 3e 7c 54 94 3c a9 05 20 be cc fb ce 3d
       0.40854493 0.018106692 -0.15627159 0.1010662
0000c0 49 ac 05 3f 2b 5f 0a 3c 5f fe 1b 3e 27 c1 b2 be
       0.5221601 0.008445541 0.15233754 -0.3491299
0000d0 2b 88 89 3e 8a 2d 97 3c 92 83 96 bd 3b 0c 25 be
       0.268617 0.018454332 -0.07349314 -0.16117947
0000e0 8c ad d0 be 67 bc b0 be 6c 4f 7b bd e0 c0 e5 be
       -0.40757406 -0.3451874 -0.06135504 -0.44873714
0000f0 51 e7 98 be 7c c8 5a be a2 e2 93 3e 6c 71 f0 3d
       -0.2986398 -0.21365541 0.28883845 0.117403835

feature_exact.op_attention_blocks.1.attention_0.W f4 [128, 8]
000000 dc 98 26 3a c7 7d 5c be ee ff a4 3c 6d 98 8d 3e
       0.0006355175 -0.21532355 0.020141568 0.27655354
000010 2f d8 b8 3d c4 4a 4f 3e cc 7c a4 bd c4 37 63 3e
       0.09025609 0.20243365 -0.080316156 0.22189242
000020 10 3f b1 3d 1b 3e 87 be 16 43 62 3d 50 35 f3 3d
       0.08654606 -0.2641457 0.05523976 0.11875403
000030 00 4d d9 bd 3c fd a4 3d 44 f9 88 3e 01 77 00 bd
       -0.1061039 0.08056113 0.26752675 -0.03136349
000040 9e 44 e9 bd b7 81 d8 3b 25 7e 9f 3e d6 7c ce bd
       -0.11390041 0.00660726 0.31150928 -0.10082404
000050 0d 9f 6e 3d ec 16 8c 3e b2 ad 20 3e c9 df ad bd
       0.05825715 0.27361238 0.1569126 -0.08489949
000060 7d a8 11 bd 30 c0 84 be b2 11 29 3d f1 96 67 3d
       -0.035561074 -0.25927877 0.04127664 0.056540433
000070 dd ef c5 bd 40 c9 70 bc ab d5 3f 3d d2 cf 6a bd
       -0.09664891 -0.014696419 0.04683463 -0.0573271
000080 b2 6b 63 3e 54 e8 02 be 54 b9 6b be fb 68 a3 bd
       0.22209051 -0.12783939 -0.23019916 -0.07979008
000090 20 d7 b2 3d ff 10 18 be 17 dc c4 3e f5 3e 48 3e
       0.08732438 -0.14850233 0.38449165 0.19555266
0000a0 08 af 2e 3d 61 dd fe bd e5 cc 3b 3e 90 6d 71 be
       0.04264739 -0.124445684 0.1833988 -0.23576951
0000b0 ac c2 13 bc cf 2d d5 bd 0d a5 ae bd c7 5b 35 3d
       -0.009018581 -0.10409128 -0.08527575 0.04427698
0000c0 38 61 a3 be ac 12 5e be b9 ba cd bd c6 cf 87 be
       -0.3191011 -0.2168681 -0.1004538 -0.26525706
0000d0 3d 33 86 be b8 c4 f2 3b ef d8 59 be 55 7c 4d 3e
       -0.26210967 0.0074087046 -0.2127416 0.2006696
0000e0 1f 97 1a ba e3 a2 c1 be 9b 92 42 3c d1 a7 a0 3c
       -0.00058971526 -0.37819585 0.011875774 0.019611271
0000f0 86 31 4c be 89 0e 33 3e 78 61 af bd a4 43 93 3d
       -0.19940767 0.17486013 -0.085635126 0.07190636
000100 0d ac 38 bd 23 7b b5 3e 82 a3 33 3e a3 f8 1e 3e
       -0.045085955 0.35445508 0.17542842 0.15524535
000110 f1 24 18 3e 68 61 5c 3e 64 be a5 3e 43 ae 44 be
       0.14857842 0.21521533 0.3237182 -0.192071
000120 ea 18 27 be a9 99 55 be 9a 50 50 be b6 18 32 3e
       -0.16318098 -0.20859398 -0.20343247 0.17392239
000130 d8 08 39 be de 1b 25 be 92 22 d0 3d 1e c9 6e bb
       -0.1806978 -0.16123912 0.10162844 -0.0036435793
000140 a3 31 4e 3e 10 72 79 3e 83 5c 6f 3e df 36 24 3e
       0.20136122 0.24359918 0.23375134 0.16036557
000150 72 3a 99 be 7f a5 23 3c dc 2c 04 bd 8d 68 45 3e
       -0.29927403 0.009988188 -0.032269344 0.19278164
000160 bf b6 28 3e e7 29 0e 3e 56 c3 06 be 23 9b a9 3d
       0.16475962 0.13883172 -0.13160452 0.08281543
000170 50 ae 9f 3e 71 87 36 3e 08 67 26 be a8 cd 60 3e
       0.31187677 0.17825104 -0.16250241 0.21953452
000180 07 27 7a 3e e5 77 8a be 0d 03 0e 3e 29 37 8e be
       0.2442895 -0.27044597 0.13868351 -0.2777646
000190 b9 87 b2 3d 10 62 3f 3d 19 91 ad bd 77 33 82 3d
       0.08717293 0.04672438 -0.08474941 0.063574724
0001a0 f1 57 13 3d 93 93 01 be 18 df 52 3e ff 61 43 be
       0.03597254 -0.12653951 0.20592916 -0.19080351
0001b0 ae 34 05 3e 84 68 68 3d 4a b6 2b 3e 67 88 ad bd
       0.13008377 0.0567403 0.16768757 -0.08473282
0001c0 a0 11 ae 3e 1e 46 32 3d b7 b7 e6 bd 61 f5 98 3e
       0.33997822 0.0435239 -0.112655096 0.2987471
0001d0 e0 40 5f bd e7 57 18 3e 58 13 b4 3e 62 5f c6 ba
       -0.05450523 0.14877282 0.35171008 -0.0015134627
0001e0 80 75 e3 3d 56 6c 6f be ba 02 42 bc 42 71 8d 3e
       0.11106396 -0.2338117 -0.01184147 0.2762547
0001f0 ee 6b 23 be 25 68 fa 3d a3 75 c3 3d 9d 3d 81 3e
       -0.1595914 0.12226895 0.09543922 0.2524232
000200 2d 26 a5 3e 0c 8e 8e be 9d 73 72 bd 77 e7 17 be
       0.32255688 -0.27842748 -0.05919229 -0.1483439
000210 92 f4 aa 3d d4 97 4a be 78 03 57 be 40 c6 99 be
       0.08347429 -0.1978448 -0.20997417 -0.30034065
000220 95 0b 22 3e 40 10 e1 bc bf e4 24 3e 97 5a a0 bd
       0.1582473 -0.027473569 0.16102885 -0.07829779
000230 60 78 7c bd 1a ab 77 3e 04 01 35 be 6a d7 19 3e
       -0.061638236 0.24186364 -0.17676169 0.1502358
000240 a6 e3 77 bd f7 32 18 3e 87 d1 6d 3d 85 5e 18 be
       -0.060519837 0.14863192 0.05806115 -0.14879806
000250 d5 77 9d be 38 a4 53 bb b5 bd f6 3d cf 54 19 bd
       -0.30755487 -0.0032293927 0.120479025 -0.037434395
000260 12 8d 4c 3e 93 ac 8c 3e ed 75 03 3d f4 bd 9e be
       0.19975689 0.27475414 0.032094885 -0.31004298
000270 54 8f a4 be 43 04 73 3e 7e e9 90 3d d1 ed 4c 3e
       -0.321406 0.23732094 0.07075785 0.20012595
000280 f7 6f 45 3d 37 ca 0f 3b fa bc be be cd 4e 31 3e
       0.04820248 0.0021940598 -0.37253553 0.17315216
000290 d0 6a 05 3c 1e ce 55 be 87 12 3b bc 69 bc a7 3e
       0.008143142 -0.20879409 -0.0114179915 0.32760933
0002a0 71 df 3e be 35 28 7b be 9b 59 83 3e 06 a8 7f 3e
       -0.18639924 -0.24527057 0.256543 0.2496644
0002b0 70 a2 48 3e 4e 00 8a bd 7a 88 80 3c 6a 87 91 3e
       0.19593215 -0.06738339 0.015690077 0.28423625
0002c0 4e 5d c6 bd 22 fb 74 bc 2b e8 06 bc d8 63 51 3e
       -0.09685765 -0.014952453 -0.008234064 0.20448244
0002d0 5e 3c 8e be 75 2b b4 3d 8e 68 1c 3d 92 b1 cf 3d
       -0.27780432 0.08797351 0.03818565 0.10141291
0002e0 5a 99 22 bd 0f 72 43 bd fc 64 16 be 89 27 a7 be
       -0.03969703 -0.047716197 -0.1468696 -0.3264735
0002f0 52 dc 89 3e 19 6a e3 bd 33 31 6c be f7 c1 46 be
       0.26925904 -0.11104221 -0.23065643 -0.19409929
000300 cb 2f 44 3e 83 a2 6f 3e 15 55 4f 3e 58 6a 47 3e
       0.19158857 0.23401837 0.202473 0.1947416
000310 c1 0d 42 3e a5 30 4a 3e 67 b2 85 be 14 d9 2d 3e
       0.18950559 0.19745119 -0.26112673 0.1697734
000320 69 53 59 3d 1f 74 82 3e 73 4f 93 3e 87 4c a6 be
       0.05305806 0.25479218 0.28771552 -0.3248026
000330 b7 8c 51 be a2 a4 7c 3e f2 be 46 3e c9 de 9f 3e
       -0.20463835 0.24672177 0.19408777 0.3122466
000340 28 8e 16 3d d5 9f f4 bd 26 6d 81 3e af bd 34 3e
       0.036756665 -0.11944548 0.25278586 0.17650484
000350 84 04 e0 ba c4 cf 59 3d f0 31 bd be dc be f8 3d
       -0.001709119 0.053176656 -0.36952162 0.121457785
000360 85 e1 8b 3e 01 ff 58 be 1a f1 8f be 77 86 45 3e
       0.27320495 -0.21191026 -0.28113633 0.19289576
000370 f1 bf 8d 3e b3 d1 3c be 22 20 0c be 35 9a 50 be
       0.27685502 -0.18439369 -0.13684133 -0.20371325
000380 bc 95 38 3e a1 ca 81 be b0 1e 1e be 4c 92 35 3e
       0.18025869 -0.25349906 -0.15441394 0.17731589
000390 2e d4 0d be 41 bc 4b be 3b 68 48 3e 66 3f 79 be
       -0.13850471 -0.19896032 0.19571011 -0.24340591
0003a0 99 a8 60 3c 27 9b 22 be 97 88 af 3d 9b 23 ae be
       0.013712072 -0.15879498 0.08570974 -0.3401154
0003b0 76 7d 19 be f8 86 26 3e 44 98 9d 3e 84 09 2c 3e
       -0.14989266 0.16262424 0.30780232 0.16800505
0003c0 58 97 82 be b5 85 e5 bd c9 d9 89 be 8f 38 54 be
       -0.2550609 -0.11207143 -0.2692397 -0.207247
0003d0 6e ee 26 bd 23 07 63 be c8 f6 ba 3c 03 b4 25 3e
       -0.040754728 -0.22170691 0.022822753 0.1618195
0003e0 9c c9 7f bc a5 de 6d 3e d8 03 46 3e cc 1e 29 3e
       -0.015612032 0.23229463 0.19337404 0.16515654
0003f0 7d 63 02 be 2b bc 3d be ba b6 76 be ea b1 0d 3e
       -0.12733264 -0.18528812 -0.24093142 0.138374

feature_exact.op_attention_blocks.1.attention_0.a f4 [16, 1]
000000 b1 88 8b 3d b6 80 c4 be 33 13 97 be 81 8a 42 bf
       0.06813181 -0.3837945 -0.29506835 -0.7599259
000010 65 f3 3c 3e 3e e6 b8 be 47 07 7d bf 3f f6 cc 3e
       0.18452223 -0.3611316 -0.9883923 0.4003162
000020 5c 2e 63 3f f7 38 d6 3e 60 ae 0a bf 78 b8 88 3e
       0.88742614 0.41840336 -0.54172325 0.26703238
000030 35 3f 9d 3e 3d d9 cf be 9c fc 35 3f 84 b4 4d bd
       0.30712286 -0.40595427 0.71088576 -0.05022098

feature_exact.op_attention_blocks.1.attention_1.W f4 [128, 8]
000000 e2 39 8b be 8d 70 61 be 87 85 e4 bd 9c 5a 2d 3e
       -0.271926 -0.22015591 -0.11158281 0.16929096
000010 54 00 98 be b1 28 8f bd a6 48 6c bd 8f 0a 52 3e
       -0.2968775 -0.06990183 -0.05768647 0.2051184
000020 d6 b2 14 3e 94 2d 75 bc 51 c0 c2 be d4 d9 65 bd
       0.14521345 -0.01496448 -0.3803735 -0.05611594
000030 26 06 34 3d f8 9d 5d be 29 fd 0a 3d 6d c3 e7 bd
       0.043951176 -0.21642292 0.03393284 -0.113165714
000040 91 c2 bf 3d dd d3 80 bc 29 8d 4f be db 45 c9 3d
       0.093632825 -0.015726024 -0.20268692 0.09827777
000050 34 b7 79 3e 25 d8 32 3e 90 c3 b6 bd 5c 65 2b 3e
       0.24386293 0.17465265 -0.08924019 0.16737884
000060 a7 7f 7a 3d 4e 86 06 bd 62 bf 9a 3e 8c f5 ba bd
       0.061156895 -0.032842927 0.30224138 -0.091288656
000070 6f d3 8b be 1e b3 4a 3e 65 e4 8d be 8d 94 be bb
       -0.2730975 0.1979489 -0.27713314 -0.0058160485
000080 cd ad 2e be c7 ce 7d 3e 28 7a cf bd 58 39 a5 3e
       -0.17058487 0.2478591 -0.10130721 0.32270312
000090 1a 94 e5 ba dc bc 89 be 19 d6 10 be 74 7d 4b be
       -0.0017515451 -0.269019 -0.14144172 -0.19872075
0000a0 1a c3 89 3e 79 eb b5 bd aa e6 4c be 01 25 1c 3e
       0.26906663 -0.088828035 -0.20009866 0.15248491
0000b0 2e 0e 2b be 86 33 3e bb 88 77 28 3e 44 8a 1f 3e
       -0.16704628 -0.002902241 0.16451848 0.15580088
0000c0 14 77 a9 be 16 63 42 be 66 e6 1f bd 00 21 a6 be
       -0.33098662 -0.18983111 -0.039038084 -0.32447052
0000d0 22 e6 43 be 0b a7 d6 3d cc b0 93 be 49 2a 11 be
       -0.19130757 0.1048108 -0.28845823 -0.14176287
0000e0 fb c6 3e 3d d9 98 c7 be 18 b5 2d 3e 6a 63 b8 bd
       0.04657648 -0.389838 0.16963613 -0.09003337
0000f0 44 bd 37 3e 0c 5e 48 3e fc e4 b4 3e a3 c4 d1 3d
       0.17943293 0.19567126 0.3533095 0.102425836
000100 8b 83 3b 3d 06 0a 17 3e a2 92 87 3e 22 86 1c 3e
       0.045779746 0.14749917 0.2647906 0.15285543
000110 c4 4e 45 be 60 6e 94 be bc e7 92 3e fe d3 45 3e
       -0.19268328 -0.2899046 0.28692424 0.1931915
000120 40 83 20 bb a0 6a 19 be 5b 67 78 be 5a a2 d7 bc
       -0.0024492294 -0.1498208 -0.24258177 -0.026322532
000130 4a 6c f5 bc 30 c4 19 3e 82 41 7c 3e dd 1d 81 3e
       -0.029958863 0.15016246 0.24634364 0.25218096
000140 ab bf 15 be cd a7 1f 3e 29 00 d6 3d e3 e5 a3 be
       -0.14623897 0.15591355 0.10449249 -0.32011327
000150 8c de 03 3d f7 db 0f 3e aa 82 48 be ca 69 82 be
       0.03219466 0.14048754 -0.19581094 -0.25471336
000160 36 cf 3c be 11 46 ec 3d 32 b8 d6 bc c3 70 f5 3c
       -0.1843842 0.115368016 -0.026210878 0.029960996
000170 24 d7 4a bd b4 76 13 3e e5 c3 06 3d d6 0a d8 3d
       -0.04952158 0.1440075 0.032901663 0.10548942
000180 a5 dc 2d 3d f4 b2 bd be 12 b5 68 3e d3 6a 2f bd
       0.04244675 -0.37050593 0.22725323 -0.042826485
000190 a4 f2 8e be 24 c7 d2 bd e8 be a4 bc 14 ab 33 be
       -0.27919495 -0.10291889 -0.020110562 -0.1754573
0001a0 f9 81 88 be 11 e8 43 bd 73 53 5f 3e 96 fa bd bd
       -0.2666166 -0.047828738 0.21809177 -0.09276311
0001b0 81 fd df 3d 71 80 8a 3d a5 ea 45 be 8e 7f 9b bd
       0.10937024 0.067627795 -0.19327791 -0.075926885
0001c0 cf 17 1b 3e c3 4c b6 be 55 9d 10 be 55 65 31 3e
       0.15145801 -0.3560544 -0.14122517 0.17323811
0001d0 81 1e af be 4f ac eb 3d cf 40 95 3e f4 8f 28 3e
       -0.3420296 0.11507475 0.29151008 0.16461164
0001e0 57 4c 1f 3e 03 36 ca 3c 90 5e b2 3e cb ea 19 3e
       0.15556465 0.024683958 0.3483777 0.15030973
0001f0 98 96 fa bd e9 09 77 be 60 86 57 bd 8c 92 b7 3e
       -0.12235755 -0.24124874 -0.052618384 0.35853994
000200 d5 48 12 be e8 39 ad 3d b0 cd 8a bd 51 7e 1b be
       -0.14285596 0.0845831 -0.06777513 -0.15184905
000210 43 ef 1e 3e b4 f6 8a 3e 74 30 84 be 61 50 66 3e
       0.15520959 0.27141345 -0.25818217 0.224916
000220 bc 1a 47 3e ff 35 6a bc 21 81 95 3e 93 dd 8c be
       0.19443792 -0.0142951 0.2920008 -0.27512798
000230 b5 a7 2f 3e 4a 33 90 3e 94 9e a7 3e 72 58 12 bd
       0.17153819 0.2816413 0.32738173 -0.03572888
000240 28 9e b0 3e 0f da 0d bd e9 6b 1b 3e 97 5b 36 3e
       0.34495664 -0.034631785 0.15177883 0.17808376
000250 88 e1 00 3e bd 25 79 3c cc da 47 3c 81 7d 12 3c
       0.12586033 0.015206751 0.012198161 0.008941055
000260 41 fb fd bd 19 7c a8 be f0 b5 ac 3c fe d4 74 be
       -0.124014385 -0.3290718 0.021082848 -0.23909375
000270 bf 91 ba 3d 79 e3 ba bd 84 0a 1c be ad d1 ee bd
       0.0910983 -0.09125418 -0.15238386 -0.11661086
000280 87 4f 95 3e a6 57 12 3e 27 52 06 be 85 c0 27 3e
       0.29162237 0.14291248 -0.13117276 0.16382034
000290 01 07 0a bd 6a b4 45 3e 10 8f dc 3d e9 60 f0 3c
       -0.033698086 0.19307104 0.107694745 0.029343085
0002a0 cb 5f 92 3e ba 23 0d 3e 68 69 85 be 02 47 66 3e
       0.2858871 0.1378316 -0.2605698 0.22488025
0002b0 53 fd b8 bd 3a 36 6b 3e 99 50 8f 3e 60 d2 54 3e
       -0.09032693 0.22969905 0.2799118 0.20783377
0002c0 24 1d 32 3e 95 a5 5e 3e 7a f3 a9 bc 1a 73 39 3e
       0.17393929 0.21742852 -0.020745981 0.18110314
0002d0 aa 44 a1 bd 35 ca 64 be 49 92 a0 3d 20 33 10 3e
       -0.07874425 -0.22342761 0.07840402 0.14082003
0002e0 a3 65 66 be 6b ef ef bd 29 bf b2 3e 34 21 62 be
       -0.22499709 -0.11715587 0.3491147 -0.22082978
0002f0 52 3b 90 be dd f0 f3 3d de 54 f5 3d a7 89 9a 3e
       -0.28170258 0.119111754 0.11979078 0.30183145
000300 57 61 69 be 51 22 c8 3d c5 c6 da 3d c3 84 d5 bd
       -0.22791038 0.0977217 0.106824435 -0.10425713
000310 d2 2b 80 be a5 db 46 be 66 b6 1b 3b cf 3b 8b 3d
       -0.25033432 -0.19419725 0.002375984 0.06798517
000320 ef 0f bb 3d 91 a6 12 3e 52 5f ea 3d 7d b6 9c be
       0.091338985 0.14321353 0.11443962 -0.30607978
000330 47 1d 8a 3e 5d 8b 74 3e e2 83 02 3e a2 1f 8c 3e
       0.26975462 0.23881288 0.12745622 0.27367884
000340 34 be 67 3d 64 ae a2 3d 4a da 58 3d 73 09 da 3d
       0.056577876 0.079434186 0.05294255 0.106463335
000350 8c 45 05 3a 87 fb fe bc e1 45 c0 ba c2 20 0a 3d
       0.00050839107 -0.031125797 -0.0014669263 0.033722647
000360 ab 8f 87 be 9f 19 27 3e ca 2e 39 be 34 ac 93 bd
       -0.26476797 0.16318367 -0.18084255 -0.072105795
000370 27 1e 22 3c ad a7 08 3e 5f b4 0e be 3a 3f 4c 3e
       0.009894884 0.13345213 -0.13935994 0.19945994
000380 7c 07 b0 be 66 ef 56 3c 3b f7 59 bd 8e 61 92 3e
       -0.3438071 0.0131186005 -0.053214293 0.28590053
000390 2e 56 66 3e d0 e9 83 be a0 12 c4 bd 03 f3 04 3d
       0.22493812 -0.25764322 -0.09573865 0.032458317
0003a0 34 75 3d be d2 fe b7 3d ef 62 d2 3d 7d d8 06 3e
       -0.1850174 0.0898415 0.10272776 0.13168521
0003b0 44 5c 33 be 89 48 20 3e d5 35 68 bd cd 81 e4 bd
       -0.17515665 0.1565267 -0.056691963 -0.1115757
0003c0 ac 08 a8 be da 7f 81 be 5e 4e 2e 3e 47 c4 47 be
       -0.32819116 -0.25292856 0.17022082 -0.19508468
0003d0 6c c2 01 3e 7c 51 85 3e 16 ef 83 be f9 b6 0c 3e
       0.12671822 0.2603873 -0.25768346 0.13741674
0003e0 6e 6d 18 be 5b 2b e9 bd a8 60 18 be fa 19 9e be
       -0.14885494 -0.113852225 -0.14880621 -0.30879194
0003f0 86 ad d6 3d ad 5a 13 3e 45 bf 16 be c4 43 c9 bd
       0.10482316 0.14390059 -0.14721401 -0.098273784

feature_exact.op_attention_blocks.1.attention_1.a f4 [16, 1]
000000 a6 99 05 3f b2 ce e6 be 04 98 39 bf 41 c9 d9 3d
       0.52187574 -0.4507957 -0.7249758 0.10634089
000010 60 48 4f be 83 72 c8 3e b0 2a e6 3e 99 57 51 bf
       -0.20242453 0.39149866 0.44954443 -0.8177429
000020 f5 65 94 3f bb ae 90 be 8c 0a 52 bf db e4 eb 3e
       1.1593615 -0.2825831 -0.82047343 0.4607304
000030 b6 1e 04 3f c8 f7 3b 3f 3e c3 3d 3f 96 f8 15 bf
       0.5160936 0.7342496 0.7412604 -0.5858244
